ppo_actor.pth (torch, 204119 bytes, 6 tensors)

layer1.weight f4 [64, 722]
-0.03214664 0.013266381 -0.03108113 -0.025245758 -0.03324677 0.0028821789 0.020542348 -0.033860918
0.032525845 0.019329706 0.012543669 0.020213185 -0.027454922 0.033475645 -0.027197458 0.00854054
-0.016247125 -0.02768197 -0.033076122 -0.022775313 -0.028783249 0.026606387 -0.033876177 -0.030272616
0.026299939 -0.03413444 0.028109148 -0.00474318 -0.02322546 0.015547231 -0.014090064 0.0013367073
-0.02971544 0.019553905 -0.037004966 -0.027850166 0.020476451 0.03367891 -0.007644462 -0.02613164
0.036090065 0.020977827 0.019967636 0.0026505664 -0.0356609 -0.011700018 0.005844756 -0.0056687556
0.0043959515 -0.03529244 -0.0272824 -0.0049633593 -0.020953722 0.007885352 0.014412154 -0.014809586
0.011002177 -0.020015081 -0.004491066 0.0071612685 -0.020249825 -0.01638747 -0.03127238 -0.028053666
0.0045705196 -0.026926277 -0.0067873015 0.030067189 -0.002506238 -0.018165842 -0.03623503 0.032619815
-0.0016645875 0.029473752 0.00789992 0.021158734 0.013813593 -0.022871891 0.021939209 -0.032751426
-0.0077592037 0.010576587 0.012227883 0.003955375 0.010340706 -0.033155445 0.012490843 -0.027038485
-0.020260949 0.035544425 -0.021526072 -0.030795645 -0.01747705 0.01944452 0.0009356201 0.016296517
0.03214597 -0.0074430713 -0.010402667 -0.030768307 -0.017913425 -0.0024862515 -0.014747413 -0.0091128275
-0.01731521 0.019537691 -0.033886224 0.002829859 0.035776164 -0.025982432 0.023009282 0.029320959
0.008653174 -0.0019373131 0.028334016 -0.015032423 0.021810634 -0.019839635 -0.021628901 0.030450583
0.0020001652 -0.017802322 -0.015040027 0.0068488717 0.032497842 -0.0015313724 0.031447805 -0.0123151895
0.02632658 0.015425324 -0.0036692692 -0.01025652 0.017906882 0.0010593765 -0.0010942919 -0.004900813
-0.0073347846 0.027914217 -0.0051017604 0.0022904505 -0.026995607 0.012372669 -0.017466927 0.02786589
-0.032386526 0.013841628 -0.021772113 -0.015385751 -0.009869079 -0.000569781 0.012636477 -0.0055282824
-0.023239918 0.016562255 -0.02058323 0.03466401 0.017485494 0.0016551865 -0.02160678 -0.021730999
-0.03658129 0.0018386407 -0.021612318 -0.020696165 0.02058085 -0.030243872 -0.027438117 0.022412814
-0.022688745 -0.007940697 0.01867766 -0.0356834 -0.015808608 0.026380178 -0.015437974 0.00018508233
0.017635802 0.01196659 -0.012381582 0.025748387 0.01860589 0.0031525576 0.009357922 0.02509275
0.005825444 -0.029581625 0.027397003 -0.035006255 0.024067296 -0.01614097 0.033553444 -0.035314884
0.015520852 -0.036998402 0.03268791 0.010651418 0.0064851665 0.022469616 -0.02682349 -0.029712424
-0.027591834 -0.016842302 0.0323945 0.012235634 -0.030656908 -0.0047151763 -0.020826759 -8.273204e-05
0.02680989 -0.019701082 -0.0034261881 -0.0078994725 -0.017790522 0.010379859 0.010805644 -0.002947511
0.026259301 -0.024247654 0.021965407 -0.028011652 0.032645214 0.02653802 0.009308708 -0.03490246
0.014498733 0.0046804384 0.0067997905 -0.017544238 0.0064665955 0.020854145 -0.035684183 -0.013727845
-0.030404119 -0.026093083 0.021779077 0.020115249 0.033508506 -0.024089638 -0.010721883 -0.0041066026
0.010300716 -0.03350791 0.0023979915 -0.031124737 0.03696697 -0.023744615 -0.0071556163 0.00586575
0.007625443 0.007402113 -0.02733676 0.008755928 -0.025965724 -0.009483249 0.03230323 0.013372494
00000000: 32ac 03bd 3c5b 593c db9d febc 31d0 cebc
00000010: c42d 08bd f0e2 3c3b 6d48 a83c bfb1 0abd
00000020: d239 053d 5559 9e3c f683 4d3c 1f96 a53c
00000030: 25e9 e0bc c21d 093d 34cd debc 9fed 0b3c
00000040: b118 85bc 4cc5 e2bc d47a 07bd 4b93 babc
00000050: d9ca ebbc a3f5 d93c bfc1 0abd 47fe f7bc
00000060: f872 d73c 8ed0 0bbd 2845 e63c ad6c 9bbb
00000070: 5243 bebc d0b9 7e3c 03da 66bc 7434 af3a
00000080: cb6d f3bc 832f a03c 8592 17bd 0826 e4bc
00000090: 3bbe a73c e6f2 093d 657e fabb 0512 d6bc
000000a0: 2dd3 133d b1d9 ab3c 2b93 a33c 20b5 2d3b
000000b0: 2a11 12bd 6fb1 3fbc 5e85 bf3b f8c0 b9bb
000000c0: ea0b 903b ce8e 10bd 577f dfbc ada3 a2bb
000000d0: 24a7 abbc 9031 013c f520 6c3c e8a3 72bc
000000e0: 7a42 343c abf6 a3bc cb29 93bb 13a9 ea3b
000000f0: f6e2 a5bc 043f 86bc 7817 00bd cdd0 e5bc
00000100: 4cc4 953b 7f94 dcbc 0368 debb 774f f63c
00000110: b23f 24bb 88d0 94bc 2f6b 14bd 5b9c 053d
00000120: 4a2e daba f072 f13c ab6e 013c 1555 ad3c
00000130: 6952 623c d55d bbbc dbb9 b33c 5c26 06bd
00000140: eb40 febb 6c49 2d3c 7557 483c 179c 813b
00000150: 116c 293c 01ce 07bd 65a6 4c3c d07f ddbc
00000160: 4afa a5bc 0897 113d 7257 b0bc 2647 fcbc
00000170: 082c 8fbc 1d4a 9f3c 6744 753a 4680 853c
00000180: 7eab 033d 02e5 f3bb f36f 2abc d10d fcbc
00000190: 2dbf 92bc 61f0 22bb 229f 71bc f84d 15bc
000001a0: a1d8 8dbc 820d a03c 48cc 0abd 2875 393b
000001b0: 078a 123d 1cd9 d4bc f67d bc3c 8232 f03c
000001c0: 0bc6 0d3c 71ed fdba bd1c e83c 8d4a 76bc
000001d0: 37ac b23c bb86 a2bc 182f b1bc 8073 f93c
000001e0: 3415 033b 2dd6 91bc 726a 76bc 806c e03b
000001f0: 751c 053d 55b8 c8ba 6acf 003d a6c5 49bc
00000200: d7aa d73c 80ba 7c3c 1f78 70bb f60a 28bc
00000210: 74b1 923c c7da 8a3a 586e 8fba 0097 a0bb
00000220: a258 f0bb 5bac e43c ab2c a7bb 621b 163b
00000230: e425 ddbc bcb6 4a3c cd16 8fbc 0247 e43c
00000240: bca7 04bd ffc7 623c 6e5b b2bc 8414 7cbc
00000250: ebb1 21bc 5b5d 15ba 3a09 4f3c 9826 b5bb
00000260: a461 bebc 91ad 873c 299e a8bc d9fb 0d3d
00000270: bd3d 8f3c d8f2 d83a b400 b1bc 3505 b2bc
00000280: 43d6 15bd 8bfe f03a 510c b1bc 018b a9bc
00000290: 2c99 a83c ffc1 f7bc e7c5 e0bc 149b b73c
000002a0: bfdd b9bc b219 02bc e401 993c c228 12bd
000002b0: 0e81 81bc 3e1b d83c 8eef 7cbc a912 4239
000002c0: f578 903c 840f 443c 1edc 4abc 48ee d23c
000002d0: 616b 983c 249b 4e3b f851 193c 508f cd3c
000002e0: 5ee3 be3b 2a55 f2bc ae6f e03c b862 0fbd
000002f0: c728 c53c 113a 84bc 566f 093d 57a6 10bd
00000300: 2c4b 7e3c a38b 17bd c2e3 053d 4983 2e3c
00000310: 8581 d43b 3312 b83c f0bc dbbc 7867 f3bc
00000320: 4508 e2bc def8 89bc 18b0 043d f877 483c
00000330: 3224 fbbc c481 9abb e19c aabc 6d80 adb8
00000340: 6aa0 db3c 2a64 a1bc e689 60bb ca6c 01bc
00000350: 6ebd 91bc 4910 2a3c 280a 313c 072b 41bb
00000360: bf1d d73c 04a3 c6bc ccf0 b33c b178 e5bc
00000370: fdb6 053d 4366 d93c 8d83 183c e2f5 0ebd
00000380: 188c 6d3c 5d5e 993b c7d0 de3b efb8 8fbc
00000390: bce5 d33b 50d6 aa3c 9429 12bd c1ea 60bc
000003a0: 0f12 f9bc 29c1 d5bc 096a b23c bcc8 a43c
000003b0: 3740 093d a257 c5bc d6aa 2fbc ae90 86bb
000003c0: 56c4 283c 973f 09bd 9f27 1d3b 4ef9 febc
000003d0: ad6a 173d 1184 c2bc a979 eabb 7a35 c03b
000003e0: dade f93b 6d8d f23b 57f1 dfbc 0675 0f3c
000003f0: 12b6 d4bc a15f 1bbc 6450 043d 4e18 5b3c

layer1.bias f4 [64]
0.028784797 -0.017390743 -0.005950163 0.012646849 -0.034063816 0.020181857 0.02770776 0.020082356
-0.010965686 0.012502982 0.020519072 0.026885232 -0.032987315 -0.033066787 0.035376757 0.0114907455
-0.035108656 -0.036205977 0.0074679954 0.0007723787 -0.00066598406 0.027964223 0.026357612 -0.012622839
-0.02094741 -0.032978527 0.0059292805 0.019910026 0.013116552 -0.007703055 -0.031592544 0.030187823
0.00016332569 -0.0359768 -0.016812148 0.0049484926 0.014182547 0.03194456 0.020919908 0.014253846
0.004697461 -0.022394352 -0.023033746 -0.017641911 -0.03144814 -0.0049833814 -0.031287186 0.017249733
-0.02334313 -0.019209132 -0.024110392 -0.035968676 -0.03620542 0.0035186051 -0.02032964 -0.02890717
-0.016708126 0.02482077 -0.0009499621 -0.027689774 -0.03149131 0.031549532 0.014239107 -0.0046894667
00000000: 18ce eb3c 0877 8ebc 96f9 c2bb bb34 4f3c
00000010: 8086 0bbd 6c54 a53c 62fb e23c c183 a43c
00000020: 6ca9 33bc 4fd9 4c3c 9d17 a83c 6b3e dc3c
00000030: b51d 07bd 0a71 07bd 38e7 103d ae43 3c3c
00000040: 18ce 0fbd b84c 14bd 16b6 f43b 7579 4a3a
00000050: 6f95 2eba 3a15 e53c ebeb d73c 06d0 4ebc
00000060: e799 abbc 7e14 07bd 694a c23b 5a1a a33c
00000070: cee6 563c e969 fcbb 2f67 01bd 744c f73c
00000080: 6842 2b39 695c 13bd a1b9 89bc f726 a23b
00000090: ea5d 683c 4dd8 023d 3a60 ab3c f788 693c
000000a0: 29ed 993b 5c74 b7bc 44b1 bcbc c585 90bc
000000b0: c4cf 00bd a24b a3bb fe26 00bd 504f 8d3c
000000c0: 173a bfbc 785c 9dbc 2883 c5bc e453 13bd
000000d0: 224c 14bd 6698 663b 588a a6bc bbce ecbc
000000e0: 7bdf 88bc ed54 cb3c e106 79ba aad5 e2bc
000000f0: 08fd 00bd 153a 013d 254b 693c 19aa 99bb

layer2.weight f4 [64, 64]
0.046843633 0.029787332 -0.089295626 0.03551527 0.078716695 0.08263371 -0.040872723 -0.11169177
-0.00804477 0.004060626 -0.033038273 0.10230488 0.12146456 -0.033106357 -0.10990079 0.0754744
-0.031646624 0.08754164 0.031768963 0.046199784 0.1236482 0.0011360231 -0.072273575 -0.014507636
-0.00358804 0.101534754 0.0021834224 0.10370059 0.030863956 0.115805954 -0.05008237 -0.033184584
-0.10263495 0.076287955 -0.12461011 -0.1024123 -0.050537024 -0.049835183 0.10724701 0.06916292
-0.0418908 -0.07431584 -0.10465283 0.042866547 0.026705785 -0.0749906 -0.010103822 0.0018008798
0.043042928 0.09811756 0.04700473 0.068205684 -0.1021737 -0.07448968 -0.103423804 -0.01023303
0.055956345 -0.07402845 0.039709415 -0.09074764 0.09570721 -0.090109475 -0.039767038 -0.110671505
0.11815791 0.060245976 0.061773404 -0.043562252 -0.11213936 -0.020380428 -0.08081737 0.10593051
-0.038964007 0.12410799 -0.0008864701 -0.0011513128 0.023701902 -0.009433687 0.07077348 -0.04969215
0.008086279 0.094372265 0.08557582 -0.11192557 -0.06294803 0.016354665 -0.0011053713 0.043355018
0.023814712 -0.032612607 0.019663215 -0.021388121 0.015089512 -0.0785293 0.040543772 -0.043971356
0.09068884 -0.06357296 0.0018864423 -0.06562911 0.104223065 -0.11007496 -0.111911744 -0.11633968
0.032694027 0.10094744 -0.07543888 -0.061346967 0.052005872 -0.06118284 0.07331237 -0.07161063
-0.11275108 0.12228514 -0.053147957 -0.02453117 -0.006983295 0.0013451278 -0.10783386 -0.037804067
-0.10061955 -0.02231227 0.009210724 -0.0033397977 0.06755094 0.0577622 0.02963787 -0.10591358
-0.050076425 0.087941766 0.09712653 -0.00016015768 0.10863981 0.10506062 0.06478353 -0.06254169
0.06574364 -0.06309159 -0.041303217 -0.07983643 0.117391765 0.03612952 0.021126404 -0.09160715
0.08167112 0.02376002 0.034752607 -0.10634072 -0.041891918 -0.035186917 -0.0058119297 0.09076111
0.047681436 0.09575343 0.060511425 0.06649552 0.048127696 0.11173627 0.00081562996 -0.063681185
-0.10908204 -0.07041611 -0.12372929 0.121674225 -0.10750298 -0.035261914 0.07965237 -0.10305624
0.110595986 -0.042568848 0.10674897 -0.09158634 -0.100655735 0.009941474 0.0018440187 -0.047788188
0.096521914 0.11293675 -0.113514915 0.06721333 -0.03475827 -0.08307481 -0.07582337 0.120266736
-0.046527594 0.0047068894 -0.054089382 -0.061777145 -0.110842705 -0.030737102 0.0041696727 -0.0963527
-0.10701372 0.056270674 -0.09918304 -0.028224662 -0.094594285 -0.06384376 -0.04164514 -0.096940994
-0.08383383 -0.101568714 -0.07230608 0.018843442 0.06856908 -0.10408716 0.025398582 0.06292184
0.117189795 -0.049456596 -0.059611797 0.049025208 0.09074859 -0.1136809 0.09407465 0.09247658
0.04380545 -0.082090616 -0.012265906 0.008285567 0.07354571 0.09012604 -0.12160507 -0.10226235
0.08600275 -0.022473454 -0.058775783 0.09098336 -0.013032839 0.010893419 0.05779682 0.012426272
-0.020298168 -0.064140216 -0.069441855 -0.05322364 0.12454134 -0.07745148 -0.0008971393 -0.050871402
-0.05446954 0.11516783 0.06932604 -0.010606855 0.09450221 0.029573977 0.09597275 -0.03745778
-0.02255325 0.121495605 -0.11277881 -0.07935417 -0.050460324 0.06747544 0.11280309 0.027941987
00000000: 1cdf 3f3d 9004 f43c a0e0 b6bd 7678 113d
00000010: 3836 a13d dd3b a93d 286a 27bd a8be e4bd
00000020: 36ce 03bc 000f 853b 2453 07bd 3985 d13d
00000030: 69c2 f83d 889a 07bd aa13 e1bd 5292 9a3d
00000040: e49f 01bd 0849 b33d 2c20 023d fc3b 3d3d
00000050: 443b fd3d 9ce6 943a 2b04 94bd 70b1 6dbc
00000060: 5225 6bbb 74f1 cf3d c017 0f3b fa60 d43d
00000070: 68d6 fc3c ac2b ed3d 2c23 4dbd 8fec 07bd
00000080: 4632 d2bd dc3c 9c3d 9633 ffbd 8abd d1bd
00000090: e9ff 4ebd fa1f 4cbd 52a4 db3d 4aa5 8d3d
000000a0: b095 2bbd e732 98bd 3954 d6bd d594 2f3d
000000b0: 17c6 da3c ac94 99bd 808a 25bc 800b ec3a
000000c0: c84d 303d dcf1 c83d 0888 403d 6caf 8b3d
000000d0: 7240 d1bd 0c8e 98bd dccf d3bd 70a8 27bc
000000e0: 7b32 653d 3a9c 97bd 57a6 223d e6d9 b9bd
000000f0: 2402 c43d 518b b8bd c3e2 22bd bea7 e2bd
00000100: c6fc f13d 7cc4 763d 1c06 7d3d 556e 32bd
00000110: 52a9 e5bd dbf4 a6bc 9483 a5bd 18f2 d83d
00000120: b998 1fbd 542c fe3d 0062 68ba a6e7 96ba
00000130: 7e2a c23c c08f 1abc b0f1 903d ff89 4bbd
00000140: 507c 043c 3f46 c13d 6042 af3d 3c39 e5bd
00000150: e6ea 80bd 38fa 853c 1be2 90ba 0895 313d
00000160: 1217 c33c cc94 05bd c014 a13c 2436 afbc
00000170: 003a 773c f8d3 a0bd 3a11 263d 4f1b 34bd
00000180: 12bb b93d 8a32 82bd 8042 f73a 8e68 86bd
00000190: e772 d53d fb6e e1bd fc31 e5bd 8043 eebd
000001a0: 2cea 053d 88bd ce3d b37f 9abd f546 7bbd
000001b0: 1c04 553d dc9a 7abd cc24 963d 98a8 92bd
000001c0: 0aea e6bd a270 fa3d acb1 59bd 98f5 c8bc
000001d0: 20d4 e4bb 004f b03a 00d8 dcbd 70d8 1abd
000001e0: 9f11 cebd 39c8 b6bc 94e8 163c 82e0 5abb
000001f0: 2658 8a3d 0e98 6c3d 1ecb f23c 38e9 d8bd
00000200: f01c 4dbd d01a b43d 46ea c63d 00f0 27b9
00000210: 8c7e de3d 062a d73d 3aad 843d dc15 80bd
00000220: 9aa4 863d 2a36 81bd 902d 29bd 4881 a3bd
00000230: 186b f03d 8cfc 133d 4811 ad3c 889c bbbd
00000240: 3043 a73d 60a4 c23c c058 0e3d 2ac9 d9bd
00000250: dc96 2bbd 2820 10bd 0072 bebb f6e0 b93d
00000260: 9c4d 433d 601a c43d d4da 773d ce2e 883d
00000270: 8c21 453d fcd5 e43d 00d0 553a 486b 82bd
00000280: 6866 dfbd 5236 90bd c865 fdbd 5630 f93d
00000290: 862a dcbd cc6e 10bd c820 a33d 260f d3bd
000002a0: 2680 e23d ac5c 2ebd 349f da3d 9e91 bbbd
000002b0: 9824 cebd 90e1 223c 00b3 f13a 8cbd 43bd
000002c0: 48ad c53d 624b e73d 827a e8bd 24a7 893d
000002d0: b05e 0ebd 2023 aabd 4849 9bbd 684e f63d
000002e0: b893 3ebd 403c 9a3b d48c 5dbd 080a 7dbd
000002f0: 8001 e3bd 60cc fbbc c0a1 883b 9054 c5bd
00000300: 022a dbbd 147c 663d 7a20 cbbd 6837 e7bc
00000310: a6ba c1bd 84c0 82bd 1894 2abd 0089 c6bd
00000320: 12b1 abbd 4203 d0bd 3615 94bd 905d 9a3c
00000330: f26d 8c3d a62b d5bd b010 d03c 2add 803d
00000340: 3401 f03d 0093 4abd 802b 74bd a8ce 483d
00000350: 66da b93d 88d1 e8bd 36aa c03d 5c64 bd3d
00000360: 586d 333d 201f a8bd f0f6 48bc 30c0 073c
00000370: 229f 963d 0094 b83d 140c f9bd ec6e d1bd
00000380: 3622 b03d 401a b8bc e0be 70bd 7c55 ba3d
00000390: b087 55bc 507a 323c 5cbc 6c3d 9097 4b3c
000003a0: 5848 a6bc f25b 83bd 8837 8ebd 0801 5abd
000003b0: 880f ff3d e29e 9ebd 002e 6bba 885e 50bd
000003c0: 741b 5fbd 1cdd eb3d d0fa 8d3d 60c8 2dbc
000003d0: 608a c13d 2045 f23c 5c8d c43d 546d 19bd
000003e0: 98c1 b8bc b0d2 f83d 94f8 e6bd 7084 a2bd
000003f0: 7caf 4ebd 9030 8a3d 4e05 e73d 98e6 e43c

layer2.bias f4 [64]
-0.03411247 0.09865198 0.066306174 0.083747 0.033642977 0.01965358 -0.09308864 0.113611646
0.057694435 -0.03321503 -0.027454773 0.017142564 0.02918899 -0.024044184 0.05143528 -0.118448384
0.053177133 0.017243657 -0.031345222 0.12512739 -0.00081536174 -0.055666596 -0.012755129 -0.033556182
0.102250114 0.08866727 0.08746207 0.09857872 -0.018146971 0.046500906 0.06535762 -0.103915066
-0.018926332 0.09297497 -0.10653798 -0.031655237 -0.04608211 0.12329289 0.029101202 -0.103988715
0.028322475 -0.08798019 -0.04232158 0.022604404 -0.039812706 -0.017153708 -0.11890185 0.020826265
-0.12229111 -0.06469537 -0.11948386 0.11281881 -0.08037675 0.115722686 -0.03475164 -0.097138375
-0.05119603 0.104992256 -0.11195144 0.0048324913 0.056927264 -0.07601802 0.08817242 0.12015435
00000000: 84b9 0bbd 0d0a ca3d 88cb 873d 8c83 ab3d
00000010: 38cd 093d 8b00 a13c 42a5 bebd 39ad e83d
00000020: 0051 6c3d 7c0c 08bd d5e8 e0bc 906e 8c3c
00000030: c01d ef3c 4ff8 c4bc cdad 523d 1195 f2bd
00000040: 44d0 593d 9242 8d3c d963 00bd 6521 003e
00000050: 00be 55ba a802 64bd e3fa 50bc 3572 09bd
00000060: 8268 d13d 3097 b53d 501f b33d a4e3 c93d
00000070: f5a8 94bc bc77 3e3d 37da 853d 6cd1 d4bd
00000080: 650b 9bbc a969 be3d 9630 dabd eca8 01bd
00000090: 98c0 3cbd fc80 fc3d a565 ee3c 09f8 d4bd
000000a0: 8904 e83c f52e b4bd 6559 2dbd df2c b93c
000000b0: a612 23bd ef85 8cbc d082 f3bd d89b aa3c
000000c0: c373 fabd 027f 84bd f4b3 f4bd 8c0d e73d
000000d0: 919c a4bd 0400 ed3d bc57 0ebd 7cf0 c6bd
000000e0: eeb2 51bd 2e06 d73d cc46 e5bd e059 9e3b
000000f0: 902c 693d 56af 9bbd be93 b43d 7c13 f63d

layer3.weight f4 [2, 64]
0.05155641 -0.013101742 0.07562919 -0.062127873 -0.076915175 -0.060218677 0.058073744 0.100867316
-0.09671682 -0.046879083 0.12397133 -0.08283199 0.015536368 0.070939705 0.09229514 0.07110801
-0.06293063 -0.04144992 -0.036906928 -0.026524425 0.0481952 0.047256187 -0.004703149 0.09631841
-0.004124984 -0.09872925 -0.044970676 -0.11571552 0.014446825 -0.029854909 -0.084907055 0.06834984
0.0016258508 0.04503542 -0.0830497 0.113385946 0.040256947 -0.08454415 0.10152167 -0.12247348
-0.05044906 0.10598157 0.01730965 0.013599932 -0.077578604 0.059897482 0.057008103 -0.09005988
-0.07384695 -0.089928985 -0.029014528 -0.07276341 -0.08363941 0.07247135 -0.08836906 -0.101098046
-0.038856894 0.10961436 -0.046967134 0.0064517707 0.00039356947 -0.11749619 -0.010650426 0.08276327
-0.05908824 -0.0011958856 -0.05441165 -0.038139388 -0.004013428 0.050711937 -0.053933073 0.10187253
-0.010372445 -0.025910145 -0.07773845 -0.018135756 -0.066081956 -0.12469964 -0.09696267 -0.063564435
0.024206609 -0.029796263 0.07521424 -0.07765748 -0.051420957 0.06454593 -0.08103411 -0.08371931
0.11299026 -0.08907348 -0.010509744 -0.10233605 0.097551286 0.08827636 0.05286268 -0.09817323
-0.09383227 0.06790412 -0.078354456 -0.09775097 0.122653276 0.06852508 0.08966955 -0.042973097
-0.017336521 -0.09643478 -0.07061627 0.04824412 -0.09574121 -0.088473536 0.07707351 -0.068782926
0.031340543 -0.0060625672 0.081912056 -0.11731753 0.114264354 0.10818699 -0.1015788 0.09746556
0.081094146 0.09521629 -0.0031123012 -0.112398386 -0.028852448 -0.027203083 -0.004116739 0.033368558
00000000: d02c 533d b0a8 56bc 7ae3 9a3d cc79 7ebd
00000010: b485 9dbd dca7 76bd bcde 6d3d 8693 ce3d
00000020: 7813 c6bd 4804 40bd aee4 fd3d d2a3 a9bd
00000030: 408c 7e3c d648 913d 3c05 bd3d 14a1 913d
00000040: c6e1 80bd 64c7 29bd b82b 17bd c049 d9bc
00000050: 5468 453d b48f 413d e01c 9abb 9642 c53d
00000060: e02a 87bb 9032 cabd 2c33 38bd 42fc ecbd
00000070: 60b2 6c3c 4892 f4bc c0e3 adbd 00fb 8b3d
00000080: 801a d53a 1077 383d f615 aabd e436 e83d
00000090: 78e4 243d 7c25 adbd 98ea cf3d 60d3 fabd
000000a0: aca3 4ebd de0c d93d f8cc 8d3c 40d2 5e3c
000000b0: 88e1 9ebd 1057 753d 5481 693d 5071 b8bd
000000c0: 123d 97bd b02c b8bd e0af edbc fc04 95bd
000000d0: 244b abbd dc6b 943d d6fa b4bd 7e0c cfbd
000000e0: 6828 1fbd 7e7d e03d 9c60 40bd 6069 d33b
000000f0: 0058 ce39 d8a1 f0bd 207f 2ebc ca7f a93d
00000100: 8306 72bd 43bf 9cba c0de 5ebd 0c38 1cbd
00000110: 1383 83bb 52b7 4f3d ede8 5cbd 8ca2 d03d
00000120: 30f1 29bc 8341 d4bc 5635 9fbd 7091 94bc
00000130: fa55 87bd 8662 ffbd 5d94 c6bd 122e 82bd
00000140: f04c c63c 4b17 f4bc ec09 9a3d e30a 9fbd
00000150: c89e 52bd a830 843d 36f5 a5bd 0875 abbd
00000160: 7067 e73d 286c b6bd 1031 2cbc 9095 d1bd
00000170: f8c8 c73d 3cca b43d 8a86 583d 0c0f c9bd
00000180: 222b c0bd 5111 8b3d 4d78 a0bd a931 c8bd
00000190: a431 fb3d e156 8c3d aba4 b73d 8f04 30bd
000001a0: 5205 8ebc 997f c5bd 439f 90bd a09b 453d
000001b0: f813 c4bd 9d31 b5bd b7d8 9d3d 10de 8cbd
000001c0: f15e 003d 80a8 c6bb 82c1 a73d 2c44 f0bd
000001d0: 6e03 ea3d 2491 dd3d 8c08 d0bd 069c c73d
000001e0: b014 a63d c200 c33d c0f7 4bbb 2031 e6bd
000001f0: f85b ecbc 00d9 debc b6e5 86bb 78ad 083d

layer3.bias f4 [2]
-0.12340237 -0.124804296
00000000: 62ba fcbd 6599 ffbd
