ppo_actor.pth (torch, 19799 bytes, 5 tensors)

layer1.weight f4 [64, 3]
00000000: 826f e6bd f5a0 18bf c467 b0bd 0933 24bf
00000010: 5b4f dd3d df1c d3be ed74 bdbe 5031 663e
00000020: d0d4 13bf abc8 153f 506d fb3e 72a6 06bf
00000030: b5f2 5d3e 1879 22bf 8605 34bd bf03 cfbe
00000040: e46e f83e 994b 143e f155 1b3f f28f f8be
00000050: 52e1 a3be 5d92 b5be f73f 063f 13fa af3e
00000060: ec26 b1be 8f4a ae3e 5003 bfbe 11a9 733e
00000070: f352 b13e bc76 1abe eec3 2a3f e095 bb3d
00000080: c863 8c3e 850b 263f 22c3 33bf 3fa3 f8be
00000090: 7564 043f 32e0 6f3f e3ec 9d3e 4066 15bf
000000a0: 358f 3abe bcbe 803e d615 083f f86d a93d
000000b0: 7f80 16be 0e94 adbc c719 d8be 56c9 3c3e
000000c0: bd9f 253f 334c 43bf a661 88be 661f 243f
000000d0: 6ee2 963e 7dd8 2c3e d12e 8dbc 21d0 8ebe
000000e0: d499 1c3e 25a5 adbe ad10 153f 3a8c 47be
000000f0: e106 e8bd 08ab 243f 4234 50be f37e bf3c
00000100: 9aaf 62be 733a f13e 89f9 05bf 2eb9 be3c
00000110: c52c 103f 876e 043e d1c1 27be 469c a03e
00000120: 5144 cdbe db0b 8c3e c3c4 94be 05e5 22be
00000130: 98a6 90bd 8bf0 8abe 8fa4 b63e e894 763e
00000140: 3b4f c1be 217a 19be 8f70 07bf 35ca 0c3e
00000150: d9e9 2e3f 2951 4f3e a561 593e a617 a53e
00000160: 32ac 3b3f be8f 44bd 34b0 7dbe a8d0 e53d
00000170: bcc3 ab3e dc1a bdbe 1d3d 1ebe 7e4b 0b3f
00000180: 175e b9be a618 1a3f 184f c43e e13d 64be
00000190: 8700 e9be 9dcf 99bd 569f 003e 1394 2a3f
000001a0: b97e 363e 428c 223d cb61 403e 7a72 ed3e
000001b0: 17dc 32bf 9aea c43e bba5 863d 4e32 83be
000001c0: 5b1b f0bd 8c4b 0cbf 49b9 0a3f 0d83 1b3c
000001d0: d3a3 99be 66b3 153f fc9e f73c 3a36 a8be
000001e0: c791 29bf de66 ce3e 6673 29bd 6c28 fd3e
000001f0: 468a 1d3f ad2b 5f3e 4dd6 4a3e fa52 983e
00000200: 6be6 32be 1e11 4f3e a6c8 cebe 1a3b 043f
00000210: db60 09bf df2f 80bd 68da 0c3f 9f6a cbbe
00000220: 5278 cdbe bb3b fdbd 4c07 9fbe d037 263f
00000230: fbc2 213e da14 eebe f0c1 ce3d 324b f33d
00000240: 4b9a 06bf 577a 3e3f e227 e33d 3f58 24be
00000250: 6eee 253f 101a 77be b2b8 0d3f c6db 9f3e
00000260: 95b3 ba3e 9652 1c3f 6fb7 003f 6c7c 01bf
00000270: d3a0 2cbf 4935 c73e f244 0fbf 129c 94be
00000280: 8d66 cabd 6d03 ad3c ee63 2e3f 6025 873e
00000290: 0306 dabe 4b34 ee3e 8890 ca3e 4524 303e
000002a0: 696e da3e 2066 6dbd 697b b93e 7002 003e
000002b0: c902 9d3e c5f9 db3d a89c e03e 4b25 25bf
000002c0: ba1f 863e a18f c63e 438b 6c3f 5599 d43e
000002d0: f5fc 31bf 8935 a43e 8fb1 0bbf f0fe 023f
000002e0: b983 1bbf c901 4dbe 7c07 debe 8838 c73e
000002f0: a1e8 003d 4db3 01bf 74e8 b7be 3c61 a13e
-0.11251737 -0.596206 -0.08613542 -0.64140373 0.108061515 -0.41232964 -0.3700327 0.22479749
-0.577466 0.5850932 0.49106836 -0.52597725 0.21674617 -0.63466024 -0.04395058 -0.40432546
0.48522103 0.14481963 0.6067801 -0.48547322 -0.32007843 -0.3546323 0.5244135 0.3437048
-0.34600008 0.3404126 -0.37307215 0.23794962 0.34633598 -0.15084356 0.66705215 0.09159446
0.27419877 0.6486133 -0.70219624 -0.48562047 0.51715785 0.9370147 0.30844793 -0.58359146
-0.18218692 0.2514552 0.5315832 0.08272928 -0.14697455 -0.021188762 -0.42207167 0.18436179
0.64696866 -0.76288146 -0.26637 0.6411041 0.29469627 0.16879459 -0.017234238 -0.27893165
0.15293056 -0.33915058 0.5822857 -0.19487086 -0.11329437 0.6432347 -0.20332435 0.023375964
-0.22137299 0.47114906 -0.52333885 0.02328166 0.5631831 0.12932788 -0.16382529 0.31369227
-0.40091184 0.27352795 -0.29056367 -0.15907677 -0.07063025 -0.27136645 0.35672423 0.2408024
-0.3775576 -0.14987995 -0.52906126 0.13749011 0.68325573 0.20245804 0.21228655 0.32244605
0.73309624 -0.047988646 -0.24774247 0.11221439 0.3354777 -0.36934555 -0.15453 0.54412067
-0.36204597 0.6019386 0.38341594 -0.2228923 -0.45508215 -0.07510302 0.12560782 0.66632193
0.17821778 0.03968454 0.18787305 0.463764 -0.6986708 0.38460237 0.06574579 -0.25624317
-0.11723968 -0.54802775 0.5418897 0.009491694 -0.300078 0.58476865 0.030227177 -0.32853872
-0.66238064 0.40312856 -0.04136982 0.49444902 0.61539114 0.21794005 0.19808312 0.29750806
-0.1747071 0.20221373 -0.40387458 0.5165268 -0.53663415 -0.06259131 0.5502076 -0.39729783
-0.4013086 -0.12364908 -0.31060255 0.64928913 0.15797035 -0.46500283 0.100955844 0.11879577
-0.5257918 0.74405426 0.110915914 -0.16049288 0.6481694 -0.24131036 0.5535995 0.3122236
0.36465135 0.61063516 0.502799 -0.5058048 -0.674329 0.3890784 -0.5596458 -0.29025322
-0.09882841 0.021119798 0.6812123 0.26395702 -0.42582712 0.4652427 0.39563394 0.17201336
0.4266236 -0.057958722 0.36226967 0.1250093 0.30666187 0.10740999 0.4386952 -0.6451003
0.2619608 0.38781455 0.92399997 0.41523233 -0.69526607 0.32072094 -0.5456781 0.51170254
-0.6074787 -0.20020212 -0.43365085 0.38910317 0.031471852 -0.50664216 -0.35919535 0.31519496

layer1.bias f4 [64]
00000000: a02c 9a3e b714 973c a613 d33e 77d2 bdbe
00000010: 1ad4 133f a2bb 84be 857a 28be 4571 f5bd
00000020: cd5f 1c3e 9d99 05bf 06b2 d73e d3cd e43d
00000030: 1b27 cc3e e1a5 903e 3b88 6cbe 9a27 a23e
00000040: 9362 2f3e 422f 3c3e 3be9 1bbf ca74 143f
00000050: 1614 e13e 05d4 9fbe 93a4 4cbe b25b 733e
00000060: 9faf 9c3e 9f7c 17be a27e 9d3e e5ad fd3e
00000070: e899 a33d fba6 0c3d fc16 903e ebe7 8abe
00000080: fd1c 21bb 85f0 c03e cc76 423e 5e42 11bf
00000090: 7560 8f3e 0f92 cdbe 76e2 0fbe a5eb e63e
000000a0: 43b6 8e3e 9fc5 7ebe 5819 06bf ff3f 0bbe
000000b0: 43ed 71be e281 82bd 3a80 94be ddf0 763d
000000c0: 327d 2c3e 412a d13e 969d 28bd 2de2 23bf
000000d0: 5caa c3be ee14 13bf d957 3abd db29 3bbe
000000e0: 4541 903e aafe 0abf a4ee 15bf b7d5 efbd
000000f0: 6958 313e a8b8 4c3e ec04 033e ad3c b8bd
0.3011217 0.018442495 0.41225928 -0.37074634 0.57745516 -0.25924402 -0.16452987 -0.11984495
0.1527092 -0.5218752 0.4212801 0.1117207 0.39873585 0.28251556 -0.23098843 0.3167084
0.17127447 0.18377402 -0.60902756 0.57990706 0.43960637 -0.31216446 -0.19984655 0.23765448
0.30602738 -0.14793633 0.30760676 0.49546733 0.0798834 0.034338932 0.28142536 -0.27130064
-0.0024583929 0.37683502 0.1899063 -0.56741893 0.28003278 -0.40150496 -0.14051232 0.45101658
0.2787343 -0.24880074 -0.5238242 -0.13598631 -0.23625664 -0.063724294 -0.2900408 0.0602883
0.16844633 0.4085255 -0.04116591 -0.6401699 -0.3821591 -0.5745381 -0.045493934 -0.18277685
0.28174797 -0.54294837 -0.5856726 -0.11710685 0.17318882 0.19992316 0.12794846 -0.08995948

layer2.weight f4 [64, 64]
00000000: b167 56bc 1048 d13c 855c 64bd 3a69 1abc
00000010: a7d2 e43d bd9b cd3d 248d 533e 3f0d 13ba
00000020: c432 f2bd acdb e43c 0975 f83c dd39 4e3b
00000030: 3079 e4bd f4c5 72bd 2e13 703d 9650 db3c
00000040: 21ec b6bc 63d3 0e3e 0326 d7bd 0df4 1a3c
00000050: f809 543a ae92 283d f1a3 cd3c a889 1a3e
00000060: 09d6 77bb 6fa2 d5bd 89a6 523b c3e1 b53d
00000070: 0346 88bd 8319 49bd 8d64 1abd aecb c73c
00000080: bf46 e5bb 9831 79bc d870 c3bd d8cc 793c
00000090: 68ab 2abe ac04 e13d 09f0 1d3e 5e7a 103e
000000a0: 9e38 81bd daad fabd 73c9 ed3d 9a7f 193e
000000b0: 85bb dabd 7e85 cebd 4488 babd 8204 5fbd
000000c0: 082f 82bd f7f3 f7bd dca8 6cbd 6762 3e3d
000000d0: dbc5 b73d c6c3 f1bd 0908 113e 0c45 dcbc
000000e0: ed48 b13b 06f4 c5bd 4f48 a63d b9a0 5dbe
000000f0: 5655 95bb 1d2d 9f3d 26da ed3b 9ba3 e63d
00000100: d124 2b3d 1c22 30bc 493e 40bd ace1 15be
00000110: 2c3c a3bd af73 c23c 3b8f b3bd 3b2c e33d
00000120: b7e1 1a3d 5230 bebd 53a7 693c 2658 d7bd
00000130: 0859 293d 2c90 cc3d a45d 12bd 9f27 b7bd
00000140: 286d 79bc 74fc 40bd a388 10bd 189b 843b
00000150: 21c8 783c 1b5d e03c 9457 ac3d caf7 a9bd
00000160: 38ff 23be c7fc 87bd bf85 ccbd 6aee 703d
00000170: 6da9 e9bd 4ef7 7cbd bc7d 0a3e 3e32 1dbd
00000180: e5ef 253d cb09 c53d ca73 c13c 54c4 c23d
00000190: 0483 3b3e ae1a 25be b96f d6bd ad68 bebd
000001a0: c6db 0c3e 81ba d2bd 762d 8dbd a547 c4bd
000001b0: 52e9 e43d e3f5 2f3d 78e3 9e3b 4654 0d3e
000001c0: c2f2 1b3e 4d56 ec3d 522b 44bd 5bea cb3c
000001d0: d557 dbbd 90c7 c2bd 4f73 c63d b4bd 9d3d
000001e0: 3a91 0d3b 4f7d d53d 2be5 0bbc d53f bbbd
000001f0: 4700 07bc 9228 3dbb 307d 7d3e 08f0 dbbd
00000200: d8de 4d3e d21e 033e b4a8 f93d db68 2bbb
00000210: 4df0 963d 9e66 49bc 666d cabd 27b3 283c
00000220: 438a 56bd c949 4abe fdcd 3cbe 26f2 553d
00000230: 57c2 b83a e8b6 653d 74e9 47be b7a7 eb3d
00000240: 82d2 a13d 117d f23c bc72 bf3d d5dc dc3d
00000250: 4514 d83c b459 fdbd 4c28 fabd 1419 22be
00000260: d3ca 193e a307 903c 1820 9fbd 2fbb c53c
00000270: 0821 a7bd 1f42 163d f575 31be bb7b 19be
00000280: f64e 3ebe 8a75 babc c253 b0bd 3bbb ccbd
00000290: 2adf 443e 3ede 943c ead2 edbd dac3 26bc
000002a0: 3162 3c3e 715c 23bc 34c3 263d 623c e33c
000002b0: bb3c 2ebc 02cb e73d 54e0 35be c32e 933d
000002c0: 1020 123c 2914 3a3c 7f2c a6bd a23d bbbd
000002d0: f0ba 8cbd 7c46 47bd 9ec0 c63c c478 463d
000002e0: 6065 5fbe c172 a9bd dff2 86bd ec82 5d3d
000002f0: 1b35 143d a647 efbd 7399 213c 7681 cfbd
00000300: 7a77 c7bd e137 5e3d 135a 5a3c 1896 b03d
00000310: 1581 e2bd d6ab c53d 5356 203e 57f0 9e3d
00000320: af4a bebd 54c6 2f3e dd79 d6bc 4e5c 22bd
00000330: 2d48 43bd 4416 7b3d 44a0 163e 37f0 fa3b
00000340: 829a c53d fe9d e0bd 5319 a33d 9062 24bd
00000350: d07a 22be 0a9d f5bd e117 01be e7e8 283c
00000360: a01b 7b3d d450 a6bd ab64 b23b d347 07be
00000370: 7762 8bbd 8525 e43d b570 643b 10a4 ce3d
00000380: 5689 12bc 22c1 14bc 06b1 41be 3cef 593c
00000390: cedf c9bd ab5a d9bc 8925 8b3d 01c3 b6ba
000003a0: 19a4 dfbd b8b1 6e3c 9253 203e e27c a7bc
000003b0: 9cfc 78bd 6583 afbd b930 823c e2aa e8bd
000003c0: d137 14be 67aa 32bd f0e8 983d a33f cd3d
000003d0: a4d7 553d 40a5 7b3c 5c56 923d 2ac3 413c
000003e0: cb94 02bc 18f2 e03d 2d7b 933a 4a1a a83c
000003f0: ec2d 173d 2d1e 82bd 3180 84bd 3b89 b1bc
-0.013086245 0.025547057 -0.055752296 -0.009424502 0.11172991 0.1003947 0.2065931 -0.0005609579
-0.11826089 0.027936779 0.030329244 0.0031467595 -0.11155927 -0.059270814 0.05861204 0.026771825
-0.022329392 0.13947825 -0.10505297 0.0094576 0.00080886437 0.04115551 0.025102587 0.15091574
-0.0037816784 -0.104313724 0.003214272 0.08880951 -0.06653979 -0.049096595 -0.03769355 0.024389114
-0.006996959 -0.015209578 -0.095430076 0.015246592 -0.16666949 0.10987219 0.15423597 0.1410918
-0.06309627 -0.12240191 0.11610689 0.14990082 -0.10680298 -0.10084055 -0.09108022 -0.05444766
-0.06356627 -0.121070795 -0.057778224 0.046480563 0.08973285 -0.11804919 0.14163221 -0.026888393
0.0054103048 -0.096656844 0.081192605 -0.21643342 -0.004557292 0.077722766 0.0072586713 0.11261674
0.041783158 -0.01075032 -0.0469344 -0.14636868 -0.07970461 0.023736803 -0.087675534 0.11092421
0.037812915 -0.0928656 0.014261085 -0.1051486 0.041344672 0.09988436 -0.035733834 -0.08943104
-0.015223779 -0.047115758 -0.035286557 0.004046809 0.015184433 0.027388146 0.08415142 -0.08299215
-0.16015327 -0.0664001 -0.099864475 0.05882112 -0.114092685 -0.061759286 0.13524526 -0.038377993
0.040511984 0.096210085 0.023614783 0.09510103 0.18311697 -0.16123459 -0.10470528 -0.09297309
0.13755712 -0.10289479 -0.068934366 -0.095839776 0.11177315 0.042959105 0.0048488937 0.13801679
0.15229324 0.11539898 -0.047892876 0.024892023 -0.10710112 -0.0951072 0.09689962 0.077021986
0.0021601454 0.10424291 -0.008538525 -0.09143034 -0.008239812 -0.0028863293 0.24754786 -0.10739142
0.2010454 0.12804726 0.12190381 -0.0026155028 0.073700525 -0.012292532 -0.09884147 0.0102966195
-0.05237795 -0.1975471 -0.18437953 0.052232884 0.0014096004 0.056082636 -0.19522649 0.115065984
0.07901479 0.029600652 0.09348056 0.10784308 0.026376853 -0.12370625 -0.12214717 -0.15829879
0.15018778 0.017581766 -0.07769793 0.024137108 -0.08160597 0.03668415 -0.17330153 -0.14988606
-0.18584809 -0.022761125 -0.086097255 -0.09996649 0.19225755 0.01817238 -0.11612494 -0.010178531
0.18396832 -0.00997077 0.040713504 0.027738754 -0.010634596 0.113180175 -0.17761356 0.071866535
0.008918777 0.011357346 -0.08113956 -0.09142615 -0.06871593 -0.048651204 0.024261769 0.048455015
-0.21816015 -0.08273841 -0.06589293 0.054079935 0.036183458 -0.11683588 0.009863245 -0.101321146
-0.09739585 0.05425251 0.013327139 0.08622378 -0.11059777 0.09651916 0.1565793 0.07760685
-0.092915885 0.171655 -0.026181156 -0.03963881 -0.047676254 0.06130053 0.14709574 0.0076580304
0.09648611 -0.109676346 0.079638146 -0.04013306 -0.15867162 -0.119928434 -0.12606765 0.0103094345
0.061305642 -0.081208855 0.0054441295 -0.13210993 -0.0680589 0.11139969 0.0034857218 0.10089886
-0.008943876 -0.00907925 -0.18915185 0.013301667 -0.098571405 -0.026532492 0.06794269 -0.0013943614
-0.10919971 0.014568739 0.1565688 -0.020445291 -0.060787782 -0.085699834 0.015892373 -0.11360718
-0.14474417 -0.04361954 0.07466304 0.10021903 0.052207604 0.015359223 0.07145378 0.011826316
-0.007970045 0.10983676 0.0011251919 0.020520348 0.03690903 -0.06353412 -0.06469763 -0.021671882

layer2.bias f4 [64]
00000000: 96d5 ebbd 2fea b7bb bccf f83d a893 21bd
00000010: 4828 23bd cff9 fbbd 64bf fa3c c7a6 c0bd
00000020: d6b6 f43d f3e9 89bd 8b0f ffbc c0b6 1a3b
00000030: a3d8 653e c8ee 83bd 0a7f 5bbc 87c4 233d
00000040: cbb1 04be 297b 383d b0f9 75bc 53f8 95bd
00000050: ad7d 17bd 6bf6 143e db27 3e3d 4b53 6dbd
00000060: cb36 e33b 89f1 c3bd 8e51 a4bd 94cd 403c
00000070: 6388 463e 2197 813c 17d0 1ebd d0e2 81bc
00000080: 4056 dabd ac74 34bc 9bd8 ab3d 4704 79bc
00000090: e60e 94bd 97c7 d9bd 2dc6 13bd 58ca e5bd
000000a0: 6de2 56ba b374 13bd 56a3 5abd 78c8 cd3d
000000b0: 44f0 583d 100d cdbc 6904 b2bd 9979 d5bd
000000c0: adfd 613d 2008 143d 5ef5 583d 69ea 73bd
000000d0: 085e ef3d 121c 6e3d 577e 8f3d 902f 593d
000000e0: 1fe7 5c3c a02c 563d ea6c 98bd 0363 fd3d
000000f0: 8a38 393c ea70 c73d 3230 0b3e 1e95 a3bd
-0.11515348 -0.0056126337 0.12148997 -0.039447457 -0.039833337 -0.123035066 0.03060884 -0.0940681
0.11948936 -0.067340754 -0.031135341 0.0023607463 0.22445922 -0.06442028 -0.013396988 0.039982345
-0.12958448 0.04503933 -0.015013143 -0.07322755 -0.03698509 0.14547126 0.046424728 -0.057940762
0.006934022 -0.095675536 -0.08023368 0.011767764 0.19387965 0.015819134 -0.03877267 -0.015855223
-0.10660982 -0.011014145 0.083909236 -0.015198774 -0.07229404 -0.10633772 -0.036077667 -0.11220235
-0.0008197192 -0.035999965 -0.053378426 0.10048002 0.05296351 -0.025030643 -0.086922474 -0.104235835
0.055173565 0.03614056 0.052968375 -0.059549723 0.11687857 0.05813224 0.07006519 0.053023875
0.013482838 0.05228865 -0.07442649 0.123724006 0.011304984 0.097383335 0.13592604 -0.07987426

layer3.weight f4 [1, 64]
00000000: 0bef 2a3e b4b9 163e ee63 20be e7a0 053e
00000010: 9865 dc3c 7cc4 863d 5fac 59be d0e7 bc3d
00000020: 8fcf 303e 6836 cb3c a75e d3bd 9c87 6b3d
00000030: 0c01 4cbe 0fab 633e 84da 2f3e 3938 3f3e
00000040: 87f5 2bbb 35bb 47be 0670 9f3d 905b 6abd
00000050: d137 653e b4be 753e 8605 90bd 51a8 08be
00000060: f1b6 fe3b d95b 483a b4e9 613e 99fb 28be
00000070: a8dd 92be 29c0 b7bd 009c acbd 2d8a ffbd
00000080: 2017 a13c 0fdc 36be ea22 40be bb7f b93d
00000090: 14fd 8a3d f254 4e3e ecaf 66bd 6e37 033e
000000a0: 1ec6 053e 8d87 e43d 83e9 f53d d1a6 1abe
000000b0: 80a5 1bbe 6692 23be 88be 53be da26 a238
000000c0: c526 c33d d5f9 7f3d d647 8b3c 684f ea3d
000000d0: e12c 96bd bacb fc3d a5d4 143e a5f7 603e
000000e0: 60cb 3c3e 5c24 7c3e 8069 a1bb 0a4e c03d
000000f0: 76e8 4d3b aec7 6dbe eabe 523e a5dd bf3c
0.1669275 0.14719278 -0.1566312 0.1304966 0.026903912 0.06580445 -0.2125716 0.09223902
0.17266677 0.024806216 -0.10320788 0.057502374 -0.19922274 0.22233222 0.17173201 0.18673791
-0.0026238875 -0.19505008 0.07785039 -0.057216227 0.22384574 0.23998529 -0.070323035 -0.13345458
0.007773273 0.0007643081 0.22061807 -0.16502227 -0.28684735 -0.089721985 -0.08428192 -0.12477527
0.019664347 -0.17857383 -0.18763319 0.09057566 0.06786552 0.20149592 -0.056320116 0.12814113
0.13063857 0.11158667 0.120074295 -0.15102698 -0.15199852 -0.15973815 -0.2067815 7.7319986e-05
0.09528879 0.062494118 0.017002027 0.11440927 -0.07332779 0.12343545 0.14534242 0.21969469
0.18436956 0.24623245 -0.0049259067 0.09389885 0.0031419075 -0.23220703 0.2058064 0.023421118
