ppo_critic.pth (torch, 19799 bytes, 5 tensors)

layer1.weight f4 [64, 3]
0.26345482 -0.2338348 -0.40616724 -0.4150309 0.2024823 0.62809885 -0.5154564 -0.6219275
-0.421933 -0.103094324 -0.5283234 -0.5426341 -0.32463574 0.23908493 -0.19094585 0.335652
-0.48460135 0.30525184 0.37520832 -0.53554255 -0.28039867 0.38989887 -0.18438363 -0.15118967
-0.19692498 0.52206117 0.15486458 0.285689 -0.6396468 -0.5894111 -0.13598627 -0.4417518
0.6688996 0.38492846 0.14849097 -0.58632004 -0.58852744 -0.3171458 0.19125089 -0.049148943
0.59077764 -0.6368593 -0.2566129 0.47149602 -0.22361895 -0.17346425 -0.23031695 -0.30816358
0.18598966 -0.14821917 0.34635076 -0.16031939 -0.5641492 0.17094599 -0.2265817 -0.57966125
0.5664111 0.0074870293 -0.023876566 0.2647112 0.28800955 0.006823768 0.4272761 -0.2191588
-0.52768934 -0.15570183 -0.24533336 -0.39239606 -0.61074215 -0.0454123 -0.571525 -0.36472306
-0.018637326 0.6879979 -0.30096057 -0.42834485 -0.5855214 0.6719903 -0.20505467 0.3553757
0.15690498 0.09783515 -0.21995218 0.3338524 -0.21971151 0.29451188 -0.44616973 -0.4679073
0.5890912 -0.13508743 -0.2759025 -0.2835916 -0.4926257 0.1425437 -0.49789107 -0.49400985
-0.013074774 0.20161475 -0.22173181 -0.13930842 0.4631115 0.31321922 -0.027813 -0.66405773
0.24299543 0.5277572 0.66661894 -0.28496942 -0.36541742 -0.22113465 -0.20561026 -0.5045193
-0.5315615 0.46445304 -0.20107448 -0.5021958 0.17607164 -0.33640525 0.5650836 0.2824503
-0.076874204 0.3250163 0.44924158 -0.07319308 -0.3241687 -0.2554154 0.13851574 -0.25869966
0.5594333 0.4584067 0.4767092 -0.44827333 -0.054292794 -0.42281625 0.40452904 -0.19354863
-0.012888667 -0.5757145 0.10847213 -0.3929169 0.5072238 -0.5257398 0.56195456 -0.1192675
0.23508197 -0.08220376 0.603812 -0.21619353 -0.22225216 -0.6361597 0.51988584 0.53799033
-0.16623718 0.15566789 -0.480499 -0.5522479 -0.20849109 0.554663 -0.046526205 -0.18932247
0.5095027 0.1422615 -0.13323206 -0.3927613 0.35509616 -0.035673946 -0.23891245 -0.15027082
-0.4429902 -0.23100677 -0.20556995 0.5641633 -0.41321272 -0.16126168 0.45751402 -0.54107815
-0.6311904 0.12153811 0.48769763 0.47216478 -0.54429024 0.3902925 -0.06130812 0.34737906
-0.05283442 0.110726416 -0.00088820927 -0.6253491 0.48921356 -0.48372406 -0.026283897 0.49229783
00000000: 8de3 863e 6472 6fbe 27f5 cfbe ee7e d4be
00000010: 8557 4f3e 16cb 203f f3f4 03bf a436 1fbf
00000020: 9a07 d8be 1e23 d3bd 3440 07bf 12ea 0abf
00000030: a836 a6be aed2 743e 4f87 43be 94da ab3e
00000040: ab1d f8be f849 9c3e 4e1b c03e 5119 09bf
00000050: 6a90 8fbe d3a0 c73e 10cf 3cbe 77d1 1abe
00000060: b4a6 49be cda5 053f d294 1e3e d445 923e
00000070: e5bf 23bf a5e3 16bf fc3f 0bbe 4b2d e2be
00000080: 013d 2b3f 5815 c53e 040e 183e 1219 16bf
00000090: bca9 16bf ef60 a2be 46d7 433e 6750 49bd
000000a0: 343d 173f 3609 23bf c462 83be ed67 f13e
000000b0: 5efc 64be 9da0 31be 35d8 6bbe 9ec7 9dbe
000000c0: 1374 3e3e c4c6 17be e354 b13e c42a 24be
000000d0: 156c 10bf 770c 2f3e 0805 68be ae64 14bf
000000e0: 5100 113f c155 f53b ca98 c3bc 3a88 873e
000000f0: fd75 933e ea99 df3b efc3 da3e 2a6b 60be
00000100: a616 07bf 4d70 1fbe ab38 7bbe 23e8 c8be
00000110: 9959 1cbf 3f02 3abd 764f 12bf fbbc babe
00000120: 4ead 98bc a120 303f 8117 9abe 0450 dbbe
00000130: bbe4 15bf 8e07 2c3f daf9 51be cef3 b53e
00000140: b3ab 203e cc5d c83d 253b 61be b4ee aa3e
00000150: 0efc 60be 43ca 963e 5c70 e4be 8c91 efbe
00000160: aece 163f 5c54 0abe 1843 8dbe eb32 91be
00000170: 7039 fcbe faf6 113e 94eb febe dcee fcbe
00000180: 9437 56bc 1974 4e3e aa0d 63be dea6 0ebe
00000190: f31c ed3e 455e a03e 17d8 e3bc b0ff 29bf
000001a0: cbd3 783e 191b 073f 8aa7 2a3f 83e7 91be
000001b0: fe17 bbbe 1f71 62be 7f8b 52be 2d28 01bf
000001c0: 6a14 08bf cacc ed3e 78e6 4dbe e78f 00bf
000001d0: 204c 343e 4f3d acbe 52a9 103f 539d 903e
000001e0: 3970 9dbd 8968 a63e fe02 e63e 41e6 95bd
000001f0: 71f9 a5be cfc5 82be 12d7 0d3e 4874 84be
00000200: 0537 0f3f 48b4 ea3e 3a13 f43e 1584 e5be
00000210: 1f62 5ebd 5f7b d8be 6e1e cf3e 9d31 46be
00000220: fd2a 53bc 0762 13bf a326 de3d 672c c9be
00000230: 6bd9 013f e296 06bf 41dc 0f3f 8542 f4bd
00000240: 54b9 703e 725a a8bd 6c93 1a3f d661 5dbe
00000250: 1296 63be 5ddb 22bf 3d17 053f bcb9 093f
00000260: 143a 2abe 6767 1f3e f703 f6be 1e60 0dbf
00000270: b07e 55be 65fe 0d3f 4392 3ebd c0dd 41be
00000280: c56e 023f 00ad 113e fc6d 08be 0218 c9be
00000290: 2acf b53e d81e 12bd 77a5 74be 98e0 19be
000002a0: 9dcf e2be 0a8d 6cbe ee80 52be 026d 103f
000002b0: 9e90 d3be c821 25be 473f ea3e 1984 0abf
000002c0: b295 21bf f9e8 f83d 81b3 f93e 95bf f13e
000002d0: 9b56 0bbf 6bd4 c73e 391e 7bbd abdb b13e
000002e0: e868 58bd 88c4 e23d b7d6 68ba e116 20bf
000002f0: 337a fa3e aeaa f7be 5451 d7bc 760e fc3e

layer1.bias f4 [64]
0.6513277 0.44882372 0.37308887 0.028912723 0.2187272 0.08550114 0.5763126 0.298896
0.11276153 0.34461853 -0.031014202 -0.40594113 0.32817778 0.6804252 0.21248133 -0.34653375
-0.35272047 0.028523298 0.4572453 0.57193065 0.16626114 -0.33178672 0.4685654 0.57479805
0.5101163 -0.15452766 -0.111481555 0.13323607 -0.14226699 -0.34751332 -0.35939264 -0.34270686
0.5524377 0.1507225 0.14560305 0.13125561 0.3459497 0.45894113 -0.008910036 0.32514003
0.36848494 0.28502327 0.182079 0.23338169 -0.4208803 0.20689276 0.4276685 -0.10532588
0.14289807 -0.11709387 -0.20015822 -0.23370363 0.40173393 -0.25788963 -0.37619114 -0.0045542987
-0.15947345 -0.21305157 -0.047843523 -0.20765716 0.5312854 0.63496 0.46216938 0.051543932
00000000: 6abd 263f 39cc e53e 8105 bf3e 60da ec3c
00000010: 06fa 5f3e 391b af3d 3989 133f e608 993e
00000020: 84ef e63d d771 b03e 7f11 febc 84d7 cfbe
00000030: eb06 a83e 5930 2e3f b594 593e df6c b1be
00000040: c797 b4be b1a9 e93c 0e1c ea3e 0c6a 123f
00000050: 5c40 2a3e f3df a9be cee7 ef3e f725 133f
00000060: fb96 023f 803c 1ebe 7150 e4bd 096f 083e
00000070: 70ae 11be 44ed b1be 5002 b8be 4677 afbe
00000080: 8f6c 0d3f 0057 1a3e f718 153e df67 063e
00000090: 5220 b13e 55fa ea3e 66fb 11bc c178 a63e
000000a0: 0faa bc3e 92ee 913e eb72 3a3e 9cfb 6e3e
000000b0: 9f7d d7be b2db 533e 5ef7 da3e 18b5 d7bd
000000c0: df53 123e e9ce efbd 47f6 4cbe 0150 6fbe
000000d0: 12b0 cd3e 1c0a 84be 209c c0be 3a3c 95bb
000000e0: 024d 23be 312a 5abe 92f7 43bd 14a4 54be
000000f0: 5202 083f bd8c 223f 77a1 ec3e bb1f 533d

layer2.weight f4 [64, 64]
0.1729499 0.17800412 0.13807487 0.19723035 0.19791548 0.04142579 0.21895413 0.08534775
-0.020502053 0.07054923 0.16577165 0.008461445 0.16912471 0.049921654 0.051583875 -0.011615239
0.17308758 0.080623895 0.09250705 0.20302212 0.08272513 0.21686946 0.033145208 0.061322056
0.123464875 0.1641409 0.010593519 0.19848102 0.070298806 0.16497436 0.11848897 0.20383394
0.07165122 -0.0028591077 0.12182387 0.13140868 0.11437585 0.08827882 -0.014177645 0.09698684
0.1621229 -0.015678702 0.15180025 0.0997481 0.022302693 0.10913671 0.04301873 0.06376289
0.15507177 0.061623074 0.04597832 0.10048993 0.109302014 0.20961028 0.013783995 0.082454205
0.12762657 0.06810506 0.20094196 0.10314198 0.044480864 0.18881582 0.18313587 0.11423819
9.913629e-05 0.13891666 0.13266185 0.03932792 0.15758517 0.106278546 0.013504577 0.1763363
0.02565749 0.04105652 0.1100012 -0.01125176 0.008010831 0.053841613 0.07472195 0.23358409
-0.0143457325 -0.0042140633 0.040534683 0.19180433 0.1270288 0.011717498 0.12505314 0.21526174
0.14207625 0.14227863 0.123473905 0.08604208 0.2218807 0.18912041 0.10078572 0.05891232
0.049092714 0.15532222 0.2177819 0.027351653 0.14601785 0.16255413 0.1778216 0.09891428
-0.013252972 0.024414498 0.017857455 0.15106703 0.08054026 0.19322386 0.024491504 0.03680359
0.14960289 0.115226306 0.20824997 0.059336532 0.12684906 0.038707253 0.12888016 0.13384046
0.14748897 0.008961139 0.0016885333 0.03766633 0.21182224 0.21863207 0.14147119 0.13440388
0.09617259 -0.018824328 -0.013798043 0.021974951 0.05390137 -0.09643726 -0.053818755 0.021744195
-0.008402406 -0.034022525 -0.11175656 0.036080062 -0.097483605 0.109930396 0.08796867 -0.11812824
0.024091348 0.050222218 -0.09342156 0.106403135 -0.027615795 0.08933014 -0.10726294 0.015086754
0.012839045 0.055554315 0.044670552 0.0313978 -0.07308179 -0.06187007 0.108342424 0.059335336
-0.08537697 0.042001527 -0.06919126 -0.04463784 -0.10509369 -0.0474748 0.025833786 0.003535482
-0.056050695 0.04258126 -0.007712847 -0.08952333 -0.029822275 0.01984756 0.10551888 -0.08313599
-0.04023711 -0.012809247 -0.016132155 -0.053144947 -0.084873736 0.047731698 -0.06477873 -0.05332002
0.06856121 -0.11343971 -0.114315614 0.079678655 -0.032330975 0.005361343 -0.083406135 -0.04351744
0.039602652 -0.11665027 0.072447084 -0.09953844 -0.03966341 0.074735 0.097694404 0.014145209
-0.02502238 0.036651734 0.060071148 -0.084925525 0.080357246 -0.01246024 -0.016079707 0.03789574
-0.049782615 0.010467071 -0.021631533 -0.0036148056 -0.043960832 0.09125315 -0.117511675 -0.015775885
-0.08484841 -0.11811224 -0.02380095 0.03171201 0.061657533 -0.036251567 0.06486355 -0.09411739
-0.06324445 -0.039869025 0.051809773 0.06578019 0.051611785 -0.11601717 -0.028156403 0.10013668
-0.10829909 -0.034698598 0.013928166 0.09406741 0.043099236 -0.06124767 -0.07697529 0.07862255
0.09905624 -0.1311422 -0.05054338 0.06952896 0.054464318 -0.11167591 0.10611523 -0.043546572
-0.12115591 -0.15613225 0.03214242 0.016035575 -0.040136565 -0.058726884 -0.10488349 0.075065285
00000000: c719 313e b646 363e 8063 0d3e c1f6 493e
00000010: 5baa 4a3e 17ae 293d 8335 603e cdca ae3d
00000020: ecf3 a7bc 1d7c 903d 0bc0 293e dfa1 0a3c
00000030: 072f 2d3e a67a 4c3d 9d49 533d d84d 3ebc
00000040: df3d 313e 241e a53d 5674 bd3d 08e5 4f3e
00000050: cb6b a93d 0713 5e3e 45c3 073d d62c 7b3d
00000060: 27db fc3d 8d14 283e 7090 2d3c 9c3e 4b3e
00000070: d2f8 8f3d 0aef 283e 58aa f23d d8b9 503e
00000080: e0bd 923d de5f 3bbb cb7e f93d ff8f 063e
00000090: e33d ea3d 87cb b43d 5a49 68bc 09a1 c63d
000000a0: 8c03 263e 9f70 80bc 8671 1b3e bb48 cc3d
000000b0: 23b4 b63c 1183 df3d 6834 303d 1e96 823d
000000c0: 22cb 1e3e 7a68 7c3d c353 3c3d aacd cd3d
000000d0: bcd9 df3d 14a4 563e 44d6 613c c0dd a83d
000000e0: 8ab0 023e aa7a 8b3d bbc3 4d3e 1a3c d33d
000000f0: 9131 363d ef58 413e f887 3b3e b6f5 e93d
00000100: 64e7 cf38 2b40 0e3e 82d8 073e 5016 213d
00000110: 025e 213e 91a8 d93d 4d42 5d3c 8191 343e
00000120: a82f d23c e22a 283d 4f48 e13d 4d59 38bc
00000130: dc3f 033c 0689 5c3d d207 993d ab30 6f3e
00000140: 5d0a 6bbc 2016 8abb b207 263d 5b68 443e
00000150: d613 023e c0fa 3f3c ee0d 003e 936d 5c3e
00000160: 707c 113e 7db1 113e e3df fc3d d436 b03d
00000170: b234 633e c8a8 413e be68 ce3d 0b4e 713d
00000180: 7115 493d ca0c 1f3e 3802 5f3e 9310 e03c
00000190: b485 153e 9774 263e de16 363e 9293 ca3d
000001a0: fe22 59bc ea00 c83c cc49 923c 51b1 1a3e
000001b0: 4bf2 a43d 7adc 453e 68a2 c83c 5cbf 163d
000001c0: 8031 193e c5fb eb3d 7b3f 553e dd0a 733d
000001d0: b8e4 013e 7f8b 1e3d 29f9 033e 790d 093e
000001e0: 5907 173e bed1 123c c751 dd3a 0248 1a3d
000001f0: eee7 583e 16e1 5f3e d3dd 103e 2ca1 093e
00000200: 23f6 c43d 7a35 9abc 3011 62bc d004 b43c
00000210: afc7 5c3d e680 c5bd 0e71 5cbd e220 b23c
00000220: 3faa 09bc 345b 0bbd a0e0 e4bd b0c8 133d
00000230: 7ca5 c7bd 3023 e13d eb28 b43d 38ed f1bd
00000240: 385b c53c d0b5 4d3d ce53 bfbd e3e9 d93d
00000250: 853a e2bc b8f2 b63d acac dbbd 6f2e 773c
00000260: dc5a 523c ec8c 633d 78f8 363d fb9a 003d
00000270: e8ab 95bd 786b 7dbd a2e2 dd3d 9c09 733d
00000280: 1fda aebd cb09 2c3d 26b4 8dbd 2bd6 36bd
00000290: 5c3b d7bd f074 42bd 60a1 d33c 8cb3 673b
000002a0: 6a95 65bd b069 2e3d 0dbc fcbb 0258 b7bd
000002b0: d84d f4bc 5a97 a23c 481a d83d 3443 aabd
000002c0: abcf 24bd e0dd 51bc 9527 84bc 84ae 59bd
000002d0: 48d2 adbd 5082 433d b6aa 84bd 1866 5abd
000002e0: d269 8c3d 1453 e8bd 4e1e eabd 902e a33d
000002f0: 7c6d 04bd 34ae af3b d6d0 aabd 583f 32bd
00000300: 6436 223d 56e6 eebd 235f 943d cfda cbbd
00000310: 1a76 22bd aa0e 993d 0114 c83d 4fc1 673c
00000320: bcfb ccbc 2120 163d 2a0d 763d 6fed adbd
00000330: 5792 a43d 0926 4cbc 97b9 83bc 9038 1b3d
00000340: dbe8 4bbd 147e 2b3c 9d34 b1bc 60e6 6cbb
00000350: 4610 34bd eee2 ba3d f6a9 f0bd 6e3c 81bc
00000360: 01c5 adbd d5e4 f1bd 36fa c2bc 74e4 013d
00000370: 9c8c 7c3d 867c 14bd 2ed7 843d 9ec0 c0bd
00000380: 4e86 81bd b44d 23bd 7c36 543d c4b7 863d
00000390: e166 533d 699a edbd 42a8 e6bc 7614 cd3d
000003a0: eacb ddbd 1e20 0ebd f632 643c 6aa6 c03d
000003b0: d388 303d d6de 7abd 39a5 9dbd dc04 a13d
000003c0: ffdd ca3d 244a 06be 9306 4fbd 3365 8e3d
000003d0: fa15 5f3d 57b6 e4bd f152 d93d e45d 32bd
000003e0: 9720 f8bd 22e1 1fbe c5a7 033d 0a5d 833c
000003f0: 3d66 24bd 9a8b 70bd 28cd d6bd d4bb 993d

layer2.bias f4 [64]
-0.0191935 -0.008557923 -0.079515085 0.058728628 0.13212234 0.03097315 0.15080793 0.10891719
0.00017935081 -0.031994965 -0.10806227 0.072294295 0.10049381 -0.07541403 0.117613 -0.09054053
-0.006397354 0.03512934 0.08720422 0.033522833 -0.048535213 0.117614366 -0.015974024 0.03622613
0.035860583 0.031514358 0.034486502 0.16496457 -0.026317265 -0.01768277 -0.082612544 -0.02996231
0.20455804 0.09812967 -0.031441253 0.15064728 -0.009206488 0.0138068395 0.022021985 0.14138265
0.06139771 0.16295516 0.012735369 0.08232762 0.06399811 -0.05391086 0.20243709 0.21128893
0.12816975 0.18283668 -0.08299382 -0.0677655 0.034077182 0.06683278 0.034037102 -0.013232419
-0.09616557 -0.0011223529 -0.023579612 -0.115738265 0.072185665 -0.03992025 0.20636487 -0.010722
00000000: b03b 9dbc 8836 0cbc ced8 a2bd 6e8d 703d
00000010: 144b 073e 67bb fd3c 656d 1a3e fa0f df3d
00000020: 1e10 3c39 270d 03bd c04f ddbd 080f 943d
00000030: b3cf cd3d ac72 9abd 16df f03d 506d b9bd
00000040: e5a0 d1bb c8e3 0f3d 2098 b23d 3d4f 093d
00000050: dccc 46bd cddf f03d f5db 82bc da61 143d
00000060: 8ce2 123d 3315 013d b841 0d3d 79ec 283e
00000070: 4e97 d7bc 75db 90bc c430 a9bd 8573 f5bc
00000080: aa77 513e 35f8 c83d 8bc8 00bd 4843 1a3e
00000090: cfd6 16bc 1536 623c 7367 b43c 9dc6 103e
000000a0: 2a7c 7b3d b8dd 263e 02a8 503c 629b a83d
000000b0: 7111 833d a2d1 5cbd ab4b 4f3e 205c 583e
000000c0: ee3e 033e 8a39 3b3e aaf8 a9bd a3c8 8abd
000000d0: 8494 0b3d a0df 883d 7d6a 0b3d cacc 58bc
000000e0: 74f2 c4bd ea1b 93ba 082a c1bc 2f08 edbd
000000f0: 14d6 933d 6b83 23bd 5051 533e 54ab 2fbc

layer3.weight f4 [1, 64]
-0.106993236 -0.21414551 0.093744 0.062822156 -0.19530277 0.02882886 -0.152287 -0.18645346
-0.19915563 0.017248107 0.0040452536 -0.13475981 -0.1933601 -0.08075832 -0.16524084 0.06721741
0.03897433 -0.066098034 0.103190094 0.08411637 0.0328988 -0.21427286 0.01133175 -0.12420998
-0.23924671 -0.22393507 -0.20796809 -0.12205604 -0.21157818 -0.106996715 0.03852064 0.054605536
-0.13174312 -0.15003832 0.020108443 -0.117603816 -0.1786481 0.0012924967 -0.12704767 -0.1919367
-0.22889118 -0.1539286 -0.124507576 -0.23807165 0.100347795 0.0010388698 -0.1997859 -0.13372502
-0.17721546 -0.15933001 0.101122424 0.03678669 0.112031996 -0.19559619 -0.17160855 0.013842795
0.089804664 -0.2337087 -0.03496529 0.04706245 0.059239388 0.10337695 -0.18389417 -0.1318187
00000000: 451f dbbd f648 5bbe dbfc bf3d e7a8 803d
00000010: 73fd 47be 802a ec3c 20f1 1bbe a8ed 3ebe
00000020: 74ef 4bbe e74b 8d3c 0c8e 843b 7afe 09be
00000030: 3100 46be 9e64 a5bd e534 29be 48a9 893d
00000040: 8ca3 1f3d 685e 87bd 5455 d33d 3445 ac3d
00000050: e4c0 063d 586a 5bbe cea8 393c cd61 febd
00000060: 17fd 74be 3c4f 65be 96f5 54be 84f8 f9bd
00000070: f3a7 58be 1821 dbbd d2c7 1d3d 0eaa 5f3d
00000080: abe7 06be a5a3 19be 76ba a43c 45da f0bd
00000090: 87ef 36be fe68 a93a c918 02be 0e8b 44be
000000a0: 7362 6abe 759f 1dbe d4fd febd 0ec9 73be
000000b0: 2583 cd3d b02a 883a ad94 4cbe 36ef 08be
000000c0: f877 35be 6827 23be 4619 cf3d a4ad 163d
000000d0: 0871 e53d 5e4a 48be 27ba 2fbe e4cc 623c
000000e0: 82eb b73d 5551 6fbe c437 0fbd 8ec4 403d
000000f0: 00a5 723d 4bb7 d33d c14e 3cbe 7bfb 06be
