ppo_critic.pth (torch, 203863 bytes, 5 tensors)

layer1.weight f4 [64, 722]
0	0x3cf99aa7	0.030469252
1	0x3b88e090	0.0041771606
2	0xbc515c67	-0.012778378
3	0xbc0f02ad	-0.008728665
4	0xbc438526	-0.0119336005
5	0x3c01cc32	0.007922219
6	0xbc5d20ca	-0.013496587
7	0x3cfb330b	0.030663988
8	0x3cc53f1c	0.024077944
9	0xbd12afd9	-0.035812233
10	0x3cf2184c	0.029552601
11	0x3b845f62	0.004039691
12	0x3be359d9	0.006938201
13	0xbb0b2477	-0.0021231452
14	0xbc98997e	-0.018627878
15	0x3cff67e9	0.031177478
16	0xbc51a997	-0.012796781
17	0xbca71dd9	-0.020399975
18	0x3c16da6e	0.009207351
19	0x3caa22fc	0.020768635
20	0x3b936371	0.0044979383
21	0xbb6157b5	-0.0034384553
22	0x3ce2c619	0.027682351
23	0x3cf8aacb	0.030354878
24	0xbc342fde	-0.010997741
25	0x3c6fbc45	0.014632289
26	0xbd1488f3	-0.036263417
27	0x3c408ede	0.011752812
28	0x3c526410	0.01284124
29	0x3d145825	0.036216874
30	0x3d06ab77	0.032878365
31	0x3bbf3695	0.005835364
32	0xbb8f9680	-0.0043819547
33	0xbd16d6a5	-0.036825795
34	0xbc73ed36	-0.014888098
35	0x3ca73c43	0.020414477
36	0x3ae75529	0.0017649281
37	0x3cf4937f	0.029855488
38	0x3d0da05a	0.03457675
39	0xbd0e1e5b	-0.034696918
40	0x3cce9860	0.025219142
41	0x3ad5df5a	0.0016317174
42	0x3c9489d4	0.018132128
43	0xbc9b1a77	-0.018933518
44	0x3c87db70	0.016584128
45	0x3c0d2208	0.008614071
46	0xbbef4e64	-0.007303046
47	0xbcb0d194	-0.02158431
48	0xbcc91588	-0.0245464
49	0xbc716661	-0.014733882
50	0x3d052f5f	0.03251588
51	0x3b004e60	0.0019577965
52	0xbc927b82	-0.017881159
53	0xbc524ecb	-0.0128361685
54	0xbc506073	-0.012718308
55	0xbc8e2180	-0.017349958
56	0x3cf3b037	0.029747112
57	0x3cc2b1d6	0.02376644
58	0x3cb720fe	0.0223546
59	0xbc1b43ff	-0.009476661
60	0x3cad81da	0.021180082
61	0x3c40d48a	0.011769423
62	0xbc05419f	-0.008133321
63	0xbd01f1cb	-0.031724732
64	0xbc893bcf	-0.016752152
65	0xbca75617	-0.020426793
66	0xba801641	-0.0009772257
67	0xbcdc406a	-0.026886184
68	0x3ce2a103	0.027664667
69	0x3c2ec4d7	0.010667047
70	0xba985dcc	-0.0011624633
71	0xbc0b16a9	-0.008489289
72	0x3ceaa9ec	0.028645478
73	0x3c0005fd	0.007813928
74	0x3c8f457b	0.017489186
75	0xbd00ebeb	-0.03147499
76	0x3b725822	0.00369788
77	0xbcadbf25	-0.021209309
78	0xbb971bb1	-0.0046114554
79	0x3ab86cb3	0.0014070481
80	0x3b8584fc	0.004074691
81	0xbbce353e	-0.006292968
82	0xbc20c9f8	-0.009813778
83	0xbd08f64b	-0.03343801
84	0x3d18258a	0.037145175
85	0xbbb018d9	-0.005374056
86	0x3c698311	0.01425244
87	0xbd0509d0	-0.03248006
88	0x3a3a7f8d	0.00071143435
89	0xbcba974e	-0.022777226
90	0x3c30c713	0.0107896505
91	0x3982bced	0.00024936293
92	0x3bfb8e39	0.0076768664
93	0xbb8f2d5d	-0.0043694214
94	0x3cdd86b0	0.027041763
95	0x3ce53789	0.027980583
96	0xbcbbff61	-0.022948923
97	0xbd0a23f3	-0.03372569
98	0xbd0006eb	-0.031256597
99	0xbc443ee5	-0.011977886
100	0xbc64e7df	-0.013971298
101	0x3c8af430	0.01696214
102	0xbbb18953	-0.0054179817
103	0x3d0f589a	0.034996606
104	0x3c920778	0.017825827
105	0x3ce943ab	0.02847465
106	0x3cf1c06a	0.029510695
107	0x3c750b3d	0.014956293
108	0xbcdeed42	-0.027212743
109	0xbce9462a	-0.02847584
110	0x3d0e1e18	0.03469667
111	0x3ce17984	0.027523763
112	0xba942e91	-0.0011305382
113	0xbc6ce90d	-0.0144598605
114	0xbbd347ca	-0.006447767
115	0x3ba87cbb	0.005141822
116	0xbbf4ecde	-0.007474526
117	0xbc7e3902	-0.015516521
118	0xbc3cba05	-0.01151896
119	0xba26e20d	-0.00063660817
120	0xbd117ede	-0.03552138
121	0xbcc67824	-0.02422721
122	0xbcac20cd	-0.021011734
123	0xbcf9a52f	-0.030474273
124	0x3b23aa62	0.0024973382
125	0xbb1cc09b	-0.0023918513
126	0xbc5af666	-0.01336441
127	0xbc233a45	-0.009962623
128	0x3c404dda	0.011737311
129	0x3c412273	0.0117879985
130	0x3cab8fd1	0.0209426
131	0x3b1648a3	0.0022931478
132	0x3b842828	0.0040331073
133	0x3c24e06e	0.010063274
134	0x3cb70eb8	0.022345886
135	0xbcb542ef	-0.022126643
136	0xbc34fcb5	-0.011046578
137	0x3c800604	0.015627868
138	0x3cfd7529	0.030939655
139	0xbc238745	-0.009980981
140	0xbd0facee	-0.035077028
141	0xbb33eab4	-0.0027453126
142	0x3cc6d00c	0.024269126
143	0x3cd95263	0.026528543
144	0x3cdd3c78	0.027006373
145	0xbb29fc64	-0.002593779
146	0xbbd28803	-0.0064249053
147	0x3c85fd04	0.016355999
148	0xbcb856cf	-0.022502331
149	0xbb718ecb	-0.0036858793
150	0xbc0af2f8	-0.00848078
151	0x3c298594	0.010346789
152	0xbc423a3e	-0.011854706
153	0xbc3d1c02	-0.011542322
154	0xbc407b42	-0.011748137
155	0xbd0570b3	-0.03257818
156	0xbcb4ef2b	-0.0220867
157	0x3ccfeb1c	0.025380664
158	0xbc0e3c55	-0.008681376
159	0xbca320ce	-0.019913103
160	0xb98c4ea4	-0.00026761473
161	0x3b56eb62	0.0032794108
162	0x3ab3cb4b	0.0013717202
163	0xbc1cc0ff	-0.009567498
164	0x3cb4d75e	0.022075351
165	0xbc944f88	-0.01810433
166	0x3cdaa27a	0.026688803
167	0xbd085300	-0.03328228
168	0x3ab4617f	0.0013761966
169	0xbb42aed2	-0.0029706252
170	0xbcbf9123	-0.023384636
171	0xbced45e0	-0.028963983
172	0xbcdf6dff	-0.02727413
173	0x3cd6b6df	0.026210247
174	0x3bf34782	0.007424296
175	0x3cc1c5a4	0.023653813
176	0x3c3f5cb1	0.011679814
177	0x3ce3688c	0.027759813
178	0xbd127836	-0.035759173
179	0xbc21a57d	-0.009866116
180	0xbd148e53	-0.036268543
181	0xbb26dfd1	-0.0025462995
182	0x3b9e191e	0.0048247715
183	0xbcf1eb61	-0.029531183
184	0x3b0cf278	0.0021506827
185	0x3c1db9d3	0.0096268235
186	0x3cfb9ca2	0.030714337
187	0x3c5c26e2	0.013437005
188	0x3b886c4d	0.004163301
189	0x3be21e2e	0.0069005704
190	0x3cce120e	0.025155094
191	0x3cd9bb03	0.026578432
192	0x3c08320f	0.008312716
193	0x3cbb75f6	0.022883397
194	0x3d15db5e	0.036586158
195	0x3a9b8b57	0.0011867088
196	0xbd0ab946	-0.033868097
197	0x3d0735d1	0.033010308
198	0xbc8d65c3	-0.017260438
199	0x3d14a4e4	0.036290064
200	0x3bbd61fe	0.005779504
201	0xbc47de48	-0.012198992
202	0x3cf73eac	0.030181251
203	0x3c16ad11	0.009196536
204	0xbbf06801	-0.007336617
205	0x3ce52278	0.027970538
206	0xbc586437	-0.013207487
207	0xbbe29bac	-0.00691553
208	0x3c563573	0.013074267
209	0xbcd24117	-0.025665803
210	0xbb79b29a	-0.003810084
211	0x3c89ca75	0.016820172
212	0x3b945592	0.0045268023
213	0xbd04fb73	-0.032466363
214	0x3b5e0d0f	0.0033882295
215	0x3c4682af	0.012116118
216	0x3d10bb3b	0.035334807
217	0xbc9b1b76	-0.018933993
218	0x3c1f92f9	0.009739631
219	0xbc184031	-0.009292648
220	0xbb2d3b5b	-0.0026433084
221	0x3ba3da64	0.0050003994
222	0xbcd8d4c6	-0.026468646
223	0x3a98e7a5	0.0011665715
224	0xbcc3b269	-0.023888784
225	0x3caa5e7f	0.020797012
226	0xbb3799af	-0.0028015187
227	0xbb6aa27d	-0.0035802417
228	0x3c2c7095	0.0105248885
229	0xbbba77bc	-0.005690543
230	0x3cb403a1	0.021974387
231	0x3d001571	0.031270448
232	0x3cfebde4	0.031096406
233	0x3d02e729	0.031958733
234	0xbcf9c815	-0.030490914
235	0xbc7d355a	-0.015454615
236	0x3b0ef8d0	0.0021815784
237	0xbc75bebb	-0.014999087
238	0x3cd4e937	0.025990112
239	0xbcf37279	-0.02971767
240	0xbc9dd343	-0.019265777
241	0xbc43c975	-0.011949887
242	0x3cf83c9e	0.030302342
243	0xbc903b81	-0.017606499
244	0x3d131810	0.03591162
245	0x3d144cbe	0.036206
246	0x3d177a4b	0.036981862
247	0x3c749657	0.014928422
248	0xbcbd594b	-0.023113867
249	0xbcab764e	-0.020930436
250	0xbd16d798	-0.0368267
251	0xbce389fc	-0.027775757
252	0xbc607130	-0.013698861
253	0x3c2530c8	0.010082431
254	0x3cd74ed5	0.026282707
255	0xbcdd637e	-0.02702498

layer1.bias f4 [64]
0	0x3ce9f5d5	0.028559605
1	0x3d080cca	0.03321532
2	0xbb01c204	-0.001979948
3	0x3cb48660	0.022036731
4	0x3ca324c5	0.019914994
5	0xbb4538e9	-0.0030093736
6	0xbcfb7a8b	-0.030698081
7	0xbc7a9873	-0.015295136
8	0x3ce22a12	0.027607951
9	0xbc7d9782	-0.015478017
10	0x3d0d257b	0.034459572
11	0x3d09e9d2	0.033670254
12	0xbade9f9d	-0.0016984824
13	0x3bc95d20	0.0061451346
14	0xbd16b63f	-0.036794897
15	0xbc6a43a4	-0.014298353
16	0x3c338a9c	0.01095834
17	0x3cea77b5	0.028621534
18	0x3ba6ae0f	0.0050866674
19	0xbce653a4	-0.028116055
20	0xbc993b8a	-0.018705148
21	0xbd091a69	-0.033472452
22	0xbc8d1eec	-0.017226659
23	0x3d0f34f5	0.034962613
24	0xbcfe6b72	-0.031057093
25	0xbcfbd05d	-0.030739004
26	0x3cf41ce3	0.02979893
27	0x3d006ce6	0.031353854
28	0xba027448	-0.00049764337
29	0x3d06580e	0.03279882
30	0xbc08e1c1	-0.008354605
31	0xbc45830c	-0.01205517
32	0xbcd68a10	-0.02618888
33	0x3ce160e6	0.027512025
34	0xbcc14047	-0.02359022
35	0x3c868724	0.016421862
36	0xbcb2425d	-0.02176016
37	0x3a55abb2	0.000815089
38	0x3cf9f264	0.030511089
39	0x3b1666a2	0.0022949358
40	0xbc158dfb	-0.009128089
41	0xb9cfd990	-0.00039644213
42	0x3c47950f	0.012181534
43	0x3cc6c56c	0.02426406
44	0x3cb14e1b	0.021643689
45	0xbc41d22f	-0.011829897
46	0xbc30d0bc	-0.010791954
47	0xbd14a3bd	-0.036288965
48	0x3afe936d	0.0019422598
49	0x3ca4405b	0.020050218
50	0x3ceccc78	0.028906092
51	0xbd070098	-0.03295955
52	0x3d109a14	0.03530319
53	0x3aa261fd	0.0012388822
54	0x391200eb	0.00013923987
55	0xbd1720dd	-0.036896575
56	0x3cd5de1d	0.026106888
57	0xbce86f47	-0.028373374
58	0xbca928d4	-0.020649351
59	0xbd0747ba	-0.03302739
60	0xbd127ef0	-0.03576559
61	0xbc45a772	-0.012063848
62	0xbc6aef35	-0.014339258
63	0x3bbbc6d4	0.0057304893

layer2.weight f4 [64, 64]
0	0x3d0250c8	0.03181532
1	0xbd652678	-0.05594489
2	0x3d232af8	0.0398359
3	0xbd7e7910	-0.062127173
4	0x3d97f570	0.0741986
5	0x3d5e9230	0.054338634
6	0xbc0e6030	-0.008689925
7	0x3d950e28	0.07278091
8	0xbd132db4	-0.035932258
9	0x3d85e3fe	0.06537627
10	0x3d9cefaa	0.076629
11	0xbc85b240	-0.016320348
12	0xbdaa9602	-0.08329393
13	0xbdf82b7e	-0.121176705
14	0xbd6f89e0	-0.058481097
15	0xbd86766c	-0.06565556
16	0x3d0b3258	0.03398356
17	0x3ddac15c	0.106814116
18	0x3c950c18	0.018194243
19	0x3d8cb7a4	0.06870964
20	0xbdb8c1c6	-0.09021334
21	0xbdab4fb0	-0.083648086
22	0x3c3c7640	0.011502802
23	0xbd171ee0	-0.03689468
24	0x3d3ed89c	0.046593294
25	0x3d23cdd0	0.0399912
26	0x3db5e9c8	0.08882481
27	0xbd701c74	-0.058620885
28	0xbdcaa656	-0.09895007
29	0xbd88b5d0	-0.06675303
30	0xbdac834a	-0.08423479
31	0xbd938e7c	-0.07204911
32	0x3dd5dbf4	0.10442343
33	0x3d8b7d06	0.06810956
34	0x3dfa7d5c	0.12230942
35	0x3db6f850	0.089340806
36	0x3da6190e	0.081102476
37	0xbb6af140	-0.0035849363
38	0x3d0fb254	0.035082176
39	0xbdfe93f8	-0.124305665
40	0x3dbfb3b0	0.093604445
41	0xbd977138	-0.07394642
42	0xbdb579b8	-0.08861107
43	0xbc7703c0	-0.015076578
44	0x3d98d740	0.07462931
45	0x3d969034	0.07351723
46	0x3ccce7e0	0.02501291
47	0xbda82828	-0.08210784
48	0xbce96578	-0.028490767
49	0xbc833bb0	-0.016019672
50	0x3d64f6e0	0.0558995
51	0xbdcd5642	-0.10026218
52	0x3d44d3f0	0.04805368
53	0xbd23622c	-0.039888546
54	0xbd670a5c	-0.056406364
55	0xbd874580	-0.06605053
56	0xbdb54b5a	-0.08852263
57	0x3ba37320	0.004988089
58	0x3dda8bf2	0.10671224
59	0x3da174f8	0.07883638
60	0x3dcce97a	0.100054696
61	0xbdfab130	-0.12240827
62	0x3dcecac8	0.10097271
63	0xbd607168	-0.054795653
64	0x3d930678	0.07178968
65	0xbd8abec8	-0.0677467
66	0x3d2d9fe8	0.042388827
67	0x3dfbdd2c	0.122980446
68	0xbd866d90	-0.06563866
69	0x3c929b50	0.017896324
70	0xbdc6f090	-0.097138524
71	0x3d1652c0	0.03670001
72	0xbd5a5b2c	-0.053309605
73	0x3dc8e07e	0.098084435
74	0x3d1c270c	0.038123176
75	0xbd981710	-0.07426274
76	0x3dc399ec	0.09550843
77	0xbd8f390a	-0.06993301
78	0x3df00c1c	0.1172106
79	0x3c95e740	0.018298745
80	0x3d5ae09c	0.05343686
81	0x3dbbd9ac	0.09172377
82	0x3db992ca	0.09061201
83	0x3dae795c	0.08519241
84	0xbd87d676	-0.06632702
85	0x3c4cf4e0	0.012509555
86	0xbcbb0358	-0.022828743
87	0x3df64dbe	0.12026547
88	0x3c9019d0	0.017590433
89	0xbb988a40	-0.0046551526
90	0x3c9e5730	0.019328684
91	0x3dc3e798	0.095656574
92	0xbcf0b360	-0.029382408
93	0xbd98ac74	-0.07454768
94	0xbd2eb7ac	-0.042655632
95	0xbdbc5f44	-0.09197858
96	0x3da1b53c	0.07895896
97	0x3c92ba90	0.017911226
98	0x3d9cb3c4	0.07651475
99	0x3d1e2af4	0.038615182
100	0x3d907d4e	0.0705515
101	0xbdc31f9a	-0.09527512
102	0xbc6e0b30	-0.0145290345
103	0x3cc70d00	0.024298191
104	0x3c81d388	0.015847936
105	0xbd382478	-0.044956654
106	0xbdd8f2e2	-0.10593201
107	0xbdfe6100	-0.12420845
108	0xbdf71b40	-0.120657444
109	0x3cc8e928	0.02452524
110	0xbd83b3d4	-0.06430784
111	0xbd766d48	-0.060162812
112	0x3dff7cfe	0.12475012
113	0x3db10904	0.08644298
114	0xbd334154	-0.043763474
115	0x3cd4b990	0.02596739
116	0x3cbd1ea0	0.023085892
117	0xbd86a2f8	-0.065740526
118	0xbd5d16b4	-0.05397673
119	0x3d25f128	0.040513188
120	0x3dd29872	0.10282983
121	0xbdf6a2dc	-0.12042782
122	0x3dffa484	0.12482551
123	0xbd16dea8	-0.036833435
124	0xbdcf6f58	-0.10128659
125	0xbc0aeeb0	-0.008479759
126	0xbd79945c	-0.060932502
127	0x3ca23208	0.019799247
128	0xbd54a36c	-0.051913664
129	0x3cefe040	0.029281735
130	0xbda0bb96	-0.07848279
131	0xbc20fa10	-0.009825245
132	0xbdfa5c84	-0.12224677
133	0xbd2e7184	-0.042588726
134	0xbdb00a1e	-0.0859568
135	0x3c886b28	0.016652659
136	0x3dbb0bfa	0.09133144
137	0x3d8e4a2c	0.06947741
138	0x3d1ab78c	0.0377727
139	0xbde3e3ec	-0.11127457
140	0x3d17a8c0	0.037026167
141	0xbddffd20	-0.10936952
142	0x3cc5b858	0.024135754
143	0x3de992a6	0.11404924
144	0x3cde6398	0.0271471
145	0xbdb25d6a	-0.087092236
146	0xbd884a42	-0.066547886
147	0xbddea09e	-0.10870479
148	0xbdca6c74	-0.09883967
149	0x3dedfb34	0.11620179
150	0x3d939298	0.07205695
151	0xbda8f552	-0.08249916
152	0x3d9f4b0e	0.077779874
153	0x3dd6db9e	0.104911074
154	0x3ceebf10	0.02914384
155	0x3da42abe	0.08015965
156	0x3dc938d8	0.09825295
157	0xbd4fb704	-0.050711647
158	0xbbdf8020	-0.0068206936
159	0xbceec0c0	-0.029144645
160	0x3cad8ec8	0.021186247
161	0xbda12996	-0.0786926
162	0x3c5f1e30	0.013618037
163	0x3d549ae4	0.051905528
164	0xbd444abc	-0.047922835
165	0x3d3c572c	0.04598157
166	0x3d49ea64	0.049295798
167	0x3da964e2	0.08271195
168	0x3def7f66	0.11694221
169	0xbd77432c	-0.060366794
170	0xbc335df0	-0.010947689
171	0x3bbc2ee0	0.0057428926
172	0x3db4befa	0.088254884
173	0x3d1bafd4	0.03800948
174	0x3d557cdc	0.05212103
175	0xbdce1414	-0.10062423
176	0x3df8db00	0.12151146
177	0xbc0f1090	-0.008731976
178	0x3cadccd8	0.021215841
179	0x3db08704	0.08619502
180	0x3c09b330	0.008404538
181	0xbcfbe7a0	-0.030750096
182	0xbd2ee62c	-0.042699978
183	0xbd4ceeec	-0.05003254
184	0x3a14b700	0.0005673021
185	0xbd63d090	-0.055618823
186	0xbc6e8380	-0.014557719
187	0xbd4941d4	-0.049135044
188	0xbdab8b46	-0.08376174
189	0xbdc45f3c	-0.09588477
190	0xbdfc54a6	-0.12320833
191	0x3dc94bd6	0.09828918
192	0x3ddb8bfc	0.10720059
193	0x3db127d6	0.08650176
194	0xbdcbba68	-0.099476635
195	0xbbf22f20	-0.0073908716
196	0xbdb976e8	-0.09055883
197	0x3a1d7200	0.0006006062
198	0xbda0b58a	-0.07847126
199	0x3a7d3300	0.00096587837
200	0xbddd509a	-0.10806389
201	0xbd768cfc	-0.060193047
202	0x3d88b122	0.066744104
203	0x3dd95f04	0.10613826
204	0x3d883362	0.066504255
205	0xbda536ae	-0.0806707
206	0xbd04e11c	-0.032441244
207	0xbdc59742	-0.09647991
208	0xbd37adbc	-0.04484342
209	0xbd865fc0	-0.065612316
210	0x3c43a4c0	0.011941135
211	0x3d8b9664	0.06815794
212	0x3dc5a8c2	0.096513286
213	0xbdf415e0	-0.11918235
214	0x3ce3ead0	0.027821928
215	0xbc7dc620	-0.015489131
216	0x3dd9b14c	0.1062952
217	0x3d7dd3f4	0.061969712
218	0x3d80d7d4	0.06291166
219	0x3ddc8152	0.107668534
220	0xbde80164	-0.1132839
221	0xbde51afe	-0.11186789
222	0xbd0f2108	-0.03494361
223	0x3d954cfc	0.07290074
224	0xbd4c05c8	-0.0498102
225	0x3d179ebc	0.037016615
226	0x3d2fdc94	0.04293497
227	0xbdb71374	-0.08939257
228	0xbd4eac54	-0.050457314
229	0x3d3035e4	0.043020144
230	0xbb0398c0	-0.002008006
231	0x3ce6fe08	0.028197303
232	0xbdeeca76	-0.1165971
233	0xbda216b2	-0.07914485
234	0x3cee9a10	0.029126197
235	0x3dbae91c	0.09126493
236	0x3da77418	0.0817644
237	0xbd85597a	-0.06511207
238	0xbdf22c10	-0.118248105
239	0xbda412f0	-0.080114245
240	0xbde393d0	-0.11112177
241	0xbd9bee9e	-0.07613872
242	0xbcf7b720	-0.030238688
243	0x3d0b0814	0.03394325
244	0x3dc5bdaa	0.09655316
245	0xbdbde9a0	-0.09273076
246	0x3b8bb180	0.004263103
247	0x3dea57ae	0.11442505
248	0x3b478e00	0.0030449629
249	0x3d22b0b0	0.039719284
250	0xbc631520	-0.013860017
251	0x3d920c8a	0.07131298
252	0x3da315f0	0.079631686
253	0x3cbf0588	0.023318067
254	0x3dc8e50c	0.09809312
255	0xbc166300	-0.009178877

layer2.bias f4 [64]
0	0x3da19b08	0.07890898
1	0x3b8884e0	0.0041662306
2	0xbd9d85b0	-0.076915145
3	0x3df73d14	0.120721966
4	0x3da17780	0.07884121
5	0x3dde2a22	0.1084788
6	0x3d8bd560	0.068278074
7	0x3d59f1dc	0.05320917
8	0xbc02def0	-0.007987723
9	0x3d161250	0.036638558
10	0xbd3584e4	-0.044316188
11	0x3deea7b2	0.11653079
12	0xbd8511ae	-0.06497513
13	0x3d987904	0.07444957
14	0x3c7025b0	0.014657423
15	0xbdc72f1e	-0.09725784
16	0xbce64c68	-0.028112605
17	0x3d6932b8	0.056933135
18	0xbd95b62e	-0.07310139
19	0xbdce566e	-0.10075079
20	0x3cf1a768	0.02949877
21	0x3dd05aa2	0.10173537
22	0x3db565f2	0.08857335
23	0x3d6e484c	0.058174416
24	0x3a935e00	0.0011243224
25	0x3dbfe652	0.09370102
26	0xbdee1eb4	-0.1162695
27	0x3c653bb0	0.013991281
28	0xbd4c5e9c	-0.049894914
29	0x3d830462	0.0639732
30	0x3dbdcde0	0.09267783
31	0x3d65dbc0	0.056117773
32	0x3c778d70	0.015109405
33	0xbdb74a9c	-0.089497775
34	0xba13a500	-0.0005632192
35	0xbd337408	-0.043811828
36	0x3d52dec0	0.051481962
37	0xbda3f0ae	-0.080048904
38	0x3d789960	0.060693145
39	0x3d08fd18	0.033444494
40	0xbdf40902	-0.119157806
41	0x3cc2b820	0.023769438
42	0xbcc52020	-0.02406317
43	0x3d78b8e0	0.060723186
44	0xbd7dcd28	-0.06196323
45	0xbdd3f5fa	-0.10349651
46	0x3cc44dd8	0.0239629
47	0xbdec153e	-0.11527489
48	0xbcaf9620	-0.02143389
49	0xbce2b138	-0.027672395
50	0xbd65a788	-0.056067973
51	0x3b17fb00	0.002319038
52	0xbc974698	-0.018466279
53	0xbdd5552a	-0.104166344
54	0x3df2613e	0.11834954
55	0xbd5fb864	-0.054619208
56	0x3d186590	0.037206233
57	0x3d90712e	0.07052837
58	0x3cc41508	0.02393581
59	0xbdb4293a	-0.08796926
60	0xbc6b0d10	-0.014346376
61	0x3cbeff98	0.023315236
62	0xbd8ccbe0	-0.068748236
63	0x3db5b3f4	0.08872214

layer3.weight f4 [1, 64]
0	0x3da9bcb4	0.082879454
1	0xbd0ae91c	-0.033913717
2	0x3d7d4978	0.061837643
3	0x3ad7c480	0.001646176
4	0xbd2747a4	-0.040839806
5	0xbc0a0e00	-0.008426189
6	0xbd9f3358	-0.07773465
7	0xbd2cc968	-0.042184263
8	0xbd856012	-0.065124646
9	0xbbe68d80	-0.007035911
10	0x3d4f5cb4	0.050625518
11	0xbdb2a280	-0.08722401
12	0xbda8c7ea	-0.082412556
13	0x3d8eb93c	0.069689244
14	0x3d917f5a	0.071043685
15	0x3dea8ba8	0.114524186
16	0xbdd0e5b6	-0.10200064
17	0x3df5fb66	0.12010841
18	0xbae86600	-0.0017730594
19	0x3db3aa66	0.08772735
20	0xbd1760e8	-0.03695765
21	0x3de3acb2	0.111169234
22	0xbdef38e6	-0.116807744
23	0xbd10c008	-0.035339385
24	0xbc7ccac0	-0.015429199
25	0x3d9086aa	0.07056935
26	0x3d189440	0.037250757
27	0xbb7de300	-0.003874004
28	0xbde37d4a	-0.11107881
29	0xbde177e2	-0.11009194
30	0x3d883aa4	0.0665181
31	0xbdec1f18	-0.11529368
32	0xbdde3600	-0.108501434
33	0x3cb66638	0.022265539
34	0x3c2e3f60	0.010635227
35	0x3dbebfa4	0.09313896
36	0x3d59e70c	0.05319886
37	0x3d9d1258	0.076695144
38	0xbdd37674	-0.103253275
39	0x3d95af42	0.073088184
40	0x3d8b68d0	0.06807101
41	0x3d80532e	0.06265865
42	0x3dbb44c2	0.09143974
43	0x3cca93d0	0.024728686
44	0x3d5b722c	0.05357568
45	0x3d288a90	0.04114777
46	0xbd84be8e	-0.06481658
47	0xbdb7c4bc	-0.08973071
48	0xbd9f4b66	-0.07778053
49	0xbdf06bba	-0.11739297
50	0x3d501dec	0.050809786
51	0xbdffac40	-0.12484026
52	0x3d5c7310	0.05382067
53	0x3dc6ee40	0.09713411
54	0x3d46f39c	0.048572168
55	0x3d92f2e0	0.07175231
56	0x3dfe2dc4	0.12411073
57	0x3d1f09a0	0.03882754
58	0x3d56da8c	0.052454516
59	0xbd3f0bb0	-0.046642005
60	0xbd8ee8dc	-0.06978008
61	0x3d9d7cd8	0.07689828
62	0xbdcd5fc8	-0.100280344
63	0xbdbc0d9a	-0.09182282
