ppo_critic.pth (torch, 19799 bytes, 5 tensors)

layer1.weight f4 [64, 3]
00000000: eca0 3c3e 4584 b5be 54d0 fdbe 2dc8 00bf
00000010: cd30 a13e 028c 3d3f c817 1abf 67eb 3dbf
00000020: b6a9 02bf dfb2 47be 43ac 26bf 7b33 23bf
00000030: d661 d3be 9cac ae3e 1905 8fbe b07a 7b3e
00000040: aea4 17bf f62b d43e 3701 983e b27f 26bf
00000050: 09f0 bbbe 867b 9e3e 638e 9bbe e634 76be
00000060: 4a6b 94be 4444 233f 54d7 8c3e 2eb2 4a3e
00000070: 0d56 43bf 258d 2fbf dc85 6cbe 8927 0bbf
00000080: 1261 483f 1366 933e abb4 033e 518f 2cbf
00000090: d486 2ebf 0ca6 d9be 63a5 9b3e 1962 06be
000000a0: ec45 303f 38f0 39bf 32d7 b0be 63dc 143f
000000b0: 632b a1be b620 8ebe 642e b7be e89f cdbe
000000c0: 9768 9f3d 6ebc 7abe c19e eb3e 33da 84be
000000d0: 4819 2dbf 1a20 963e a792 a0be a722 30bf
000000e0: 8664 2d3f 07a3 9cbd f08c e0bd 89de c13e
000000f0: 66bb 483e e085 6a3d fc6b 0a3f e414 a9be
00000100: 8961 24bf 6a3c 86be 3e95 a8be 1639 03bf
00000110: 2e76 33bf f2d1 04be e4d4 31bf c6b8 eabe
00000120: b6ea cebd c082 4c3f 44e3 c7be 4711 06bf
00000130: 7232 31bf 37e6 483f feb1 9bbe 9632 f13e
00000140: 7aab 8b3e 79f7 893b 23b5 a6be 8272 e53e
00000150: 6972 9fbe 991c c33e 8877 08bf 4c80 12bf
00000160: 8fe4 323f 5870 77be ab1f c0be 4616 d2be
00000170: 1579 16bf 5643 293d 2520 1fbf 33bd 16bf
00000180: 5e1c c5bd 81ed 963e 2626 a0be 9104 6dbe
00000190: b02a 163f a109 db3e 5a90 f3bd fef0 45bf
000001a0: 5ee0 b53e 02a9 e83e 2d31 463f 0e20 bebe
000001b0: 992a e8be 6120 b0be 42cd 95be 9ec1 18bf
000001c0: b1da 25bf d5df 143f 2382 98be 0e6d 1cbf
000001d0: da35 963e 3e91 dabe 440a 303f ae47 cb3e
000001e0: b503 2abe a557 e73e c03a 103f 47a5 23be
000001f0: 2946 e5be 504c b3be 6016 323d f952 b8be
00000200: fa78 2d3f 17cd bf3e 0b24 143f 6065 0abf
00000210: c440 26be a107 09bf 9ca0 053f e4ee 90be
00000220: 4719 f9bd 13db 2bbf 981f aa3c 3857 00bf
00000230: 9eb5 1e3f 6c52 1fbf a222 2b3f ebfe 62be
00000240: 97df 143e f0db f6bd e391 363f b88a 9dbe
00000250: 6258 afbe 9134 3abf e00e 0a3f ce1b 273f
00000260: 41b2 88be 7e98 723d 92be 1abf e0aa 25bf
00000270: 0e12 9abe d539 283f d5a1 03be 050f 98be
00000280: 8381 1f3f 0580 853e af62 75be 6052 01bf
00000290: f447 f13e 9451 07be 045b b7be 1f35 7abe
000002a0: 0865 08bf b071 b2be 2716 97be 073f 1a3f
000002b0: c3c3 07bf 139c 81be 3dd3 bc3e 0c59 29bf
000002c0: 1abb 38bf 61e5 ad3c 7953 1d3f 321c 163f
000002d0: a94e 24bf 6be0 fd3e b16f fbbd 32f4 893e
000002e0: 1add 20be fc28 5e3e 5c5a b5bd 06c7 3cbf
000002f0: 673d 1a3f d632 13bf b4b7 acbc 17a5 1a3f
0.18420762 -0.35452476 -0.49573004 -0.50305444 0.31482545 0.7404176 -0.6019254 -0.7418732
-0.5104021 -0.19501828 -0.651066 -0.6375043 -0.4128558 0.34116066 -0.27933577 0.2455852
-0.59235656 0.4143979 0.29688427 -0.650386 -0.3670657 0.30953616 -0.3038207 -0.24043617
-0.28988105 0.6377604 0.27508032 0.19794533 -0.7630318 -0.68574744 -0.23097938 -0.543572
0.7827312 0.28788814 0.12861888 -0.67406183 -0.6817448 -0.42509496 0.30399618 -0.13123359
0.6885669 -0.7263217 -0.3453918 0.58148783 -0.31478414 -0.2775933 -0.3577758 -0.4016106
0.07783621 -0.24485943 0.46019557 -0.25947723 -0.676167 0.29321367 -0.31361887 -0.68802875
0.6773151 -0.076482825 -0.10964382 0.37865093 0.19602737 0.05725658 0.5407102 -0.3302375
-0.64211327 -0.26217967 -0.32926363 -0.5125898 -0.701022 -0.12970713 -0.6946547 -0.45844096
-0.10103361 0.7988701 -0.39040577 -0.52370113 -0.692176 0.7847628 -0.30409235 0.47108907
0.27279264 0.0042104092 -0.3256007 0.44813925 -0.31141976 0.38107756 -0.5330739 -0.57227015
0.6988 -0.2416395 -0.3752416 -0.41032618 -0.58778507 0.041323982 -0.62158424 -0.58882445
-0.09624551 0.29478076 -0.31279105 -0.23146273 0.58658886 0.42780784 -0.11892767 -0.7732085
0.3552274 0.45441443 0.77418786 -0.3713383 -0.45345 -0.34399703 -0.29258162 -0.59670436
-0.6478682 0.5815404 -0.29786786 -0.61103904 0.2933796 -0.42688936 0.68765664 0.39703125
-0.16602977 0.45184055 0.56339645 -0.15981017 -0.4478009 -0.3501916 0.04347837 -0.36000803
0.6776272 0.3746116 0.578675 -0.54060936 -0.16235644 -0.53527266 0.52198195 -0.2830726
-0.121630244 -0.67131156 0.020767018 -0.50133085 0.61995876 -0.6223514 0.6684972 -0.22167556
0.14538418 -0.120536685 0.71316355 -0.30769897 -0.34247118 -0.7273646 0.5392895 0.652768
-0.26698497 0.05922746 -0.6044704 -0.6471386 -0.300919 0.65713245 -0.12854703 -0.2969896
0.62306994 0.26074234 -0.23963426 -0.5051632 0.47125208 -0.13214713 -0.35811627 -0.24434327
-0.5327916 -0.34852362 -0.29509088 0.6025242 -0.53033084 -0.25314388 0.36879912 -0.661515
-0.72160494 0.02122754 0.61455494 0.5863677 -0.64182526 0.4958528 -0.12277163 0.2694412
-0.15709344 0.21695322 -0.08855125 -0.73741186 0.6024994 -0.57499444 -0.02108369 0.6040816

layer1.bias f4 [64]
00000000: 8218 413f cca0 0e3f b238 f23e 52dd 093e
00000010: 4b68 a33e 6af9 4d3e fbf0 2d3f 0e40 d03e
00000020: d6a3 663e f9e4 e73e fbd7 aa3d e187 9cbe
00000030: a332 df3e 9022 483f b294 a13e a52a 76be
00000040: f240 6cbe 4bbf 163e d3e7 103f ea76 2e3f
00000050: 9e0a 913e d4cc 59be 3acb 113f 9d3c 2e3f
00000060: 0526 1d3f 5c45 2dbd 9159 903b b211 803e
00000070: edb1 33bd d776 70be 6eef 81be bfff 70be
00000080: c661 283f ceff 863e 385a 843e 6be9 703e
00000090: 1cce e43e 4d50 123f f4c3 d83d 2ccf de3e
000000a0: 6c26 f63e 2b3e c83e 3d6e 9a3e aa03 ae3e
000000b0: f685 98be 3ddc 9f3e dc71 0a3f 2642 e339
000000c0: 2097 823e e95a 7bbc 8988 abbd 49e4 01be
000000d0: 7fe2 023f c96f 0cbe 4cab 82be 6175 d53d
000000e0: 0f24 77bd c50d d8bd 2ad2 633d 6604 b6bd
000000f0: 48ff 233f 4042 3d3f ce18 133f 42d0 233e
0.7542802 0.55714107 0.4730888 0.13463333 0.31915507 0.20114675 0.6794583 0.4067387
0.22523436 0.4529188 0.08341976 -0.30572417 0.4359332 0.7817774 0.31558758 -0.24039705
-0.2307165 0.1472141 0.56603736 0.681502 0.28328413 -0.21269542 0.56950724 0.6806124
0.6138614 -0.042302474 0.0044052084 0.250135 -0.043870855 -0.23482834 -0.25377983 -0.2353506
0.6577419 0.26367038 0.2585008 0.23526542 0.446885 0.5715378 0.1058425 0.43517435
0.4807619 0.3910993 0.3016223 0.3398717 -0.29789704 0.31222716 0.54079986 0.00043346098
0.25505924 -0.015341499 -0.083756514 -0.1268474 0.51126856 -0.13714518 -0.25521314 0.10422779
-0.060337123 -0.10549501 0.05562035 -0.08887558 0.64061403 0.73929214 0.57459724 0.15997413

layer2.weight f4 [64, 64]
00000000: 4867 883e 8dde 903e 5bbf 6d3e 1df2 933e
00000010: 89bd 983e f5dd 203e 6574 a13e f290 403e
00000020: 9ba0 c53d 0b14 253e a8ff 8b3e b387 c03d
00000030: b11a 8c3e e2ea 0f3e 6e48 1b3e 96f9 b33d
00000040: 18eb 943e 678f 4c3e 753e 4b3e 5bd3 9f3e
00000050: d777 473e 2559 ac3e c18a fe3d 3b56 203e
00000060: 9d0b 613e 01bf 8a3e 8c63 0b3e 4b0e a03e
00000070: e8c2 263e dee6 8f3e 3a46 583e 65ad 963e
00000080: 32e5 2d3e 5dc9 e03d 5315 723e 6320 673e
00000090: 5d46 5a3e 96f2 453e a34b d63d ae40 523e
000000a0: b7a7 8a3e 4808 ab3d d1d2 853e 7962 433e
000000b0: 3f72 0d3e a93e 4d3e a520 1b3e 365d 2f3e
000000c0: 2c00 873e 8105 1b3e 99c2 193e 69ab 423e
000000d0: 441b 5b3e 3ce5 ae3e 2521 063e 1d86 463e
000000e0: 893d 6e3e 3916 2d3e 52b7 933e 2b45 5d3e
000000f0: d9a7 133e 5ad3 983e 8eff 943e 0f9b 623e
00000100: 969d 953d cbea 623e 24e3 533e 906f e23d
00000110: 6612 763e 4276 4e3e 0dd4 b73d 7c78 853e
00000120: 716b 023e b421 e33d b07f 473e a751 5b3d
00000130: 4ea9 c13d 95db fc3d 1466 203e 1d25 a13e
00000140: 95a7 ab3d 2676 cc3d c9b9 fe3d c0e8 8f3e
00000150: 2ea7 5e3e b6a1 f23d d72c 483e b9c1 943e
00000160: 5bb4 5f3e 1b20 683e 28e7 723e c6b8 383e
00000170: 17a3 963e 5099 953e f894 313e 8f35 043e
00000180: 8e24 033e 29aa 7e3e e9c9 a03e 201f d03d
00000190: 5702 683e 56d5 7c3e d095 903e 0078 403e
000001a0: 5d86 973d 5fe2 d63d 8678 d73d b6d2 623e
000001b0: 0cd8 343e 8414 873e 1330 e33d 09fd 033e
000001c0: db7a 703e 798e 3c3e 78b3 973e 2358 033e
000001d0: f7b0 5a3e cff0 233e 7307 693e 47fa 6b3e
000001e0: 63dc 713e eaad c03d 7ae4 8b3d 8a02 043e
000001f0: 2619 963e aa63 9d3e d00d 693e 6975 613e
00000200: 23f6 c43d 7a35 9abc 3011 62bc d004 b43c
00000210: afc7 5c3d e680 c5bd 0e71 5cbd e220 b23c
00000220: 3faa 09bc 345b 0bbd a0e0 e4bd b0c8 133d
00000230: 7ca5 c7bd 3023 e13d eb28 b43d 38ed f1bd
00000240: 385b c53c d0b5 4d3d ce53 bfbd e3e9 d93d
00000250: 853a e2bc b8f2 b63d acac dbbd 6f2e 773c
00000260: dc5a 523c ec8c 633d 78f8 363d fb9a 003d
00000270: e8ab 95bd 786b 7dbd a2e2 dd3d 9c09 733d
00000280: 1fda aebd cb09 2c3d 26b4 8dbd 2bd6 36bd
00000290: 5c3b d7bd f074 42bd 60a1 d33c 8cb3 673b
000002a0: 6a95 65bd b069 2e3d 0dbc fcbb 0258 b7bd
000002b0: d84d f4bc 5a97 a23c 481a d83d 3443 aabd
000002c0: abcf 24bd e0dd 51bc 9527 84bc 84ae 59bd
000002d0: 48d2 adbd 5082 433d b6aa 84bd 1866 5abd
000002e0: d269 8c3d 1453 e8bd 4e1e eabd 902e a33d
000002f0: 7c6d 04bd 34ae af3b d6d0 aabd 583f 32bd
00000300: 417d 1e3d a423 efbd c552 943d 4fff cbbd
00000310: f2df 22bd 1157 943d c988 c53d 1159 413c
00000320: 6d24 d0bc 0bab 133d ca0b 763d cd58 aebd
00000330: 5792 a43d 0a29 55bc 2fd5 85bc 9038 1b3d
00000340: dbe8 4bbd e838 2b3c 2b79 b4bc d425 b0bb
00000350: 74ab 3ebd eee2 ba3d e026 f1bd 2efd 85bc
00000360: c883 afbd d5e4 f1bd 5efa c2bc bae3 f53c
00000370: f578 7c3d 867c 14bd 2ed7 843d 46cb c0bd
00000380: 3877 83bd b00f 26bd 1cd8 513d bffc 823d
00000390: 3824 533d cea4 edbd d4ad e6bc c14f cc3d
000003a0: ee8d e0bd 8b55 10bd 96ca 503c 1d6e be3d
000003b0: d388 303d 8669 7bbd b23a a1bd 9800 a13d
000003c0: 7ed9 c73d f14a 06be d8b8 5bbd 783a 8e3d
000003d0: 5c00 5c3d 89b6 e4bd f152 d93d 9bec 34bd
000003e0: 9720 f8bd 8f12 24be 2280 013d f8fa 803c
000003f0: 6f15 25bd d210 79bd 782f d9bd d4bb 993d
0.26641297 0.28294793 0.23217528 0.28895655 0.29832104 0.1570967 0.31534114 0.18805292
0.09649774 0.16120927 0.27343488 0.094008826 0.27364114 0.14054444 0.15164348 0.08787839
0.29085612 0.19976579 0.19848044 0.3121594 0.19479309 0.33661762 0.12428809 0.15657894
0.21977086 0.2709885 0.13612193 0.31260905 0.16285288 0.28105825 0.2112054 0.29429165
0.16981962 0.10975907 0.23640947 0.22570948 0.21315904 0.1933082 0.10463645 0.20532486
0.2708108 0.08351189 0.26137403 0.19080533 0.13813113 0.20043434 0.15149172 0.17125401
0.2636732 0.15138818 0.1501564 0.190107 0.2139712 0.34159267 0.13098581 0.19387098
0.23265661 0.16903009 0.288508 0.21608417 0.14419498 0.29848748 0.29101223 0.22129463
0.07305448 0.22159879 0.20692116 0.11056435 0.24030456 0.201623 0.08975992 0.26068485
0.12736298 0.11090413 0.19482303 0.053544667 0.094561204 0.123465694 0.1566394 0.31473628
0.08381573 0.099834725 0.124377795 0.28107262 0.21743461 0.1184725 0.19548355 0.2905405
0.21846144 0.22668497 0.23720992 0.18039235 0.29421303 0.2921853 0.17341983 0.12911056
0.12806913 0.24869598 0.31404045 0.101621866 0.22657143 0.24690756 0.28239298 0.18795776
0.07398675 0.104923956 0.10521035 0.22150692 0.1766054 0.2638284 0.11093154 0.12889494
0.23484366 0.18413724 0.2962911 0.1282659 0.21356569 0.1600983 0.22756748 0.23044692
0.23619227 0.094081715 0.06830688 0.12891594 0.29316062 0.307401 0.22759175 0.22017445
0.09617259 -0.018824328 -0.013798043 0.021974951 0.05390137 -0.09643726 -0.053818755 0.021744195
-0.008402406 -0.034022525 -0.11175656 0.036080062 -0.097483605 0.109930396 0.08796867 -0.11812824
0.024091348 0.050222218 -0.09342156 0.106403135 -0.027615795 0.08933014 -0.10726294 0.015086754
0.012839045 0.055554315 0.044670552 0.0313978 -0.07308179 -0.06187007 0.108342424 0.059335336
-0.08537697 0.042001527 -0.06919126 -0.04463784 -0.10509369 -0.0474748 0.025833786 0.003535482
-0.056050695 0.04258126 -0.007712847 -0.08952333 -0.029822275 0.01984756 0.10551888 -0.08313599
-0.04023711 -0.012809247 -0.016132155 -0.053144947 -0.084873736 0.047731698 -0.06477873 -0.05332002
0.06856121 -0.11343971 -0.114315614 0.079678655 -0.032330975 0.005361343 -0.083406135 -0.04351744
0.03869367 -0.1167672 0.072423495 -0.099608056 -0.039764352 0.07243169 0.0964523 0.01180102
-0.025407994 0.03605179 0.060069837 -0.08513031 0.080357246 -0.013010273 -0.016337005 0.03789574
-0.049782615 0.010450579 -0.022030434 -0.005375603 -0.04655023 0.09125315 -0.11774993 -0.016356077
-0.08570057 -0.11811224 -0.023801025 0.030015815 0.06163879 -0.036251567 0.06486355 -0.09413771
-0.064192235 -0.040542305 0.05123149 0.06395864 0.051548213 -0.116036996 -0.02815906 0.09976149
-0.10964571 -0.03523783 0.012743613 0.09298346 0.043099236 -0.061379932 -0.07872523 0.078614414
0.0975828 -0.13114525 -0.053643078 0.06944746 0.05371128 -0.11167628 0.10611523 -0.044170957
-0.12115591 -0.16022705 0.031616338 0.015744671 -0.040303644 -0.060807057 -0.10604757 0.075065285

layer2.bias f4 [64]
00000000: 7976 9d3d 0d4b 863d ced8 a2bd b0ce 6c3d
00000010: 588e 543e 67bb fd3c 4d22 6d3e 3763 3e3e
00000020: 7def 9d3d ca02 04bd c04f ddbd fafa 253e
00000030: 49e3 353e ac72 9abd 6a00 4c3e 5102 c4bd
00000040: e5a0 d1bb c8e3 0f3d 2098 b23d e368 083d
00000050: dccc 46bd e442 413e fade 82bc d1a0 003e
00000060: dccc df3d 1615 e13d 6800 e33d e6ac 813e
00000070: 616a 453d 2f9e 993d c430 a9bd 8573 f5bc
00000080: cd50 943e f432 363e 8bc8 00bd a36b 773e
00000090: 2c70 893d aa84 5c3c 578c de3d 43a0 5c3e
000000a0: 3dbc 093e de95 7c3e 03fb d13d 1c47 1f3e
000000b0: 7111 833d b9d3 5cbd 1d2c 8d3e 3bde 973e
000000c0: 1113 543e b978 863e aaf8 a9bd e96d 96bd
000000d0: 8494 0b3d 76fe 143e b9b2 ec3d cb28 5bbc
000000e0: 74f2 c4bd 93f3 913d 082a c1bc 4608 edbd
000000f0: 80cf 933d 6b83 23bd 0f1d 903e 8703 9a3d
0.076886125 0.065572836 -0.079515085 0.0578143 0.20757425 0.03097315 0.23157616 0.18592535
0.077116944 -0.032229222 -0.10806227 0.16209021 0.17762484 -0.07541403 0.19922033 -0.09570754
-0.006397354 0.03512934 0.08720422 0.033303153 -0.048535213 0.18873173 -0.015975464 0.12561347
0.10927746 0.1099035 0.11084062 0.25327224 0.048197154 0.07500874 -0.082612544 -0.02996231
0.28967896 0.17792875 -0.031441253 0.24162154 0.06710848 0.013459364 0.108666115 0.2154551
0.13450713 0.24666545 0.10252955 0.1555447 0.06399811 -0.053912852 0.27572718 0.29661736
0.20710398 0.2626398 -0.08299382 -0.073451824 0.034077182 0.14550194 0.11557526 -0.013376425
-0.09616557 0.07126536 -0.023579612 -0.11573844 0.07217312 -0.03992025 0.2814717 0.07520204

layer3.weight f4 [1, 64]
00000000: 7fe3 56be 7698 9fbe dbfc bf3d be5e 803d
00000010: 82e5 95be 802a ec3c 38a3 7cbe c619 91be
00000020: a083 98be e548 8d3c 0c8e 843b a31f 75be
00000030: f11c 95be 9e64 a5bd b50f 87be 3e36 7e3d
00000040: 8ca3 1f3d 685e 87bd 5455 d33d d442 ac3d
00000050: e4c0 063d d11b 9dbe b1a7 393c f1e7 63be
00000060: 0bed abbe a2b3 a7be 05cd 9cbe 99e2 5ebe
00000070: 0bfa 9dbe fa03 4fbe d2c7 1d3d 0eaa 5f3d
00000080: b9b3 68be a304 77be 76ba a43c 60cb 5bbe
00000090: 6874 8bbe b532 0c3a 0bb3 62be c836 92be
000000a0: 6780 a7be 6530 82be 088c 64be 0374 acbe
000000b0: 2583 cd3d 6100 883a 4af1 95be 84bc 6bbe
000000c0: 231e 8dbe c938 82be 4619 cf3d 6b6b 093d
000000d0: 0871 e53d 02a0 97be 168a 8bbe 93a2 623c
000000e0: 82eb b73d c7a7 a8be c437 0fbd 8bc4 403d
000000f0: 62a4 723d 4bb7 d33d 04f1 8cbe fe31 68be
-0.2098522 -0.31171006 0.093744 0.06268071 -0.29276663 0.02882886 -0.24671638 -0.28339976
-0.29787922 0.017246673 0.0040452536 -0.2393785 -0.29123643 -0.08075832 -0.2637917 0.062063448
0.03897433 -0.066098034 0.103190094 0.08411184 0.0328988 -0.30685285 0.011331485 -0.22256447
-0.33579287 -0.32754236 -0.30625167 -0.21766128 -0.3085483 -0.2021636 0.03852064 0.054605536
-0.22724809 -0.24122863 0.020108443 -0.214643 -0.27237248 0.0005348132 -0.22138612 -0.2855742
-0.3271515 -0.25427547 -0.22319043 -0.3368226 0.100347795 0.001037609 -0.2928565 -0.23021132
-0.27562055 -0.2543395 0.101122424 0.033549707 0.112031996 -0.29614264 -0.2725379 0.013832706
0.089804664 -0.32940504 -0.03496529 0.047062438 0.0592388 0.10337695 -0.2752763 -0.2267532
