ppo_actor.pth (torch, 19799 bytes, 5 tensors)

layer1.weight f4 [64, 3]
000000 9e 09 3a be 1b 4e ec 3d 8b a9 0c bf d0 9f 88 be
       -0.18167731 0.11538335 -0.549462 -0.26684427
000010 8f 89 1f 3c 7e d8 cd be e5 b1 1d be fb 22 df 3e
       0.009737386 -0.40204233 -0.15399893 0.43581375
000020 8b e8 dd 3b 2e 2a 09 bf 4b 73 24 be ff 47 f5 be
       0.006772106 -0.53579986 -0.16059606 -0.4790649
000030 4d 64 36 3e 31 2e 87 be 5c 0e 88 3e 04 ab b7 3c
       0.17811699 -0.2640243 0.26573455 0.022420414
000040 f0 d2 02 bf b2 a2 06 be 66 c8 37 3e f7 58 f8 bc
       -0.51103115 -0.13148001 0.1794754 -0.03031586
000050 d7 d8 12 bf d3 55 91 be 99 7c 86 3e 9d f6 05 bf
       -0.5736212 -0.2838579 0.26266935 -0.52329427
000060 5c 1c 0f 3e 05 5f d2 be 83 66 08 bf 24 3b 13 3f
       0.13975662 -0.4108812 -0.5328142 0.57512116
000070 4e 28 88 3e b5 f2 e4 be 54 40 bc 3e 05 1d 83 3e
       0.2659325 -0.4471642 0.36767828 0.25608078
000080 e6 99 38 3e c6 2a c2 be b5 63 cb 3d b5 27 a9 bb
       0.18027458 -0.3792326 0.09931127 -0.005162204
000090 02 27 3e be 66 bd cc 3e 54 10 fe be 42 47 0d 3f
       -0.18569568 0.3998825 -0.49621832 0.55186856
0000a0 05 c4 f6 3e c2 db a6 3e 86 21 0c 3f 67 ac e1 3d
       0.48196426 0.32589537 0.5473865 0.11019211
0000b0 0a ca d4 be c6 9c 06 bf 55 29 d8 be d9 a2 05 bf
       -0.41560394 -0.5258297 -0.42219034 -0.5220161
0000c0 10 4b fb 3e dd 54 b0 be a3 40 ec be ab a9 00 3f
       0.49080706 -0.34439746 -0.46143064 0.5025889
0000d0 15 fc 5d 3c c7 26 bd be d8 c9 de 3e 76 c0 a5 3e
       0.013548871 -0.36943647 0.4351337 0.323734
0000e0 e2 6e a8 be 99 ca 2d be 97 b1 b9 bd ca a0 70 3d
       -0.32897097 -0.16971816 -0.09067076 0.05874709
0000f0 7d 82 99 be 87 73 cf 3d c2 a5 59 3d 90 76 bd be
       -0.29982367 0.10129457 0.053136595 -0.37004519
000100 2a 47 19 3f 39 5e 28 be fa 1c 25 be e1 1e c2 3e
       0.5987421 -0.16442193 -0.16124335 0.37914184
000110 39 3c a4 3e 4f 43 a0 be 9d ce 16 3f 72 66 b6 3e
       0.32077196 -0.31301352 0.58909017 0.35625035
000120 0f 2e 00 bf 39 f9 0c 3f 33 52 2f 3d b4 c5 01 bf
       -0.5007028 0.55067784 0.042803 -0.50692296
000130 06 52 e1 bd 9a 7d dc 3d c0 e1 29 bd ec 61 01 3e
       -0.11001973 0.10766144 -0.041475058 0.1263501
000140 18 f0 05 bd 41 36 84 3d a6 ee 07 bf fb f7 d8 be
       -0.032699674 0.064556606 -0.53098524 -0.42376694
000150 c3 ad dc be 72 13 e4 bd c6 df 90 3e b5 85 ad 3d
       -0.4310132 -0.111365214 0.28295726 0.08472768
000160 2d 2e c5 3e b0 49 d0 3e 70 c6 19 3e 1b e7 8e bd
       0.38511792 0.4068122 0.15017104 -0.069776736
000170 b7 9a ad 3c e7 ff ec 3e 54 47 cb 3e 53 d4 bd 3e
       0.021191938 0.46288988 0.39702857 0.37076053
000180 32 d7 0b 3f e0 17 3e be 4e 09 dc 3e 7c c3 98 be
       0.54625237 -0.18563795 0.4297585 -0.29836643
000190 d6 00 71 3e 1b 1c b6 bd 2e 41 15 3f 2e 54 ca 3e
       0.23535475 -0.088920794 0.5830258 0.3951735
0001a0 ad 19 c9 be fc 22 b2 be 81 99 99 3e 82 44 08 3e
       -0.39277402 -0.34792316 0.29999927 0.13307384
0001b0 33 8e d6 be 8f 96 d2 3e b9 f6 af be 27 b4 97 3c
       -0.41905364 0.41130492 -0.34367922 0.01851852
0001c0 36 8e 93 3e 63 c5 95 be f8 b0 c6 3e 20 47 c5 be
       0.28819436 -0.29252157 0.3880689 -0.38530827
0001d0 aa 85 f6 3e 00 29 0d 3e 8d b1 f9 be 86 a2 d5 3e
       0.48148853 0.13785172 -0.48768273 0.41725558
0001e0 64 2e e6 3e 32 ba 4a 3e c6 96 03 3d e6 12 ef be
       0.44957268 0.1979759 0.03212621 -0.46694106
0001f0 30 fb 00 3f fc bf f2 be c6 27 66 3e f3 b1 52 bd
       0.5038328 -0.47412097 0.2247611 -0.051439237
000200 57 f5 66 be 43 42 86 be 72 a2 ab be a8 1f f8 be
       -0.22554527 -0.2622243 -0.33522373 -0.48461652
000210 d5 19 30 3e 7f a1 18 3f 7f 76 ee bd dc 7c fb 3d
       0.17197354 0.59621423 -0.11643695 0.122796744
000220 fa 54 f3 be 30 ed 13 bf 1d 59 8d 3e 7f 3c 1a 3f
       -0.4752577 -0.57783794 0.2760705 0.6024856
000230 ac 8e ef 3e 51 88 9e 3e 41 35 e8 3c 28 b9 a4 3d
       0.46788538 0.30963376 0.028345706 0.08043128
000240 f7 42 51 be c5 5e f4 3e 03 b6 cc 3e 3f 20 47 3e
       -0.20435701 0.47728553 0.39982614 0.19445895
000250 ef e4 16 bf 51 5f 10 bf 4b 46 0c 3f ef 8d 8b bd
       -0.58943075 -0.5639544 0.5479476 -0.06814181
000260 46 0b 9c 3e 1a d8 0b bf d8 02 28 3e d6 e5 da 3d
       0.3047735 -0.5462662 0.16407335 0.10688369
000270 6e 98 97 3e 75 80 bb be 28 fd 91 3e d8 72 03 be
       0.29608482 -0.36621442 0.28513455 -0.12836778
000280 b2 57 82 3e 62 ed aa 3e 86 1e cc 3d 69 28 16 3e
       0.2545753 0.33384234 0.099667594 0.14663853
000290 c5 55 c4 be 5c 44 05 3d b6 48 95 be 14 b9 cd 3b
       -0.38346687 0.032535896 -0.29157037 0.0062781665
0002a0 29 3b c3 be d8 0a 03 bf 0f 31 66 3e 94 c3 a4 be
       -0.38131073 -0.5118842 0.22479652 -0.32180464
0002b0 2a 34 96 be 66 20 02 3e 2e 71 a5 3e 42 31 83 be
       -0.29336673 0.12707672 0.32312912 -0.25623518
0002c0 e9 00 00 be ae 2a a3 be 27 8a c9 3e 55 09 b1 be
       -0.12500347 -0.318685 0.39363214 -0.34577432
0002d0 ed 83 dd be 31 74 07 be f8 73 ab 3e 0a cf cc 3e
       -0.43264714 -0.13227917 0.33486915 0.40001708
0002e0 d0 70 69 3e e5 89 d5 3e 8d 1a bb be 32 43 b1 3e
       0.22796941 0.41706768 -0.36543694 0.34621578
0002f0 4f 60 e5 3e a7 a7 15 3e 0d 0c 4d 3e 3d fe f1 3e
       0.4480004 0.14614736 0.20024128 0.4726428

layer1.bias f4 [64]
000000 da 67 32 3d 6f 41 99 be 49 5f c5 bc 18 6e 48 be
       0.04355607 -0.29932734 -0.024093287 -0.19573247
000010 ce aa fa 3e 8e d2 08 3f 3c fb e0 3e ed 4a 3e 3e
       0.4895844 0.5344628 0.43941677 0.1858327
000020 6d 9a a9 be 75 37 fe 3e cf d1 3a be cb 7e 17 3c
       -0.3312563 0.49651685 -0.18244098 0.009246538
000030 62 ea 81 3d 25 21 06 3f 21 19 a8 be 96 68 05 be
       0.06343533 0.52394325 -0.32831672 -0.13028178
000040 fe b4 c2 bc a8 dd 43 be 7c 46 9f bd 0e af 9a be
       -0.023767944 -0.19127524 -0.07777116 -0.3021168
000050 d9 6a f4 3e 4f bc 85 be ce e8 f7 be 01 fc a0 be
       0.47737768 -0.2612023 -0.48419803 -0.31442264
000060 f5 6b dc 3e e1 cb 8b bd 7d 38 9b 3e 14 73 3f bd
       0.43051115 -0.06825996 0.30316535 -0.046740606
000070 ab 00 10 bf a5 fc 0f 3f 88 5f 00 bd f7 62 6d be
       -0.5625102 0.5624488 -0.031341106 -0.23182283
000080 d4 16 03 be 47 e1 2f 3e f7 d4 d5 3e c0 29 4e be
       -0.12801677 0.1717578 0.41764042 -0.20133114
000090 0e e2 85 be 38 f9 d7 3b be 52 f4 3d 74 03 ae 3d
       -0.2614903 0.0065909885 0.11929844 0.084967524
0000a0 61 b7 86 bd f7 dd df 3e 27 ed 4c be c6 f8 ba 3e
       -0.065779455 0.43724033 -0.20012341 0.36517924
0000b0 4b 1c 06 3f aa 5c 0d bf d1 f2 2f be 4b e7 9d 3e
       0.5238692 -0.5521952 -0.17182471 0.30840525
0000c0 ee cd 09 3f e1 db 17 3c 45 66 fb be 64 9a 29 3e
       0.5382985 0.009268732 -0.49101463 0.16562802
0000d0 9c 41 e0 3d 45 4e c6 3e 09 41 d8 3e bd ce 93 3e
       0.10950014 0.3873159 0.42237118 0.28868666
0000e0 f0 50 8c 3d 47 16 bf be aa de c1 be 00 4a cb 3e
       0.06851375 -0.37321684 -0.37865192 0.39704895
0000f0 0a bf f1 3e aa b2 b7 3d a2 88 02 3e b0 15 d5 be
       0.47216064 0.08969624 0.12747434 -0.4161811

layer2.weight f4 [64, 64]
000000 d6 77 a4 3d e8 a1 cf bc 64 cf 89 bd ee fb b0 bc
       0.080306694 -0.025345758 -0.0672901 -0.021604504
000010 44 31 0f bc 82 e2 f3 bd ef 58 2c bd 71 45 26 bd
       -0.008739773 -0.11908437 -0.042077 -0.04059357
000020 48 6e 32 3d 95 47 ea bd eb 12 fd bd 19 74 37 3c
       0.043562204 -0.114394344 -0.12357124 0.011197113
000030 5c 08 b0 bd 6d 32 22 3d 58 7a 68 bd 3c 29 20 bd
       -0.085953444 0.03959887 -0.0567573 -0.039101824
000040 73 26 d5 3d f0 c6 ea 3d bc 57 b5 bd 4c 59 ac 3c
       0.10407724 0.114637256 -0.08854625 0.021038674
000050 dd 99 49 bd 05 5f 1a 3d 38 a2 b1 bd 15 b0 97 bb
       -0.049219 0.037688274 -0.08673519 -0.004629145
000060 0d a1 01 3d 1c 39 9c 3d 49 ad b2 bd 42 69 8b 3d
       0.03164773 0.0762808 -0.08724458 0.06807186
000070 10 12 a5 3c 1d ff d6 bd 48 54 15 be 33 1f 01 3e
       0.020150214 -0.10497878 -0.14582932 0.12609558
000080 bd dc e6 bc 21 dc 15 3d 09 7b 68 3d 2f 42 f6 3d
       -0.028181428 0.036586884 0.05675796 0.12024342
000090 9a 6e eb 39 3a ff ae bd 83 c4 c4 3d 7f f6 ea bb
       0.00044905097 -0.08544774 0.09607794 -0.007170498
0000a0 17 4a d3 bd 32 bb 39 bc b0 8f 04 bc cf ee ee bd
       -0.10316866 -0.011336135 -0.008090898 -0.11666643
0000b0 9a 25 b6 bd 6c cb 27 3d b6 c8 3c 3d 07 15 e2 3d
       -0.08893891 0.040965483 0.04608985 0.11039167
0000c0 b7 f8 e6 bc 0c a1 3f bb a2 f8 8e 3a af b7 ef 3c
       -0.028194768 -0.0029240279 0.0010907839 0.029262392
0000d0 37 89 92 3d 96 b5 b1 3d e8 02 11 be 72 76 a2 bd
       0.07155078 0.08677213 -0.14161265 -0.07932748
0000e0 6b 63 8f 3d 72 c4 ae 3d 00 5c 67 3d f5 af d0 bc
       0.07001384 0.08533563 0.056484222 -0.025474528
0000f0 31 55 ca 3d e6 40 d4 ba 5b e0 d4 3c f9 c4 0b 3b
       0.0987953 -0.0016193658 0.025985887 0.0021327122
000100 80 59 9c ba 08 5e 7e bd f0 04 05 3c 2a 35 dc 3d
       -0.0011928529 -0.062101394 0.008118853 0.10752328
000110 d4 34 0b bd 50 aa 82 3c 34 a0 c9 bd e8 c8 7e 3d
       -0.033985928 0.015950352 -0.098450094 0.062203318
000120 92 cf ce 3d b0 4c 49 3d 50 f3 ea 3c 80 4d be 3b
       0.10098185 0.0491454 0.028680474 0.0058075786
000130 c0 4e c0 bc 92 1c 94 bd e8 11 46 3d 92 92 a0 bd
       -0.02347505 -0.07232012 0.04835692 -0.07840456
000140 7a 2a ce bd 00 c3 7b bd c6 e0 dc 3d 70 21 82 3d
       -0.100666955 -0.061465263 0.1078506 0.06354034
000150 58 0c cd bd 4c 36 87 bd 74 2b 27 3d ba 09 bf 3d
       -0.1001212 -0.06602153 0.040812925 0.09328027
000160 9c e6 63 3d f8 a5 ef bc 24 44 c9 bd 08 6c d7 3d
       0.055639848 -0.029253945 -0.0982745 0.10518652
000170 d2 d4 f4 bd b4 a9 57 bd ee b6 dc bd d8 41 2b 3d
       -0.11954655 -0.052652076 -0.107770786 0.04181084
000180 10 ca 79 bc 24 34 40 bd cc 3a 50 bd a0 df 42 3c
       -0.015245929 -0.046924725 -0.050837323 0.011894137
000190 60 9e 0c 3c de 0d f0 3d 12 e2 a4 bd 82 bb d2 bd
       0.008582681 0.11721395 -0.08050932 -0.102896705
0001a0 90 88 43 bd a6 98 8e bd 8e 66 e3 3d 0c 2f aa bd
       -0.047737658 -0.06962709 0.11103545 -0.08309755
0001b0 34 c6 09 bd d4 33 35 3d f4 23 fd bd 14 7a e2 3d
       -0.033636287 0.04423888 -0.12360373 0.11058441
0001c0 68 2f c9 bc f6 64 ad bd 72 62 92 bd 2e 0f 87 3d
       -0.024558738 -0.084665224 -0.07147683 0.06594692
0001d0 00 cb f6 3d 4a b2 8f 3d f8 57 c4 bd b4 05 8b 3d
       0.12050438 0.07016428 -0.09587091 0.06788197
0001e0 80 0d 9b 3c f0 e0 2e bd 7e 94 ca 3d 40 0c fd bb
       0.018927336 -0.042694986 0.09891604 -0.0077224076
0001f0 c0 93 b5 bb 48 32 f5 3d c0 e2 80 3b e8 12 2e 3d
       -0.005541295 0.11972481 0.0039332807 0.0424985
000200 35 28 bb bd 23 e3 b3 bd c6 6a 6d ba 9c 5e ce bd
       -0.09138528 -0.08783557 -0.0009056743 -0.10076639
000210 12 5e a1 3d 44 12 85 bd 01 99 8b bd ff 73 91 bd
       0.078792706 -0.064976245 -0.068162926 -0.071022026
000220 a2 a5 b3 3d c7 12 2e 3a 29 b9 c0 bd ca a6 ab 3d
       0.08771826 0.0006640371 -0.094103165 0.08381422
000230 61 40 b2 bd 59 a8 c3 bd fc 62 01 3e e3 50 d2 3d
       -0.087036856 -0.09553594 0.12635416 0.10269334
000240 f0 3f 89 bd 99 36 c0 3d 67 e0 0a bd d9 f2 fd 3d
       -0.06701648 0.09385414 -0.033905413 0.12399835
000250 8a 99 34 3d ab 4c a5 bc 3d 72 e6 bd 53 8e b8 bd
       0.04409174 -0.02017816 -0.11252258 -0.09011521
000260 4d 64 b3 bc ea 7d 8c 3d 89 96 38 bd b2 27 f4 3d
       -0.021898413 0.06859954 -0.045065437 0.11921634
000270 7a 6d 91 bd 0d cc 01 3e 1b 34 ec 3d 2d 3b ad 3d
       -0.07100959 0.12675495 0.11533376 0.084585525
000280 a1 c6 59 bd 90 fd 59 bc a9 b0 91 bc bb 5f 27 3d
       -0.053167943 -0.013305083 -0.017784433 0.04086278
000290 f6 a5 57 3d 61 80 22 bd c2 8a 1d bd 8b 0d c0 3d
       0.052648507 -0.039673213 -0.038462408 0.09377583
0002a0 db b8 44 bc d4 21 82 3d 97 ab fb 3b 11 f4 0e 3e
       -0.012006964 0.063541085 0.007680367 0.13960291
0002b0 06 fe dd bd 17 c2 68 3d c0 bd 6f ba 42 1e 8b bd
       -0.10839467 0.056825723 -0.00091454014 -0.067928806
0002c0 76 7b 19 3d f4 d3 30 bc a4 30 22 3d 17 a2 6e 3d
       0.037471257 -0.010792721 0.03959717 0.05826005
0002d0 6d ce b9 3d 06 88 1c bc c0 4d f1 3d 1c 68 b4 3d
       0.09072576 -0.009553915 0.11782408 0.0880892
0002e0 1f 10 48 3d bd 41 fc bc 32 3e 8d bc 6d a6 f0 3d
       0.0488435 -0.030793065 -0.017241571 0.11750493
0002f0 aa fa c5 bb a1 26 da 3d 20 bb 33 bc 60 a9 38 3c
       -0.0060418444 0.10651899 -0.010969907 0.011270851
000300 d3 79 e2 3d b7 18 9e bd 90 e7 75 3b 87 f0 c1 3c
       0.110583924 -0.07719558 0.0037522055 0.023674263
000310 0f 2c 25 bc 39 09 b2 bd e0 86 c0 3d 1c b6 95 bc
       -0.010081305 -0.08693165 0.09400725 -0.018275313
000320 81 ff 0a 3d 5b dc fa bd ac 4c 5d 3c 26 0a d4 bd
       0.033935074 -0.12249061 0.0135070495 -0.10353498
000330 8f be 30 bd 39 92 34 3c 1c 1e ad bd f4 55 5e bc
       -0.04315048 0.01102119 -0.084530085 -0.0135702975
000340 06 27 33 3d 84 da 7e bd aa 49 cf bd 58 cb c4 bc
       0.043738388 -0.06222011 -0.10121472 -0.024022743
000350 14 7a 73 3d 79 65 8f bc 4e 46 19 3d ea bb 90 bd
       0.059442595 -0.01750444 0.037420563 -0.07067092
000360 0b ab cc 3d af ee 9e bd 5e 0d b6 bc 74 dc dd bb
       0.09993561 -0.07760369 -0.02222317 -0.006770665
000370 80 05 2b bb c6 84 e8 bc 62 18 9e 3d 32 47 ab bc
       -0.0026095808 -0.028383624 0.077194944 -0.020907972
000380 90 2d 70 bc 30 76 91 bd ad b2 e5 3d 02 97 e3 bc
       -0.0146593 -0.071026206 0.1121572 -0.027781967
000390 0a 98 45 3d 0c e0 00 bc 75 84 4a 3c 2c c1 9a bd
       0.0482407 -0.007865917 0.012360682 -0.07556376
0003a0 af 50 13 3d e9 70 39 3c 2d d8 2e 3c dd bd 0f 3c
       0.035965618 0.011318424 0.0106716575 0.008773294
0003b0 93 aa ed bd 48 43 d1 bc 1f e8 26 bd 9e 8a 03 be
       -0.116048 -0.025544778 -0.04074871 -0.12845847
0003c0 31 5d b9 bd 94 df e6 bb 30 5e e2 bc f7 04 e6 bc
       -0.09050978 -0.0070456956 -0.027632803 -0.02807854
0003d0 98 4f 02 be b7 09 9e bc fb 44 e3 3d 8a 5e de bc
       -0.12725675 -0.019291742 0.11097141 -0.02714469
0003e0 fa bf a6 3c f5 2f 54 3b 9d 6b c4 bd 7e e6 5a 3d
       0.020355213 0.0032377217 -0.09590838 0.05344247
0003f0 71 6d 2f bd 82 1d c8 bd f8 8b 0d bd 6f f1 87 bd
       -0.04282898 -0.09771253 -0.034557313 -0.06637847

layer2.bias f4 [64]
000000 ad a5 76 bd 78 bf 45 3d b2 5f c7 bd f3 27 97 3d
       -0.060216594 0.048278302 -0.09735049 0.073806666
000010 15 ac 9a bb 43 e4 09 be 5d f7 32 3d 19 f8 ca bd
       -0.004720221 -0.13465981 0.043692935 -0.09910602
000020 ad b5 8f bd 90 37 9f 3c a3 a0 06 be 69 f0 38 3b
       -0.07017074 0.019435674 -0.13147216 0.0028219467
000030 89 93 c5 3d d4 1c b8 3d 1f 2d 09 bd 41 97 b5 bd
       0.09647281 0.089898735 -0.033490296 -0.0886674
000040 d5 f7 66 bc 50 01 90 3d a0 37 b3 3d b6 c8 cf bd
       -0.014097174 0.070315 0.08750844 -0.101457044
000050 2a 42 a5 3d a5 cd d6 3d 67 cc cd bd 08 1b 99 bd
       0.080692604 0.10488442 -0.10048752 -0.07475859
000060 68 ca dc bd 80 a8 fe bd 84 ac 7a bd 4f d7 bf 3d
       -0.107807934 -0.124344826 -0.06119968 0.09367239
000070 fb 92 b0 3b 44 bb a8 3d 19 d7 bf 3d ad e3 f0 bd
       0.005388615 0.08238843 0.093671985 -0.11762176
000080 06 3b ea bb b8 f6 fe 3c 51 84 e3 bc bc c6 40 3d
       -0.0071481494 0.031123504 -0.027773054 0.047064528
000090 21 33 00 3e 75 59 97 3d 90 e5 34 3d e2 3f c0 bc
       0.12519504 0.073901094 0.04416424 -0.023467962
0000a0 d8 85 1f 3d 6b 7d af 3d c9 eb 91 bd 8d 2a db 3c
       0.038946003 0.085688435 -0.071250506 0.026753688
0000b0 53 8f 23 3d cc 70 03 3e 2d 9d 4b bd a3 69 05 bb
       0.039931607 0.12835997 -0.04971044 -0.0020357154
0000c0 f1 72 b8 bd 1c 1a 01 bd 0f 69 16 bd 1d 84 0a bc
       -0.09006298 -0.03151904 -0.036721285 -0.00845435
0000d0 c6 7b f2 bd 40 b3 e9 bb 2d fb a6 bc 1a 2e 07 3d
       -0.11840014 -0.007131964 -0.020383442 0.03300295
0000e0 28 e6 8e bc 8e 3e c9 3c 3e cd 8c 3d 29 6c dd 3d
       -0.017443731 0.024565961 0.06875084 0.108116455
0000f0 61 d2 0e 3e 1b 3a 65 3d 10 eb d9 bd 2e 5d c3 3d
       0.1394744 0.055963617 -0.10640538 0.09539257

layer3.weight f4 [1, 64]
000000 a6 81 e4 3d 38 73 f9 bd 52 0c 00 bd 38 07 56 bc
       0.11157541 -0.12180179 -0.03126175 -0.0130632445
000010 c0 01 bd bd c1 6b 36 bb e5 db f7 3d 8c c2 d7 bd
       -0.092288494 -0.0027835222 0.121024884 -0.10535154
000020 04 91 f6 3d c4 e4 69 3d df d6 41 bd 96 d1 f7 bc
       0.12039378 0.057102934 -0.047324058 -0.030251306
000030 f9 3d e2 bd e4 41 86 bd 2b 25 04 3d 4d 8d 55 3d
       -0.110469766 -0.065555364 0.03226201 0.052136708
000040 f4 cb a7 3d eb af d6 3d 06 dd 61 bd 64 59 a4 b9
       0.08193198 0.104827724 -0.055142425 -0.0003134712
000050 35 e5 04 3d d2 f0 96 bd 46 37 5b 3c d6 88 e0 bd
       0.03244515 -0.073701516 0.013379877 -0.109635994
000060 1c 9d 2c bd 80 62 51 bc 96 6d 8a 3d 3f bf 94 bc
       -0.04214202 -0.012779832 0.06759183 -0.0181576
000070 aa 95 f8 bd a8 e5 e2 3c 62 b6 3c bd cb 31 ca bd
       -0.12137921 0.0276974 -0.04607237 -0.098727785
000080 c7 53 0a bc d4 02 d3 3d a3 d8 dd bd e9 3b cc 3d
       -0.008442826 0.10303274 -0.10832336 0.099723645
000090 d8 67 e7 3b ee 04 83 3d 89 2e a6 bd 8a 28 2f 3d
       0.0070619397 0.06397425 -0.081143446 0.04276327
0000a0 e3 38 8f 3d bc 0f 73 bd 44 a5 6d 3c 04 e3 4d 3c
       0.06993272 -0.059341177 0.014504734 0.012566332
0000b0 22 96 ad bd 19 a8 0d 3d 82 73 f3 3d b9 2d 41 3d
       -0.08475901 0.03458414 0.11887266 0.047162745
0000c0 13 e5 b1 3d ea 73 6e bd 5a da 78 bd 3d 0c 80 3d
       0.086862706 -0.058216013 -0.06075511 0.06252334
0000d0 0e 87 8f bd ca 64 8a bd c2 e5 a9 3d 7c 38 5b bd
       -0.070081815 -0.06757505 0.08295776 -0.053520665
0000e0 05 e6 b3 bd a6 37 dc 3d d8 c0 a9 bd fb 08 df bd
       -0.08784107 0.107528016 -0.08288735 -0.10890385
0000f0 90 82 df 3c d7 19 bc bd c4 77 b7 3d 80 21 59 bb
       0.027283937 -0.09184616 0.0895839 -0.003313154
