ppo_actor.pth (torch, 19799 bytes, 5 tensors)

layer1.weight f4 [64, 3]
-0.19087586 0.12154928 -0.5510885 -0.25779048 0.007832708 -0.40065238 -0.15683293 0.4425211
0.017871447 -0.543659 -0.15080485 -0.4802798 0.18475173 -0.28101274 0.2686346 0.035505924
-0.5265732 -0.11749057 0.17120764 -0.018059315 -0.57566905 -0.28714678 0.2714499 -0.52438796
0.1354001 -0.40024233 -0.53223115 0.5794361 0.25856847 -0.4439513 0.35997754 0.23962153
0.18602037 -0.37341943 0.10495429 -0.013858775 -0.18488508 0.3874283 -0.49354258 0.5376364
0.4897877 0.32098186 0.54043835 0.10493862 -0.4170017 -0.5228851 -0.39570332 -0.5195025
0.47241575 -0.3346628 -0.46346307 0.51170033 -0.00013134853 -0.3685924 0.45402685 0.30330935
-0.33001646 -0.17508146 -0.09125458 0.061854523 -0.3041298 0.11028371 0.04998806 -0.3761727
0.6028621 -0.15528964 -0.16172537 0.39389 0.31200597 -0.3333089 0.6032383 0.34939957
-0.5052891 0.5599282 0.052336287 -0.49604827 -0.11253063 0.09814701 -0.037790045 0.123453155
-0.03162211 0.06113922 -0.5262427 -0.42520946 -0.44058678 -0.0979703 0.27863133 0.07689038
0.38415492 0.40980944 0.12439676 -0.0689667 0.04550319 0.4593645 0.402662 0.3625749
0.53467077 -0.1820619 0.43484053 -0.30394152 0.24268755 -0.09140238 0.6110659 0.38207656
-0.38774627 -0.36052874 0.31820157 0.12770459 -0.43183294 0.41499177 -0.34564775 0.026536208
0.28184506 -0.28898025 0.39250734 -0.40505177 0.4857505 0.13319537 -0.4808342 0.41926375
0.448768 0.18870853 0.04594673 -0.47376168 0.50196135 -0.46377724 0.21141806 -0.044295996
-0.22475174 -0.26500723 -0.32007113 -0.48186412 0.17738712 0.60027343 -0.10757531 0.10921532
-0.4693857 -0.57844657 0.27717173 0.6160043 0.4603491 0.3026136 0.0154976435 0.08779022
-0.21439728 0.4820362 0.40598702 0.19417633 -0.61065984 -0.5713291 0.5385916 -0.08400056
0.3127799 -0.5456426 0.15373482 0.10949327 0.3043818 -0.3652801 0.28779197 -0.13245434
0.26418918 0.33048666 0.08814813 0.1504479 -0.3893503 0.039520536 -0.30180946 0.0061212103
-0.37210688 -0.51124483 0.21410733 -0.32763597 -0.2889975 0.11894762 0.331774 -0.27430114
-0.13861524 -0.31535903 0.38926125 -0.34097221 -0.43438512 -0.14009741 0.3236011 0.40426245
0.21778221 0.41404548 -0.3625519 0.35233578 0.4287398 0.1546688 0.19088015 0.47374293
00000000: f674 43be d4ee f83d 2314 0dbf 1dfd 83be
00000010: c254 003c 4f22 cdbe d098 20be 2092 e23e
00000020: 2467 923c 3c2d 0bbf 966c 1abe 3ce7 f5be
00000030: 8f2f 3d3e e7e0 8fbe 798a 893e a96e 113d
00000040: 80cd 06bf e59e f0bd 0e51 2f3e 21f1 93bc
00000050: 0c5f 13bf e704 93be 7bfb 8a3e 4a3e 06bf
00000060: 53a6 0a3e 90ec ccbe 4d40 08bf ed55 143f
00000070: 1663 843e 964d e3be fa4e b83e 595f 753e
00000080: 207c 3e3e d530 bfbe 46f2 d63d ea0f 63bc
00000090: 8452 3dbe 015d c63e 9db1 fcbe 8aa2 093f
000000a0: 74c5 fa3e bc57 a43e 2b5a 0a3f 0fea d63d
000000b0: 3f81 d5be ccdb 05bf a099 cabe 1efe 04bf
000000c0: 7ae0 f13e ec58 abbe 084b edbe cbfe 023f
000000d0: 9aba 09b9 25b8 bcbe 3576 e83e 5d4b 9b3e
000000e0: ebf7 a8be 8e48 33be aee3 babd 2b5b 7d3d
000000f0: e7b6 9bbe 6ddc e13d 48c0 4c3d b599 c0be
00000100: 2c55 1a3f 3f04 1fbe 569b 25be f3ab c93e
00000110: 3fbf 9f3e 77a7 aabe d36d 1a3f 80e4 b23e
00000120: a05a 01bf 7457 0f3f 935e 563d 0afa fdbe
00000130: 7576 e6bd 4d01 c93d bcc9 1abd 02d5 fc3d
00000140: 3086 01bd 1e6d 7a3d d7b7 06bf 0eb5 d9be
00000150: 9794 e1be a7a4 c8bd c4a8 8e3e b478 9d3d
00000160: f4af c43e 8bd2 d13e bac3 fe3d 6a3e 8dbd
00000170: 8e61 3a3d d331 eb3e b729 ce3e 6ba3 b93e
00000180: 2fe0 083f 6f6e 3abe 6ba3 de3e 399e 9bbe
00000190: 1683 783e 2c31 bbbd d16e 1c3f 8a9f c33e
000001a0: ae86 c6be 3997 b8be 51eb a23e fec4 023e
000001b0: 3519 ddbe cd79 d43e bef8 b0be 7662 d93c
000001c0: ff4d 903e 38f5 93be b9f6 c83e f262 cfbe
000001d0: 4ab4 f83e 5e64 083e e62f f6be bda9 d63e
000001e0: ebc4 e53e cf3c 413e a332 3c3d e490 f2be
000001f0: 8a80 003f 3674 edbe fa7d 583e b86f 35bd
00000200: 5225 66be 07af 87be 5de0 a3be e5b6 f6be
00000210: f8a4 353e 85ab 193f 7250 dcbd 48ac df3d
00000220: 5353 f0be 1315 14bf 74e9 8d3e 75b2 1d3f
00000230: e1b2 eb3e 2bf0 9a3e d4e9 7d3c 5ccb b33d
00000240: f68a 5bbe 73cd f63e 88dd cf3e 29d6 463e
00000250: 3454 1cbf a042 12bf 24e1 093f 7c08 acbd
00000260: b024 a03e 3caf 0bbf a96c 1d3e 023e e03d
00000270: eed7 9b3e fe05 bbbe 7859 933e 1ca2 07be
00000280: ce43 873e 8c35 a93e 0287 b43d 040f 1a3e
00000290: ec58 c7be 49e0 213d c586 9abe 6f94 c83b
000002a0: cb84 bebe f1e0 02bf f43e 5b3e e7bf a7be
000002b0: 7bf7 93be cf9a f33d 48de a93e 3371 8cbe
000002c0: 27f1 0dbe bd76 a1be 404d c73e e993 aebe
000002d0: ba67 debe b275 0fbe 0baf a53e 7dfb ce3e
000002e0: 4d02 5f3e c5fd d33e 67a0 b9be 5b65 b43e
000002f0: c883 db3e 7f61 1e3e 1676 433e 6f8e f23e

layer1.bias f4 [64]
0.045086466 -0.3013506 -0.023151333 -0.18969454 0.48358476 0.5286802 0.43653235 0.18745059
-0.32478136 0.49832737 -0.1900214 0.008386929 0.057171006 0.53586143 -0.3231511 -0.13719447
-0.012444739 -0.19692872 -0.08609024 -0.29718518 0.48762324 -0.26171154 -0.48924586 -0.30119577
0.42883664 -0.08103044 0.30839586 -0.03256587 -0.55512714 0.5910739 -0.02500055 -0.23574772
-0.14342673 0.18096612 0.421502 -0.1901641 -0.25466073 0.0020847993 0.10921871 0.09164431
-0.07093417 0.44851372 -0.19857442 0.3637083 0.5318536 -0.54219913 -0.17074163 0.31139404
0.5609672 0.029398337 -0.4914395 0.16465698 0.08855016 0.39726087 0.42807898 0.28110105
0.057572253 -0.37472156 -0.36758524 0.3959158 0.48251307 0.063539684 0.121767335 -0.43996602
00000000: 96ac 383d a04a 9abe dda7 bdbc 493f 42be
00000010: 6c98 f73e 9657 073f 2b81 df3e 0cf3 3f3e
00000020: be49 a6be c424 ff3e f894 42be 5469 093c
00000030: 252c 6a3d 372e 093f 1074 a5be b57c 0cbe
00000040: 05e5 4bbc afa7 49be 1450 b0bd a828 98be
00000050: c1a9 f93e 0eff 85be 6f7e fabe 5536 9abe
00000060: 7a90 db3e 4af3 a5bd 10e6 9d3e ca63 05bd
00000070: d01c 0ebf 9e50 173f f4cd ccbc da67 71be
00000080: 75de 12be 2f4f 393e 1ccf d73e 61ba 42be
00000090: e462 82be 21a1 083b 0fae df3d 03b0 bb3d
000000a0: ef45 91bd 97a3 e53e 1857 4bbe f937 ba3e
000000b0: 8f27 083f 90cd 0abf e5d6 2ebe 0a6f 9f3e
000000c0: 8c9b 0f3f c8d4 f03c f59d fbbe d79b 283e
000000d0: c959 b53d c765 cb3e 2b2d db3e 7aec 8f3e
000000e0: e2d0 6b3d 81db bfbe 2234 bcbe 7ab5 ca3e
000000f0: f40b f73e 1821 823d 2761 f93d 3a43 e1be

layer2.weight f4 [64, 64]
0.09492704 -0.025345758 -0.053692725 -0.010595037 -0.01052862 -0.11798998 -0.046238136 -0.0283546
0.043562204 -0.09446931 -0.1276228 0.024118818 -0.07193892 0.041187115 -0.0567573 -0.061967045
0.113053925 0.114637256 -0.073595494 0.014076039 -0.040903077 0.05519117 -0.08986439 -0.0039575524
0.04399562 0.07797469 -0.06686567 0.04907327 0.01517418 -0.103082426 -0.15526621 0.1219635
-0.035725836 0.05863167 0.07648513 0.12395247 -0.00023114611 -0.08846729 0.09069706 -0.012590898
-0.09646501 0.0001500589 -0.008090898 -0.1334099 -0.06456219 0.040965483 0.043955952 0.11070607
-0.02511077 -0.009839486 -0.007997807 0.036016356 0.06501004 0.08869256 -0.13351117 -0.08173067
0.066055626 0.07898662 0.056484222 -0.012865676 0.09983925 -0.0040819948 0.027134297 -0.0034954855
-0.0011928529 -0.062101394 0.008118853 0.10752328 -0.033985928 0.015950352 -0.098450094 0.062203318
0.10098185 0.0491454 0.028680474 0.0058075786 -0.02347505 -0.07232012 0.04835692 -0.07840456
-0.100666955 -0.061465263 0.1078506 0.06354034 -0.1001212 -0.06602153 0.040812925 0.09328027
0.055639848 -0.029253945 -0.0982745 0.10518652 -0.11954655 -0.052652076 -0.107770786 0.04181084
-0.015245929 -0.046924725 -0.050837323 0.011894137 0.008582681 0.11721395 -0.08050932 -0.102896705
-0.047737658 -0.06962709 0.11103545 -0.08309755 -0.033636287 0.04423888 -0.12360373 0.11058441
-0.024558738 -0.084665224 -0.07147683 0.06594692 0.12050438 0.07016428 -0.09587091 0.06788197
0.018927336 -0.042694986 0.09891604 -0.0077224076 -0.005541295 0.11972481 0.0039332807 0.0424985
-0.09177203 -0.088188596 -0.018306192 -0.10078661 0.0757401 -0.07225264 -0.06947511 -0.07121472
0.084581435 -0.0011833918 -0.08741229 0.07401133 -0.08719084 -0.09855821 0.121815935 0.10219746
-0.07134284 0.0893466 -0.03662224 0.13339089 0.033495158 -0.018978694 -0.107343726 -0.09221106
-0.034616616 0.061093025 -0.054010577 0.11610551 -0.06499671 0.11939259 0.12195202 0.09139428
-0.043611698 -0.018167162 -0.019697921 0.030396663 0.05308796 -0.03995415 -0.033692252 0.09807075
-0.010293429 0.06295507 0.0027423638 0.13838078 -0.113173805 0.05274839 0.002870743 -0.07004111
0.02768424 -0.013894986 0.05168396 0.04617202 0.09590452 -0.017679518 0.11658986 0.07854895
0.047760237 -0.023015803 -0.033903196 0.116612144 -0.014214905 0.11045444 -0.016195185 0.019355427
0.11281474 -0.076197445 0.00861463 0.025056599 -0.015012927 -0.086192295 0.09626659 -0.015354403
0.031739704 -0.119688034 0.0144424625 -0.09504203 -0.039960455 0.017165156 -0.087216616 -0.012769245
0.041591957 -0.06484575 -0.10093342 -0.024022743 0.06969063 -0.011263297 0.037420563 -0.07990727
0.1087536 -0.078017905 -0.014794026 -0.0076489253 -0.0026095808 -0.044963434 0.0767821 -0.020912247
-0.014047367 -0.06506254 0.11497156 -0.045792926 0.051189303 -0.0048689 0.0067286957 -0.07811642
0.048217144 0.015539632 0.00701375 0.010563192 -0.108921945 -0.02922223 -0.03999325 -0.118247256
-0.10233046 -0.007544315 -0.027632803 -0.02408925 -0.1296979 -0.034776382 0.11394845 -0.028311802
0.01924763 0.009263572 -0.11637685 0.05786486 -0.046739403 -0.09740227 -0.058689773 -0.06637847
00000000: 1c69 c23d e8a1 cfbc e7ec 5bbd ce96 2dbc
00000010: 3c80 2cbc bba4 f1bd 3364 3dbd e847 e8bc
00000020: 486e 323d 2079 c1bd 8daf 02be d494 c53c
00000030: b654 93bd d2b3 283d 587a 68bd 28d1 7dbd
00000040: d188 e73d f0c6 ea3d 3cb9 96bd 309f 663c
00000050: fc89 27bd 2310 623d d20a b8bd 5bae 81bb
00000060: c034 343d 32b1 9f3d def0 88bd 0e01 493d
00000070: 209d 783c e11c d3bd 1bfe 1ebe 00c8 f93d
00000080: 4155 12bd c327 703d 3ca4 9c3d cbda fd3d
00000090: d05f 72b9 572e b5bd 61bf b93d 0e4a 4ebc
000000a0: 728f c5bd 2159 1d39 b08f 04bc 9b9c 08be
000000b0: 2e39 84bd 6ccb 273d 280b 343d ddb9 e23d
000000c0: 1ab5 cdbc cc35 21bc 3c09 03bc e385 133d
000000d0: fc23 853d 72a4 b53d 27b7 08be 6962 a7bd
000000e0: 2c48 873d bdc3 a13d 005c 673d 8eca 52bc
000000f0: 8578 cc3d 41c2 85bb bf48 de3c 8414 65bb
00000100: 8059 9cba 085e 7ebd f004 053c 2a35 dc3d
00000110: d434 0bbd 50aa 823c 34a0 c9bd e8c8 7e3d
00000120: 92cf ce3d b04c 493d 50f3 ea3c 804d be3b
00000130: c04e c0bc 921c 94bd e811 463d 9292 a0bd
00000140: 7a2a cebd 00c3 7bbd c6e0 dc3d 7021 823d
00000150: 580c cdbd 4c36 87bd 742b 273d ba09 bf3d
00000160: 9ce6 633d f8a5 efbc 2444 c9bd 086c d73d
00000170: d2d4 f4bd b4a9 57bd eeb6 dcbd d841 2b3d
00000180: 10ca 79bc 2434 40bd cc3a 50bd a0df 423c
00000190: 609e 0c3c de0d f03d 12e2 a4bd 82bb d2bd
000001a0: 9088 43bd a698 8ebd 8e66 e33d 0c2f aabd
000001b0: 34c6 09bd d433 353d f423 fdbd 147a e23d
000001c0: 682f c9bc f664 adbd 7262 92bd 2e0f 873d
000001d0: 00cb f63d 4ab2 8f3d f857 c4bd b405 8b3d
000001e0: 800d 9b3c f0e0 2ebd 7e94 ca3d 400c fdbb
000001f0: c093 b5bb 4832 f53d c0e2 803b e812 2e3d
00000200: f9f2 bbbd 399c b4bd def6 95bc 3669 cebd
00000210: a01d 9b3d 31f9 93bd f748 8ebd 06d9 91bd
00000220: 0839 ad3d 0a1c 9bba 3705 b3bd 4193 973d
00000230: 1c91 b2bd e3d8 c9bd a27a f93d e74c d13d
00000240: 321c 92bd 5afb b63d 3401 16bd 9f97 083e
00000250: 3832 093d 3579 9bbc 07d7 dbbd 27d9 bcbd
00000260: 27ca 0dbd ae3c 7a3d 323a 5dbd bac8 ed3d
00000270: ff1c 85bd 1a84 f43d fbc1 f93d ed2c bb3d
00000280: 2ea2 32bd 4dd3 94bc 895d a1bc 6c02 f93c
00000290: c372 593d f6a6 23bd e300 0abd 51d9 c83d
000002a0: c5a5 28bc 96ee 803d 3bb9 333b b1b3 0d3e
000002b0: abc7 e7bd b20e 583d 1323 3c3b b771 8fbd
000002c0: 0fca e23c cca7 63bc 8fb2 533d df1e 3d3d
000002d0: 9769 c43d a3d4 90bc aac6 ee3d 46de a03d
000002e0: 3da0 433d a38b bcbc 14de 0abd 59d2 ee3d
000002f0: a2e5 68bc f035 e23d c4ab 84bc 468f 9e3c
00000300: 6a0b e73d 680d 9cbd 6124 0d3c 7f43 cd3c
00000310: c8f8 75bc 9685 b0bd 6b27 c53d 0991 7bbc
00000320: 7e01 023d 001f f5bd 14a0 6c3c 65a5 c2bd
00000330: 93ad 23bd f19d 8c3c a09e b2bd 1836 51bc
00000340: 545c 2a3d d9cd 84bd 2eb6 cebd 58cb c4bc
00000350: f6b9 8e3d b189 38bc 4e46 193d 6ca6 a3bd
00000360: 35ba de3d dac7 9fbd a462 72bc d6a3 fabb
00000370: 8005 2bbb 942b 38bd ef3f 9d3d 2950 abbc
00000380: ed26 66bc 823f 85bd 3676 eb3d 5d91 3bbd
00000390: e0ab 513d 4b8b 9fbb 647c dc3b 80fb 9fbd
000003a0: 577f 453d f199 7e3c 99d3 e53b 3d11 2d3c
000003b0: 7812 dfbd 7563 efbc f6cf 23bd 9e2b f2bd
000003c0: a292 d1bd 4d36 f7bb 305e e2bc d256 c5bc
000003d0: 87cf 04be ae71 0ebd ce5d e93d 27ee e7bc
000003e0: 35ad 9d3c 3dc6 173c fc56 eebd b403 6d3d
000003f0: d171 3fbd d77a c7bd b064 70bd 6ff1 87bd

layer2.bias f4 [64]
-0.050209817 0.048278302 -0.10829658 0.081032775 -0.005012565 -0.12629199 0.047372896 -0.11479066
-0.0684135 0.019435674 -0.1458633 -0.00010757982 0.09647281 0.07187135 -0.033490296 -0.08450952
-0.009026539 0.08809517 0.081113786 -0.103041835 0.092491604 0.09269543 -0.07950571 -0.09202226
-0.107807934 -0.124344826 -0.05814292 0.086439945 -0.014573823 0.08238843 0.084853336 -0.11430935
-0.031838506 0.054071605 -0.025604475 0.06635122 0.13369292 0.0835421 0.044109754 -0.016013183
0.046962313 0.069966055 -0.05661869 0.034392994 0.024146296 0.1367478 -0.039239768 0.016118243
-0.08801365 -0.052782115 -0.05173024 0.00038883855 -0.11388802 -0.007131964 -0.0031385936 0.039042648
-0.012530141 0.034606095 0.062865555 0.10926848 0.14767063 0.044706795 -0.10572305 0.09539257
00000000: cfa8 4dbd 78bf 453d 99ca ddbd 83f4 a53d
00000010: 7140 a4bb b052 01be 150a 423d 5e17 ebbd
00000020: 611c 8cbd 9037 9f3c 305d 15be 7a9c e1b8
00000030: 8993 c53d 4931 933d 1f2d 09bd 5413 adbd
00000040: 0ce4 13bc 3e6b b43d fc1e a63d 9907 d3bd
00000050: 3d6c bd3d 1ad7 bd3d e4d3 a2bd 2b76 bcbd
00000060: 68ca dcbd 80a8 febd 4527 6ebd 6d07 b13d
00000070: 0bc7 6ebc 44bb a83d 96c7 ad3d 051b eabd
00000080: 1869 02bd 307a 5d3d 7ac0 d1bc 26e3 873d
00000090: cce6 083e 1f18 ab3d 6eac 343d 142e 83bc
000000a0: 8e5b 403d 5d4a 8f3d 00e9 67bd abdf 0c3d
000000b0: 74ce c53c 9e07 0c3e e1b9 20bd 680a 843c
000000c0: 8040 b4bd 0f32 58bd 17e3 53bd 07dd cb39
000000d0: 1f3e e9bd 40b3 e9bb ddb0 4dbb 2feb 1f3d
000000e0: 384b 4dbc 1fbf 0d3d a8bf 803d 27c8 df3d
000000f0: f836 173e 791e 373d 5485 d8bd 2e5d c33d

layer3.weight f4 [1, 64]
0.106872484 -0.12180179 -0.025339724 -0.020467497 -0.08998225 -0.006445238 0.12054724 -0.106099665
0.111506745 0.057102934 -0.053337295 -0.028970137 -0.110469766 -0.065013945 0.03226201 0.051625334
0.08066114 0.100630544 -0.049105182 -0.0008475653 0.045842487 -0.08011745 0.019642243 -0.11356622
-0.04214202 -0.012779832 0.061107233 -0.013307796 -0.11895544 0.0276974 -0.039426453 -0.07021516
-0.0061037396 0.11568817 -0.105583854 0.12012898 0.019467609 0.065658815 -0.081095755 0.042041868
0.07427501 -0.06547329 0.023878654 0.013351109 -0.08828096 0.041136105 0.122678295 0.05720265
0.08993687 -0.06639077 -0.0650567 0.06374294 -0.06796632 -0.06757505 0.087706074 -0.056349307
-0.08877845 0.10533339 -0.080401815 -0.105502315 0.03386543 -0.08680384 0.09304571 -0.003313154
00000000: f6df da3d 3873 f9bd 4195 cfbc 74ab a7bc
00000010: 9d48 b8bd 9332 d3bb 79e1 f63d c84a d9bd
00000020: a65d e43d c4e4 693d 3578 5abd c852 edbc
00000030: f93d e2bd 0826 85bd 2b25 043d 1675 533d
00000040: ab31 a53d 6317 ce3d 8422 49bd 252f 5eba
00000050: 55c5 3b3d 9e14 a4bd c5e8 a03c 6895 e8bd
00000060: 1c9d 2cbd 8062 51bc 944b 7a3d f108 5abc
00000070: e99e f3bd a8e5 e23c a27d 21bd f7cc 8fbd
00000080: e101 c8bb ebed ec3d 593c d8bd 2f06 f63d
00000090: 897a 9f3c 2178 863d 8815 a6bd 1834 2c3d
000000a0: 7f1d 983d dc16 86bd 2b9d c33c 9cbe 5a3c
000000b0: a6cc b4bd 557e 283d c23e fb3d 534d 6a3d
000000c0: d230 b83d e2f7 87bd 723c 85bd a98b 823d
000000d0: ed31 8bbd ca64 8abd 3e9f b33d 88ce 66bd
000000e0: 7ad1 b5bd 08b9 d73d b5a9 a4bd 9911 d8bd
000000f0: 7ab6 0a3d 36c6 b1bd c08e be3d 8021 59bb
