ppo_critic.pth (torch, 19799 bytes, 5 tensors)

layer1.weight f4 [64, 3]
00000000: ed3e 8dbe adc3 c13f f9fa 86be 1a40 74bf
00000010: 2599 ce3f 86ea 803e dcc3 9cbf 8aa9 b0bf
00000020: e3c1 52be f86f 43bf 5079 8a3f efd7 f33d
00000030: 1796 c7be b392 cbbe 51f7 adbd 7257 37bf
00000040: 9684 973f 723f 76bb 4db2 a0bf ad1f 5e3f
00000050: 0e1c 6bbe be4e a9be 303c 963e dcd2 0fbe
00000060: 2137 6cbf 528c 29bf 7250 d33e eafe 433f
00000070: ff0c 87bf 29e6 d5be bd28 5ebf 4028 2e3e
00000080: 7e49 75bf eee4 62bf 1e9a 043f e03c 243e
00000090: deeb 6c3f 6987 5f3f 8a4d e63a 50a5 6ebf
000000a0: 9787 16be 3dc0 8cbe ffde f0be 16bb b7bf
000000b0: 621d b13c d92b 6fbf cf8f a33f 5b93 9e3e
000000c0: 9942 70bf 38d3 b93f fc03 5f3d 1104 853f
000000d0: c9c6 8ebf a414 86bd 6d75 8fbf 35b9 b0bf
000000e0: 7b25 1dbe 66f6 dd3e 619d 81bf 1b36 46bd
000000f0: 766e 38bf 4a4d bebf eee0 ab3e fc79 a6bf
00000100: 7030 aabf 5a46 b2be c2ee 25bf 1b63 8ebf
00000110: be74 1b3d 3c34 48bf b576 a4bf d6b4 81bc
00000120: 5147 5e3f 93ff 4ebf 4eae 79bf 9aa7 94bf
00000130: 13a7 7f3f a0c9 3b3e d702 5bbf e703 b3bf
00000140: ac73 a7be bb83 063f 6c8b 9b3f d91a 0abf
00000150: c948 563f e175 7e3f 95b3 68bf be20 8abd
00000160: 5343 ddbe 46a6 5dbc eb3b f1be a5c2 333f
00000170: 7e36 813d 9722 ecbe 26ac 913f 117c 90be
00000180: f33b b13e 6f11 b03f 10bc 633e b8be 013d
00000190: bb18 143f a3f3 d63e e56a 65bc de8f b93e
000001a0: 30b4 c1be 907d 8fbe fa02 9ebf 1c13 5ebe
000001b0: fce4 323f a1d3 96bf 4ad3 bebd 3861 1ebf
000001c0: 492f bcbf 6c34 833e 4ca8 88bf d973 58bf
000001d0: 57fa 7c3e e439 2f3e 0f2b 093f ade4 b23d
000001e0: 4564 1b3f 12bf 973f 79c5 6d3e 359e 20bf
000001f0: 20c7 c9bf 9905 b2be bc17 13bf bdc6 b9bf
00000200: 4c8d a8bd 6a14 1cbf 871a be3f 5866 febd
00000210: 8a67 3fbf 4d35 eb3e ffad 23be 2b7b 87bf
00000220: 39f1 95bf 8d1c 3fbf 0aef 7bbf 363b 353f
00000230: a68a 483e 60ff adbe e25c 293f 9a94 ccbd
00000240: 0a97 61bc 6481 df3e 49e6 f53c 2418 79bf
00000250: df2c adbf 7d4c 9abe 256b 12bd b357 983f
00000260: 4c13 093f e6f5 00bf f682 663f 101e e93e
00000270: 7046 11bf 455b c03f cd7a b83e f94a 33bf
00000280: a60e 18be 5079 42be 2dcb 4cbf a58a f83e
00000290: 0525 3fbe cde9 03bf a91d 923f 4424 0c3e
000002a0: 969f 4abf 6a0a 623c db25 7abe 2a5a 3d3f
000002b0: 668b a93f f478 80bd d24a 5abf e761 a53f
000002c0: e8fa babd bfb3 753f 3d2e a53d c2d8 87bf
000002d0: 5778 17bf 425d 943f 2da2 783e 493d 26bf
000002e0: 051a 2fbf 7214 03bf 9a01 83bf a71f be3e
000002f0: 1de8 61be 86cd 9bbf c7ca 8b3f 951e 753e
-0.2758707 1.513784 -0.26363352 -0.9541031 1.6140486 0.25178927 -1.2247272 -1.3801739
-0.20581774 -0.76342726 1.0818272 0.119064204 -0.38981697 -0.3976036 -0.084944375 -0.71617806
1.1837337 -0.0037574437 -1.2554413 0.86767083 -0.22959921 -0.33067888 0.29342794 -0.1404528
-0.9227162 -0.66229737 0.41272312 0.76560843 -1.0550841 -0.4177716 -0.8678091 0.17007542
-0.95815265 -0.8863057 0.51797664 0.16038847 0.92547405 0.87315995 0.0017570716 -0.93220997
-0.14700161 -0.27490416 -0.47045133 -1.4353969 0.021620456 -0.9342628 1.2778262 0.30971798
-0.9385162 1.4517584 0.05444716 1.0391866 -1.1154414 -0.06546906 -1.120771 -1.3806521
-0.15346329 0.4335205 -1.0126153 -0.048391443 -0.7204355 -1.4867337 0.33570045 -1.3005977
-1.3296032 -0.348193 -0.6481744 -1.1123995 0.03795313 -0.78204703 -1.2848727 -0.0158333
0.8682757 -0.80858725 -0.9753159 -1.1613648 0.9986431 0.18338633 -0.8555121 -1.3985566
-0.32705438 0.52544755 1.2151923 -0.53947216 0.8370481 0.9939862 -0.9089902 -0.06744526
-0.43215427 -0.013528412 -0.47116026 0.7021888 0.06309222 -0.4612014 1.138066 -0.28219655
0.3461605 1.375532 0.22239709 0.031676024 0.57850236 0.41982755 -0.014002536 0.36242574
-0.37832785 -0.28025484 -1.2344658 -0.21686977 0.6988065 -1.1783334 -0.09317644 -0.61867094
-1.470193 0.25625932 -1.067636 -0.8455177 0.24704872 0.17111927 0.5358133 0.08735023
0.60699874 1.1855185 0.23219861 -0.62741405 -1.5763893 -0.34769896 -0.5745809 -1.4513775
-0.08230075 -0.6096865 1.4851846 -0.12421864 -0.74767363 0.45939103 -0.15984343 -1.0584463
-1.171424 -0.7465294 -0.9841162 0.70793474 0.1958414 -0.33983898 0.6615735 -0.09989281
-0.013768921 0.43653405 0.030017035 -0.9730246 -1.3529319 -0.3013648 -0.035746712 1.1901764
0.5354507 -0.5037521 0.9004358 0.45530748 -0.56748104 1.5027853 0.3603119 -0.70036274
-0.14849338 -0.1899159 -0.7999752 0.48543277 -0.18666466 -0.51528627 1.1415302 0.13685709
-0.7914976 0.013796428 -0.24428503 0.73965704 1.3245666 -0.0627307 -0.85270417 1.2920502
-0.09129888 0.95977396 0.0806546 -1.0613024 -0.59168 1.159096 0.24280615 -0.64937264
-0.6839908 -0.5120307 -1.0234864 0.37133524 -0.220612 -1.2172096 1.0921258 0.23937447

layer1.bias f4 [64]
00000000: 3456 7f3f 3f9f 823f 099c 6d3f abe5 293f
00000010: 2225 473f b200 303f c202 1a3f c3e7 763f
00000020: 918f f33e 491c cc3e a722 cebc c4d6 823f
00000030: 3ca3 f63c ec65 a43f 050d ee3e bcc2 723f
00000040: 386d b73e 0da1 0f3e 8449 0b3f 4431 273f
00000050: ea08 253f 2936 8c3f 618b 033f a0ea 273f
00000060: 3a80 993e baf8 883f e611 3a3f ea80 3a3f
00000070: 4f77 b93e 0b1f 593f 969f 6e3f 0144 703f
00000080: e5ca 513f 522d c43e 9cc4 553f dc5d 353f
00000090: 4e8f d13e 532a 943d 7471 493f b6d1 843f
000000a0: 0d94 5d3e 5cbf 173f 79d6 113f 8c93 4d3f
000000b0: 4c6d 903f 8db8 243d e430 6e3f f1bb 953f
000000c0: b6f8 9a3f 6fea 593f aac5 273d a8cf 043b
000000d0: a619 b43e 67f7 433f 38fe 343f 42a6 ca3e
000000e0: 497e a33f 618f 7b3e c7b8 353f 8356 4a3e
000000f0: 06cd 533f 4930 293f 20fb ab3f 7adc 923f
0.9974091 1.0204848 0.92816216 0.6636607 0.77791035 0.6875106 0.6016046 0.9644739
0.4757047 0.3986533 -0.025163008 1.0221791 0.030107133 1.2843604 0.46494308 0.9482839
0.35825515 0.1402628 0.5440905 0.6530955 0.64466727 1.0954028 0.5138455 0.65592384
0.29980642 1.0700905 0.7268356 0.7285296 0.36223838 0.8481299 0.9321226 0.93853766
0.8195022 0.38315827 0.8350313 0.70846343 0.40929645 0.07234635 0.7868874 1.0376499
0.21638508 0.59276366 0.56967884 0.80303264 1.1283355 0.040215064 0.9304335 1.169798
1.210715 0.8512334 0.04095999 0.0020265374 0.35175818 0.7654938 0.7070041 0.3957997
1.2772914 0.24566413 0.7098507 0.19759564 0.82734716 0.660893 1.3436012 1.1473534

layer2.weight f4 [64, 64]
00000000: 3ee2 9cbd 0094 adb9 b8a2 47bd bed8 fabd
00000010: deab df3d 0af4 abbd b811 37bd 181e 0dbd
00000020: 9056 02bd 3401 0bbd b880 dfbd 6033 21bd
00000030: 047b 933d 8038 713b 58cc b8bd ccca e8bd
00000040: 885a ee3c 80d1 a5ba 0060 02ba 7812 3b3d
00000050: e8b2 6dbd 2e72 b0bd c47b 6abd 0018 99bc
00000060: 1616 a2bd 30c9 1c3d 9c25 44bd 4420 4a3d
00000070: f8f1 fa3d 2695 9e3d f022 9c3c 6285 c2bd
00000080: 74c0 8abd d8e6 b8bd fc75 e93d b65d c13d
00000090: 7619 f9bd 602a 823b 7207 f5bd d8df d7bc
000000a0: b06c fcbc 4686 95bd ec32 8fbd 726e 91bd
000000b0: ec3b a0bd 8ef6 b13d 3041 b63c e6b8 883d
000000c0: 80f3 613b be13 ed3d 5083 6e3c 50d7 02bc
000000d0: 1cd4 fd3d c84d d53d fc5d d93d 005d a93a
000000e0: 12fb b4bd 5cda f0bd 5441 8cbd 043e 5d3d
000000f0: 2858 a63c 8813 563d 00ad 1bbd 0820 babd
00000100: c455 ae3e 9529 183e 9c89 153f 1db8 173e
00000110: a13f 003f 1b15 d53e 2fd3 de3e cc34 333f
00000120: bd28 eb3d 2bf1 843c 0bd0 79be 1486 883e
00000130: 6836 0bbd 407a 113f 645a bc3e 6a9a 113e
00000140: 1934 6e3e 9a41 c23e 00ba 0d3f 8ef0 b93e
00000150: 4c51 9a3d a72c a13e 2916 863e f4a3 bc3e
00000160: 62ee 9abe be7c a23e 1393 a73e 4d55 cdbc
00000170: 2f3d 41be 157a 963e 1ced 963e e960 793e
00000180: ee8b a53d 2d70 4dbe aa56 ba3d 32af 803e
00000190: a9aa 083f a016 9c3d 9f23 623e 3e72 ec3d
000001a0: f645 533d 08d3 5e3e aee1 153f 475f dd3e
000001b0: f25c 243f 0853 8e3c bfed 8c3e 2141 c63e
000001c0: 0f53 c13e 1e15 b03e 2365 3ebd 4015 4e3b
000001d0: 883b 043e eee2 473e 0351 b73e ed38 7c3e
000001e0: 32e7 153f d5a9 0c3f dbca 173f 8be4 c1be
000001f0: ae01 583d fcf8 253e 1c89 1b3f b44c 173e
00000200: 891e 3a3f 4e05 3cbf 09b3 063e a79a 2ebf
00000210: bedc da3d 28ae 4fbd 0c97 043f 365a 203f
00000220: 8e8b 63bf ee6b 213f 5074 0f3f 0e26 e7be
00000230: 6056 343f 10ce f93e 7666 5abe d8a6 3ebf
00000240: 49a9 e8be 2e64 ab3e dd54 ef3d 2298 ae3e
00000250: aca3 5abf fc68 a53e 54f4 ecbe 8386 5fbe
00000260: 85a6 3f3f 0bd0 58bf 10fd df3e c242 4c3f
00000270: 9df3 1f3f 8a40 183e 0552 ed3b 7f28 153f
00000280: 7612 bf3e 2b4c b4bc a743 3f3f b6ab ae3e
00000290: c82a 843e bf50 60bf 070f 70bf b86e f63d
000002a0: 96c7 c13e 91e9 df3e 7fd1 5ebd 3593 ca3e
000002b0: 24dc d63e 769e 073f 1d07 5fbf 54ea a93e
000002c0: a0fa 603e 599f 773e 081d 4fbf 04ec 64bf
000002d0: ac4c 8cbf 710a b83e 28ff a43e f3ec 75bf
000002e0: bba5 e83e 7546 233f 531c fd3d 2c7a 513f
000002f0: 8619 75be 3dd3 043f 40b4 f33e fd2b 60bf
00000300: 46b8 b73e c0e4 713e 6497 1a3f bef5 b63e
00000310: 1fdd 083f b3af c73e 9ddd a23e c082 0c3f
00000320: c590 67bc 8226 f93a 8919 91be 4733 343e
00000330: 3284 353e 6e00 263f 5ec8 7c3e 06cf 003e
00000340: 50e2 de3e 2687 ad3e 40c8 0a3f 32dd c03e
00000350: a19d 303e 21cc e73e a2c3 973e bbe1 eb3e
00000360: cc1b 95be 1d36 8e3e 63c0 703e 5cd6 7a3d
00000370: 4c80 47be 18d5 a23e 366f b83e db5d 823e
00000380: 22eb 243d 61fb 513c 0ec4 0c3e d598 b53e
00000390: 33eb ef3e 8bdc cc3c 3dc5 2b3d d9e0 d33d
000003a0: ebdb d9bd 83b6 9f3e 7fdf 1d3f 139a 103f
000003b0: 900a e23e 963f 533d 6854 f83d bb4b 133f
000003c0: 341e 5b3e 6cb2 b43e 145d 993c 5b38 eabd
000003d0: cc3e 55bd 5ebb 9f3e 1ea7 5f3e c6fb 663e
000003e0: 82c0 ec3e 99bf d23e 6952 2a3f 9569 62be
000003f0: 7aaa 583e ac88 293d e614 ed3e a297 bd3e
-0.0766034 -0.000331074 -0.048739165 -0.122483715 0.10921453 -0.08396156 -0.044694632 -0.034452528
-0.031820834 -0.033936694 -0.10913223 -0.039355636 0.07201198 0.0036807358 -0.090233505 -0.113668054
0.029095903 -0.0012650937 -0.00049734116 0.04567191 -0.058031946 -0.08615528 -0.05724694 -0.018688202
-0.07914369 0.038277805 -0.04788743 0.049347177 0.12253183 0.077432916 0.019059628 -0.09498097
-0.06774989 -0.09028405 0.11399457 0.09441702 -0.121630594 0.0039723366 -0.11964311 -0.026351854
-0.030813545 -0.07301001 -0.069921345 -0.07101144 -0.07823929 0.08689605 0.02224788 0.066758916
0.0034477413 0.11576031 0.0145576745 -0.007985905 0.12393972 0.10415226 0.10613629 0.0012921393
-0.0883695 -0.11760399 -0.06848398 0.05401422 0.020305708 0.05226472 -0.038006783 -0.09088141
0.3404981 0.14859612 0.584131 0.14816327 0.5009709 0.41617665 0.43520495 0.70002437
0.114823796 0.01622828 -0.24395768 0.26664793 -0.033987433 0.56827164 0.36787713 0.1421906
0.23262061 0.37940675 0.5536194 0.3631634 0.075350374 0.3147938 0.26188782 0.36843836
-0.30259997 0.31735796 0.32729396 -0.025065089 -0.18870996 0.29390016 0.29477775 0.24353375
0.0808333 -0.20062323 0.09098561 0.25133663 0.53385407 0.07621503 0.22083901 0.115452275
0.05158039 0.2176019 0.58547485 0.43236753 0.64204323 0.017373577 0.27525136 0.38721564
0.3775868 0.3439111 -0.04648317 0.0031445771 0.12913334 0.1952016 0.35803995 0.2463109
0.585559 0.54946643 0.5929391 -0.37869677 0.052735977 0.16208261 0.6075609 0.14775354
0.7270284 -0.73445594 0.13154234 -0.6820473 0.106866345 -0.050703198 0.5179298 0.6263765
-0.8888482 0.6305531 0.56036854 -0.4514622 0.704443 0.48790026 -0.21328148 -0.74473333
-0.45441654 0.3347487 0.11686108 0.34100443 -0.85405993 0.3230666 -0.46280158 -0.21828656
0.74863464 -0.8469245 0.4374776 0.79789364 0.624811 0.1486837 0.0072424435 0.5826492
0.37318772 -0.022008976 0.74712604 0.3411538 0.2581389 -0.8762321 -0.9377293 0.12032837
0.37847584 0.43732885 -0.05439901 0.39565435 0.4196483 0.5297617 -0.8712023 0.3318659
0.21970606 0.2418188 -0.80903673 -0.8942263 -1.0960898 0.35945466 0.3222592 -0.9606468
0.45438942 0.63779384 0.12358918 0.81827044 -0.23935518 0.51884824 0.47598457 -0.8756712
0.35882777 0.23622417 0.60387254 0.3573436 0.53462404 0.39001235 0.31809703 0.5488701
-0.014133637 0.0019008669 -0.28339794 0.17597686 0.1772621 0.64844406 0.24685809 0.12578973
0.43532038 0.33892173 0.5421181 0.3766876 0.1724763 0.45272925 0.29641443 0.46070656
-0.2912277 0.2777566 0.2351089 0.061239585 -0.19482535 0.31803203 0.36022347 0.2546223
0.040263303 0.012816281 0.13746664 0.35468164 0.4685913 0.025007507 0.041936148 0.10345621
-0.10637649 0.31193933 0.6166915 0.564851 0.44148684 0.051574312 0.12125474 0.5753743
0.2139824 0.35292375 0.01872114 -0.1143653 -0.05206184 0.31197637 0.21841094 0.22556981
0.46240622 0.41161802 0.66532 -0.22110589 0.21158782 0.041390106 0.46305007 0.3702975

layer2.bias f4 [64]
00000000: 600d eabd 3846 d73e f4c7 623e 2797 d33e
00000010: 4e5a 9cbd 129b de3d e3c8 cebc 978d cf3e
00000020: f198 f23e 80d2 09bb 4fae d83a 5808 bb3e
00000030: a094 0abd 5786 f63e abcd e43e 2dd1 fa3b
00000040: 5325 c53e f399 cc3d 52e3 05be cea2 bd3d
00000050: 2829 ac3e d5c3 bd3e c322 013f 65e0 043f
00000060: 7d82 5c3d bb1d 97bd ea89 543d 309b bf3d
00000070: 21be f23e 0179 bf3e 51ea 853e 1995 983e
00000080: 703c 64be 23f3 e33e 2e46 093f 2f73 e03c
00000090: 9f12 27bd 16ec a73e 4082 e83e 2acd cc3e
000000a0: d837 d33e 6724 2b3d e885 b63e 2bd5 ca3e
000000b0: 4249 4e3e 7546 9e3e ee1e 40bd 6600 233f
000000c0: bc8c 653e dbea cd3e dc44 06be 7025 a8bb
000000d0: a971 a43d 7c28 153f 6e44 f8bd 5e7b 083f
000000e0: 08bb 0e3f 43a7 033f 6a95 1ebc 3c3e 003f
000000f0: b674 94bd db75 d53e 7474 093e c976 f43e
-0.11428332 0.4204576 0.22146589 0.41326258 -0.07634412 0.10869421 -0.025242275 0.40537712
0.4738231 -0.0021030009 0.001653144 0.36529803 -0.033833146 0.48149368 0.44688162 0.00765433
0.3850504 0.09990301 -0.13074997 0.09259568 0.3362515 0.3706347 0.5044367 0.519049
0.05383538 -0.073787175 0.051889338 0.093557715 0.47410682 0.37397006 0.26155332 0.29801252
-0.2228868 0.44521436 0.5362271 0.027398674 -0.040789243 0.32797307 0.45411873 0.40000278
0.41253543 0.041782763 0.35649037 0.3961576 0.20145133 0.3091313 -0.046904497 0.6367248
0.22416967 0.40218243 -0.13112205 -0.005131416 0.080294915 0.582649 -0.12122427 0.53313243
0.5575414 0.51427096 -0.009679178 0.5009496 -0.07248823 0.4169148 0.1342333 0.47746876

layer3.weight f4 [1, 64]
00000000: 9454 693d 340e bfbe 8bd0 4f3f d00b bdbe
00000010: 9cfa 103d 98c3 083d 73a3 813f 8fd9 cdbe
00000020: 8790 b6be f0dc 973d e5f2 6b3c be87 d8be
00000030: 248d ce3d ec07 d1be df52 adbe 91c5 543d
00000040: a367 ebbe 633e b03e 158b e63d 82fe 123d
00000050: a30c cabe b537 cbbe 8063 cebe b7ae b6be
00000060: d7d7 563e e69a 133d fef1 b23c 0b02 9d3b
00000070: 1401 e0be f47b edbe b977 cebe 54f8 e3be
00000080: 9f31 7d3f e011 dbbe 09d9 b7be ea5c 883d
00000090: 589c d33c e09a 463f ca21 843f c9a7 dbbe
000000a0: 67e3 c3be 942c 763d d10a cdbe f16c d5be
000000b0: 3e1b 5b3f b0e1 c7be e8bc 953d 271c 1dbf
000000c0: 0832 c83e d7c0 b7be b233 fe3c bcb6 7e3f
000000d0: cdbf 183e a754 b1be c5d4 ee3c 53fe bebe
000000e0: fc53 e3be f7aa cdbe f107 993d d88e cdbe
000000f0: dca8 a13d 49b9 b1be bf3c 763e 35c9 dabe
0.056965426 -0.37315524 0.81177586 -0.36923075 0.03539525 0.033389658 1.0128006 -0.40205047
-0.3565714 0.07415187 0.014401172 -0.42291063 0.10085514 -0.40826356 -0.33852288 0.051946227
-0.45977506 0.34422597 0.112569965 0.03588725 -0.39462766 -0.3969094 -0.40310287 -0.35680172
0.20980774 0.036036395 0.021843906 0.0047915033 -0.43750823 -0.4638363 -0.40325716 -0.44525397
0.9890384 -0.42787075 -0.35907772 0.06658347 0.025831386 0.7758007 1.0322812 -0.42901447
-0.38259432 0.060101107 -0.40047315 -0.41684678 0.85588443 -0.39039373 0.07311422 -0.6137108
0.3910067 -0.35889313 0.03103051 0.9949758 0.14916916 -0.34634897 0.02915419 -0.3730341
-0.44400012 -0.40169498 0.07472218 -0.40148044 0.078935355 -0.34711674 0.2404661 -0.42731634
