ppo_actor.pth (torch, 19799 bytes, 5 tensors)

layer1.weight f4 [64, 3]
00000000: 71cf 4a3f 9bd0 3e3f 9275 353c f129 b3bf
00000010: 4d7a 9bbf fb0c cc3e 3529 8ebf 2856 0cbf
00000020: 9a50 8d3e 88af 663f c0c4 f23f 3d63 823d
00000030: 0352 023e 5fbb bc3e 2667 753c e726 aebe
00000040: 111d 3fbf 5edc a43c c66b 443f 92d7 0f3f
00000050: fc14 ad3a 405c 4b3f 81cf d7bf 327d 03bf
00000060: 80e2 26bf 2685 e73f 4139 55bf 408c a4bf
00000070: 5e3f b13f f4ed 14bf 1a3c a8bf d2ce 55bf
00000080: 9914 f03e 1686 57bf a1a0 fdbe c457 fa3a
00000090: 4259 523e 4ed6 2a3f 9d5b d2ba e058 a5bf
000000a0: 2e0e 90bf 2c15 b43e 320c 7b3f 11d7 62bf
000000b0: 3b3b 80be 5234 2f3e 7006 96bd 59d5 533d
000000c0: 7bb5 1ebf edf5 2940 1b0d 86be 3d95 9ebe
000000d0: aaab 40be d27b 49bf b702 c0bf e29a 76bf
000000e0: d219 d63e e115 8bbf 682f 0abf 83ba f8bd
000000f0: a39d 303f cf0f c4bf 54e6 e2be 21c5 c3be
00000100: f933 2abf 22ee 4d3b 05e7 8b3e 3953 973f
00000110: 8a27 e63d 608f 56c0 026c 583e 7e66 1b3d
00000120: 7fac ab3f d852 94bf f18c 02bf 370a ae3d
00000130: fa0a 9abf 79a6 99be 601f 0d3f 96c9 60bf
00000140: b477 5dbe 1745 acbe f78b 043e 9941 903c
00000150: 476f ae3f b796 de3e f3b1 3d3e d029 973e
00000160: 4729 0fc0 33fd ccbe 118c 10bf 5bba d3bf
00000170: 0f89 393e 807f 083f 6233 2cbe 1991 8cb3
00000180: c8f1 b83e bcf7 91be d874 793d b051 ed3c
00000190: cb56 e13e fd42 de3c 4f3d 1e3d 1dd1 99bd
000001a0: f989 953d c3c2 c23e 64c5 d13e 5de0 ac3b
000001b0: d66a 48be be7b b5bf 4454 e73e 6288 58be
000001c0: b187 82be 9493 19bb d42c aa3c 246b 30bf
000001d0: 0f96 0ebf 23d2 71be f4f7 b2bf 5d6d bbbd
000001e0: 80c6 803e 808b 033e 9de5 b03d fed0 f73d
000001f0: 7c96 a3be dfaf d9ba 60b9 883d ca1f 0f3f
00000200: 89f1 c7bc 672d bbbe 7f92 70bf 129a 4ebf
00000210: 3063 59bf 6451 8abe acb0 db3e c232 d13e
00000220: db33 d83c 577c 8c3c 682b cc3e 6ec2 a3be
00000230: f2de 43bc a4de 173f 5d48 2d3f 1873 44bc
00000240: da15 6f3e 10fc afbf a711 16bf e32c 92bf
00000250: 7330 1cbf 20b2 1ebf 00d2 503c 439f 22bd
00000260: 3dec 10ba 8e2c edbf b77f 8cbf b612 dd3e
00000270: 0aed 743f a3b5 bc3f 7455 80be b07b 2a3d
00000280: 1fc6 91be c787 813c 4f49 8bbd 89a0 cc3e
00000290: c5ab 9dbb 43b4 ea3f b28b ab3f aaf3 babe
000002a0: 6fbb 2b3f dc22 e9be 9352 d9be 678e c0bc
000002b0: 4553 e3be e4d1 33bf 5026 fdbe 2f52 be3e
000002c0: 0dae cc3e ed33 973f 8987 19c0 55c6 74be
000002d0: a4d4 ab3f 7b55 7b3f 5314 f0bd a9d8 013d
000002e0: 1e78 25be 549d 7b3c 0940 8abe 0af8 5ebf
000002f0: cfdc 45bf e980 a13f a1fb b23f 51f6 11bf
0.7922278 0.74537057 0.011075394 -1.3997175 -1.2146698 0.39853653 -1.1106325 -0.54818964
0.27600557 0.9011159 1.8966293 0.063665845 0.12726597 0.36861703 0.014978206 -0.34014055
-0.74653727 0.02012461 0.7672695 0.5618831 0.0013205106 0.7943764 -1.68602 -0.5136291
-0.6518936 1.8087509 -0.8329049 -1.2855301 1.3847463 -0.5817559 -1.3143342 -0.8351871
0.46890715 -0.84188974 -0.49536613 0.0019099643 0.20541862 0.66733253 -0.0016049031 -1.2917747
-1.1254327 0.35172403 0.98065484 -0.88609415 -0.2504519 0.17109802 -0.073254466 0.051717136
-0.6199567 2.655635 -0.26181874 -0.30973235 -0.18815485 -0.7870456 -1.5000829 -0.9633008
0.41816574 -1.0866052 -0.53978586 -0.12144949 0.68990535 -1.5317324 -0.4431635 -0.38236335
-0.66485554 0.0031422456 0.2732469 1.1822273 0.1123801 -3.352501 0.21134952 0.03793954
1.3412017 -1.1587782 -0.5099631 0.08498042 -1.20346 -0.3000982 0.55126 -0.87807596
-0.21627694 -0.3364646 0.12944017 0.017609404 1.3627709 0.4347436 0.18524913 0.29524088
-2.2368944 -0.40036926 -0.56463724 -1.6541246 0.1811869 0.5331955 -0.16816476 -6.545651e-08
0.36121964 -0.2850932 0.060902447 0.028969616 0.4401153 0.027131552 0.038632687 -0.07510588
0.07301707 0.38039216 0.4097091 0.0052757696 -0.19572005 -1.4178388 0.45181477 -0.21145776
-0.2549415 -0.002343391 0.020773329 -0.68913484 -0.5569772 -0.23615317 -1.3981919 -0.09151719
0.25151443 0.12846184 0.08637545 0.12100409 -0.31950748 -0.00166082 0.066759825 0.5590788
-0.024407165 -0.36558077 -0.93973535 -0.8070384 -0.84916973 -0.2701522 0.42908227 0.40859038
0.026391914 0.017149134 0.39876866 -0.31984276 -0.01195501 0.593241 0.6768854 -0.011990331
0.2334818 -1.3748798 -0.58620685 -1.1419948 -0.6101143 -0.6199055 0.01274538 -0.039702665
-0.00055283663 -1.8529222 -1.0976475 0.43178338 0.9567419 1.4742931 -0.25065196 0.041621864
-0.28471467 0.015811814 -0.06801092 0.3996623 -0.0048117363 1.8336262 1.3402007 -0.36514026
0.67082876 -0.45534408 -0.42445812 -0.023505403 -0.44399467 -0.7024214 -0.49443293 0.37172076
0.3997654 1.1812721 -2.3988974 -0.23903783 1.3424268 0.9817731 -0.117226265 0.031700764
-0.16159102 0.015357334 -0.2700198 -0.8709723 -0.7729005 1.2617465 1.3983041 -0.57016474

layer1.bias f4 [64]
00000000: 78ac a0bf 8cf8 16bf 7b32 37bf a233 0fbe
00000010: 6b88 1abf 4d9d 7cbf cc48 77bf bdaf 633e
00000020: c583 83bd 4cb6 01bf 5a81 6cbf 8ed6 80bf
00000030: cc11 41bf 3187 06bf 0ddd d5be fd9b 06bf
00000040: 04f4 b3be 23f0 3abf 9d0c 88bf 7f6d 263c
00000050: 615b 4a3e 0804 4cbf 809c b93f 12ed 32bd
00000060: b629 8f3c afaf 24bf 678d cabe b45d 0dbf
00000070: 6b70 3e3f 2bd6 f73d c86e 003f 5bfc 13bf
00000080: a620 5ebf 716b 45bf 8220 2dbf febc 21bf
00000090: ebcd 88be a310 c8be dda1 83be 5a4d 7cbf
000000a0: 2964 7bbf 5d6b c2be cbb7 47bf 99ad edbe
000000b0: 48b9 d0be b6e4 13bf b3fc 1abf 9dc2 80bf
000000c0: 8d33 e23d 7b21 f4be 1aaf cabd cc42 e9be
000000d0: 1667 d7be d0fa 39bf ba3c edbe eb76 5dbe
000000e0: de62 52be 573c 5cbf 7eda 6abf a3bb 63be
000000f0: 88e2 8dbf 998d b5be d5f4 c4be 3c98 87be
-1.2552633 -0.58973 -0.715614 -0.1398454 -0.6036441 -0.9867752 -0.96595454 0.22235008
-0.064216174 -0.5066879 -0.92384875 -1.0065477 -0.7541778 -0.52550036 -0.4177021 -0.5258177
-0.35147107 -0.7302267 -1.0628849 0.010157942 0.19761421 -0.7969365 1.4500885 -0.04368312
0.017475944 -0.6433057 -0.39561006 -0.55221105 0.74390286 0.12101396 0.5016904 -0.5780694
-0.8676857 -0.7711707 -0.6762773 -0.63179004 -0.26719603 -0.39075193 -0.2570943 -0.9855553
-0.9819971 -0.37972537 -0.7801482 -0.46421507 -0.40766358 -0.5777086 -0.6054184 -1.0059391
0.11044989 -0.47681794 -0.09896679 -0.45558774 -0.42070836 -0.72648335 -0.46335393 -0.21627395
-0.20545527 -0.8602957 -0.9173964 -0.22239546 -1.1084757 -0.35459593 -0.38468042 -0.26483333

layer2.weight f4 [64, 64]
00000000: 6294 49bf 1c05 88be 6928 08bf bfb2 c6be
00000010: 5373 8abd 6ac6 82be 7378 0a3d ee77 a3bf
00000020: 8f14 163f 227a 7a3f 5294 833f aa2e e33e
00000030: 1346 e2bd 65b6 ae3d ba97 aabe ac26 7d3b
00000040: ab21 613f 7c42 423f b554 a03f 4724 6b3f
00000050: 5541 afbf d91a 72bf 037d 913e 7dc5 b73f
00000060: bdb0 79bf 9173 8abf 6fcb 22c0 12ce 0bbe
00000070: 8ef7 9ebf ddb7 c03e db4e 35bf 7551 4cbc
00000080: 5446 44be 4ea6 36bc a193 b13c 189d 8abd
00000090: 025f 753e 0e08 fd3b 0a4f 5a3f ec10 85be
000000a0: 61b2 4bbe 52fb 063e d11b 4cbd 58aa 4b3f
000000b0: a67a 65bf bbbe 82be 76bc 0abe 90ec 503d
000000c0: 357b bcbf b8bd 4b3f 2f5a afbc 5da3 9f3f
000000d0: 1bea 72be dc27 d1bd 5732 d33d 7b07 7cbf
000000e0: d2f3 6a3e f36a 103f 66ad dcbe 03bc 5cbf
000000f0: b5ac 42bf c6f0 50bd 7571 7e3f bc43 2ebe
00000100: 8ae4 5b3c 92c2 8cbd fca6 f3bd 648e b4bd
00000110: 19f0 b7bd f9b3 893c 1290 8ebd 8ab1 a73c
00000120: 7716 903d 1842 a6bd a771 863d 1db3 6e3d
00000130: c77a 493d 890e 50be 4ca1 98bc 1365 a7bd
00000140: bc72 453d b1e6 b0bd 0ee5 7e3d e7d7 3cbe
00000150: d220 12be 778b 8dbd e054 0abe fade 06bb
00000160: 8a4e d6bd 4723 05be d382 47bd 3bdb af3d
00000170: dd90 dbbd cbb0 3fbe 3477 88be 0739 3fbc
00000180: 6bee e6bd 82e7 f2b9 7580 cfbc 2e45 c3bd
00000190: 8633 b3bc f90a 553d ca41 46be 1917 18bd
000001a0: 211a 88bd 3ae6 a23c 7608 11be 6f8d d13d
000001b0: 5d5f 0cbe 58e4 bfbc 4d65 7c3d 8817 6d3d
000001c0: 5a25 0abe c255 cb3d 8b37 abbd f313 3abd
000001d0: f6da b93d 094f 0abe f74b 22be 4709 073d
000001e0: a615 a2bb 8037 693c 3771 03be b034 31bd
000001f0: 888a 7fbe e130 bc3d 957f 153d 2939 6e3d
00000200: 9bd5 a03c 690d 81be b9da 5cbe d4b0 183f
00000210: 464d 023d cb59 24be f4c2 643d a1fc 5bbf
00000220: 4137 11bf 829a 7e3e 1b3d 24bf d4f3 7abd
00000230: 2294 8c3d 1aa3 cbbe 555c 73be b69c 503b
00000240: 1c09 893e a1ba 25bf 43a2 41bf 9cfb 01bf
00000250: 0e04 7bbf 63d1 c0be fc73 cbbd 98fb 3b3e
00000260: 89e2 88bf b393 51bf a9b4 30be 2a7f a23d
00000270: ee16 be3d c307 44bf cc92 22bf 0243 1cbd
00000280: 34b6 be3c d9c1 623c 84aa 763c 35a0 35bd
00000290: 3e93 e8be 7112 033c 9295 3abf 4bdc 83bf
000002a0: 3357 d9bc 7fcd 34bf 211a d93d 2619 7ebf
000002b0: d1a5 8e3e d3a6 0bbd 6e2b 953c 7c59 7dbd
000002c0: b661 bdbf 3c80 02bf d5ec 7abd 7d50 0dbf
000002d0: 5e6c 3f3f 12a6 413d e2ec 26bd 3b31 4ebf
000002e0: 90d3 60bf d0b4 c6be 21ff 3e3f 4540 66bf
000002f0: 834c 70bf eb7b 13bd 29f0 57bf a219 02bf
00000300: 54b6 05be 3a80 5fbe e3d3 8cbd b5eb e8bd
00000310: f018 fc3d b11b dabd 8557 38bd 56bb 2e3c
00000320: 3c4c b5bd de7b 0fbe 9b86 3dbe d5cf 343d
00000330: 2a73 28bb 77b0 73be fe0e 783d e42d e9bd
00000340: 5a1c 61bd b30c 0b3d 6850 c8bd d738 24bd
00000350: a02d b4bb 3123 95bd 9d2e 62bd 3b56 98bd
00000360: 24fc 78bd 2758 37bd 23b1 26be 2027 6cbc
00000370: d26a 7e3d 610f fcbd 7462 02be 9eb5 c9bc
00000380: d9e6 ccbd 98fc 13bd 0cc4 ae3c e2aa 313c
00000390: e875 a23b a457 ca3c 3e1b c6bc de47 16bd
000003a0: 80e7 5f3b c8c7 76bd 9b62 243c 8d3c b43c
000003b0: 47a4 ce3c 4a8d 833b 5699 82be 90d8 b23c
000003c0: 4da0 24be bcc3 d2bd 0b26 16be f07a 0fbd
000003d0: 5a0a dcbd 4dbe fe3c 11ff a0bd 7e40 fdbd
000003e0: cae9 9cbd 394b d8bd 93d3 0dbe ccc9 033c
000003f0: e142 c53d c578 1c3d 00c7 9b3c 552c a93c
-0.7874204 -0.26566398 -0.5318666 -0.38808247 -0.067602776 -0.25542003 0.033806276 -1.2770975
0.5862512 0.9784261 1.0279639 0.4437154 -0.11048522 0.08530883 -0.33318883 0.0038627787
0.87942 0.758827 1.252585 0.9185223 -1.3691813 -0.94572216 0.2841569 1.4357144
-0.97535306 -1.0816518 -2.5436666 -0.13652828 -1.2419298 0.37640277 -0.7082345 -0.012470593
-0.19167453 -0.011148049 0.02167684 -0.067682445 0.23962024 0.0077219075 0.85276854 -0.25989473
-0.19892265 0.13181809 -0.049831215 0.795568 -0.8964027 -0.2553614 -0.13548455 0.051006854
-1.47251 0.7958636 -0.021405308 1.247173 -0.23722117 -0.10212681 0.10312336 -0.98448914
0.22944573 0.5641319 -0.43101043 -0.86224383 -0.7604478 -0.05101087 0.9939187 -0.17018026
0.013421187 -0.06873049 -0.11897084 -0.08816221 -0.08981342 0.01680945 -0.06961073 0.0204704
0.07035535 -0.08118075 0.06564646 0.058276284 0.049189355 -0.20318045 -0.0186316 -0.08173575
0.048205122 -0.08637751 0.062230162 -0.18441735 -0.14270332 -0.069113664 -0.1350894 -0.0020579682
-0.10464199 -0.13001738 -0.048708748 0.08586737 -0.1072099 -0.18719785 -0.26653445 -0.011671311
-0.11275943 -0.00046330324 -0.025329808 -0.09534679 -0.021875154 0.052012417 -0.19361034 -0.037131403
-0.06645609 0.019885171 -0.14163384 0.102320544 -0.13708253 -0.023424312 0.061620045 0.05788377
-0.13490811 0.099284664 -0.08360203 -0.04542918 0.090749666 -0.13506712 -0.15849291 0.032967832
-0.0049464284 0.014234424 -0.12836157 -0.043263137 -0.24955189 0.091890104 0.036498625 0.05815998
0.019633105 -0.25205544 -0.21567811 0.5964482 0.031811975 -0.16049878 0.055849984 -0.85932356
-0.56724936 0.24863628 -0.6415574 -0.06126769 0.068641916 -0.39772874 -0.2376569 0.0031831688
0.26764762 -0.647379 -0.75638217 -0.5077455 -0.9805306 -0.3765975 -0.09934232 0.18357694
-1.0694133 -0.81865996 -0.17256416 0.07934411 0.09281717 -0.76574343 -0.63505244 -0.03814984
0.02328024 0.013840162 0.0150553025 -0.04434224 -0.45424837 0.008000002 -0.72884476 -1.0301603
-0.026530838 -0.7062606 0.10600687 -0.99257123 0.27860883 -0.034094643 0.018209185 -0.061852917
-1.4795444 -0.5097692 -0.061261017 -0.5520094 0.7477473 0.047277518 -0.040753253 -0.8054387
-0.8782282 -0.38809824 0.74608046 -0.8994182 -0.9386675 -0.03600685 -0.8435083 -0.5082036
-0.13057834 -0.21826258 -0.06876352 -0.113730825 0.12309444 -0.10649813 -0.04500534 0.010664782
-0.08852431 -0.14012095 -0.18508379 0.044143517 -0.0025703409 -0.23797785 0.060561173 -0.11385706
-0.05495868 0.033947658 -0.09780961 -0.04009327 -0.005498603 -0.07282103 -0.055220235 -0.07438322
-0.060787335 -0.044761803 -0.1627851 -0.014413625 0.06211359 -0.12307621 -0.1273287 -0.024622735
-0.10004968 -0.036129564 0.021333717 0.010843964 0.004957903 0.024699993 -0.024182912 -0.03668963
0.0034165084 -0.06024912 0.010033275 0.02200153 0.025224818 0.0040146457 -0.2550761 0.02183178
-0.16076775 -0.102912396 -0.1466295 -0.03502935 -0.10744162 0.031096602 -0.0786115 -0.123658165
-0.07661779 -0.105612226 -0.1385024 0.008043718 0.09631897 0.038201112 0.019015789 0.020651022

layer2.bias f4 [64]
00000000: a6d6 fe3e c9da 93be 2f62 d6be 4097 153c
00000010: 38a0 9c3f 4a09 14be 43ec 1bbd 1295 30be
00000020: 9811 4dbf 2a4c c6be 5ba3 9dbe 6c8b 52bd
00000030: f84e 48bd 4702 d9bd 631d 0fbe 4bcc 28be
00000040: 4e51 98be 3457 14be e809 6ebe 94a1 a5bd
00000050: fe60 8abe 9166 193f 4cc4 0cbe 6c7f 81be
00000060: d306 d2bd f803 4cbe d925 2abe 64a0 adbe
00000070: ac8a 67be fd18 a2bd 656b e8bd cd41 abbe
00000080: 2c7c 8ebe ee07 ac3d bca7 3fbe 003f 02be
00000090: d370 10be b0d4 38be 02a4 02be 53b8 4ebe
000000a0: 32e5 4cbe 5247 3dbd e4b7 eabe db70 f1bd
000000b0: 9165 0cbe 76cb 71be 6aa5 b6bd f249 bfbd
000000c0: 457b febd 4abd 813d 5b27 ecbd 885f 52be
000000d0: cfb5 70be b685 333c 9e47 123d a0ef abbe
000000e0: eca6 b8bd 3b54 2b3d 49ac f3bd 7b68 20be
000000f0: 1255 ddbd 6e9d fbbd 5195 bebd d4b1 15bf
0.4977314 -0.28877857 -0.41871783 0.009130299 1.2236395 -0.14456668 -0.038067114 -0.17244366
-0.8010497 -0.38729984 -0.30788693 -0.051402494 -0.048903435 -0.105961375 -0.13976054 -0.16484182
-0.2974953 -0.1448639 -0.23245966 -0.08087459 -0.27027124 0.5992213 -0.13746756 -0.25292528
-0.10255208 -0.19923389 -0.16616 -0.3391143 -0.22611493 -0.079149224 -0.11348609 -0.3344864
-0.2782911 0.0839995 -0.1871633 -0.12719345 -0.14105539 -0.18049884 -0.12757877 -0.20187502
-0.20009306 -0.046210594 -0.45843422 -0.117891036 -0.1371062 -0.2361277 -0.08918269 -0.09340276
-0.124258555 0.06334932 -0.11530944 -0.20544255 -0.23506854 0.010957172 0.03571283 -0.33581257
-0.09016213 0.041828375 -0.11898095 -0.15664856 -0.108072415 -0.12285887 -0.093058236 -0.5847447

layer3.weight f4 [1, 64]
00000000: ee9f 12bf 9c13 183d caa4 963e 3084 0f3d
00000010: cb00 c6bf 5a3b 2a3e 15ec 3c3d ced9 0e3b
00000020: 96b6 3a3f 93af 29be 4e3c 9d3d 3bf1 23bd
00000030: f7a5 ddbb 1334 0f3e 6814 8b3b 1059 bdbd
00000040: 1dad 0cbe a3af 44bd 1a9c e53d 77b1 9cbc
00000050: 3f35 afbb 772b 8e3f 6ece 533c 7ed0 81bd
00000060: 3d55 31be c2ed 1f3a 105b 18be 6c17 9b3d
00000070: 1f68 253d fb18 3f3c 04c0 66bc 5b15 ff3c
00000080: db10 b23c 0b32 9ebc 11d4 0a3e 3587 d3bd
00000090: a414 0b3d 3084 113c cecf 3e3d 2b78 df3d
000000a0: d583 2d3d b3b5 0dbd ed79 a43a dc2b 143c
000000b0: 9c99 11bd 5e6c 39bd 734f b9bc dc6e 8dbd
000000c0: 2103 c43d e8a0 8abc 4539 223d 0e0b 8bbb
000000d0: 4f79 21bc ec4f 8cbe af89 11be e915 50bc
000000e0: 2c88 56bd 5a6b 963d f545 2dbb 440a c0bd
000000f0: 0f51 923c 271f ed3d e14c 3ebc 1801 bc3d
-0.57275283 0.037128076 0.294226 0.035038173 -1.5468992 0.16624203 0.046123583 0.0021797302
0.72934854 -0.16570882 0.07677518 -0.040024977 -0.0067641693 0.13984708 0.004244376 -0.09245503
-0.13737912 -0.048019063 0.11211415 -0.01912759 -0.0053469236 1.1107014 0.012927635 -0.06338595
-0.17317672 0.00061007973 -0.14878488 0.07572827 0.0403825 0.011663671 -0.014083866 0.031138113
0.021736553 -0.019310972 0.1355746 -0.10328523 0.03395523 0.008881614 0.046584897 0.10911592
0.042362053 -0.03459711 0.0012548544 0.00904366 -0.035546884 -0.045269363 -0.022620892 -0.069059104
0.09570909 -0.01692243 0.039605398 -0.004243261 -0.009855582 -0.27404726 -0.14212678 -0.012700536
-0.052375957 0.073446944 -0.0026439403 -0.09376958 0.017860917 0.115782075 -0.011615009 0.09179896
