ppo_critic.pth (torch, 19799 bytes, 5 tensors)

layer1.weight f4 [64, 3]
000000 84 b4 6f bf e4 5d f6 be 1a 09 59 3f 78 1f c3 bf
       -0.9363482 -0.48118508 0.8477951 -1.5243979
000010 1b ca 45 bf d2 f7 a0 be ed b5 f3 3f 1f 28 1b 3f
       -0.77261513 -0.31439072 1.9039894 0.60608095
000020 90 26 25 3f 51 73 15 bf e2 ad 51 3f d2 42 ae 3d
       0.64511967 -0.58379084 0.8190595 0.08508839
000030 24 5a 02 3d b4 43 35 bc d7 86 30 3c aa d5 3f 3e
       0.031824246 -0.011063505 0.010774336 0.1873385
000040 05 a9 c3 be 8e b4 88 bb c3 6b a9 3e 63 df 3a 3f
       -0.3821489 -0.0041719144 0.33090028 0.7299711
000050 cf b4 1d bd a0 4b 2c 3e f1 b6 b8 bd ec fb 04 bb
       -0.03850251 0.16825724 -0.09019268 -0.0020291759
000060 cb a4 93 be af ee 69 3e 81 f2 4d 3a de 2e d7 bf
       -0.28836665 0.22844957 0.00078562653 -1.6811178
000070 21 c2 b6 bf 30 25 9e bc 87 7d f1 bd a4 8e 13 bf
       -1.4277993 -0.019304842 -0.117915206 -0.5763953
000080 92 9f 9e bb 01 4a bd 3f 1e 71 3a 3f 87 4a 13 3f
       -0.0048407996 1.4788209 0.72828853 0.57535595
000090 be 9f 18 3d c2 e5 b6 bf ad e0 7a bf dd 87 fa bf
       0.037261717 -1.4288867 -0.9799908 -1.9572712
0000a0 f1 bd bd bf 9e b3 1d bf 95 ec 71 bd 2a 6c 3e 3f
       -1.482359 -0.616022 -0.059063513 0.74383795
0000b0 63 3a b5 bc 56 da e4 bd b4 be 39 3f ac 81 33 ba
       -0.022122568 -0.11174457 0.72556615 -0.0006847631
0000c0 c2 ae c4 bf 7e 4d 94 bf d2 20 fa be 42 19 ed 3b
       -1.5365832 -1.1586149 -0.48853165 0.007235677
0000d0 87 76 37 c0 cd f2 12 bf 76 80 d3 bd 62 62 bb be
       -2.8666093 -0.57401735 -0.10327236 -0.36598498
0000e0 b4 ce 97 3c e5 c7 a1 3d 23 6f 0f bb 26 b5 05 38
       0.01853118 0.07899455 -0.002188631 3.187838e-05
0000f0 c4 d1 c9 bd ef 11 ac be b2 ee d3 bc eb 91 ad 3e
       -0.09854463 -0.33607432 -0.025870655 0.3390039
000100 6e 10 35 3f a9 a2 37 3d a0 65 d2 3f 9c 9f ee bf
       0.70728195 0.04483286 1.6437263 -1.8642459
000110 d2 9b 58 3e 5f 86 29 bf a6 04 08 40 b1 db ce 3e
       0.2115319 -0.6622066 2.1252837 0.40401986
000120 f3 2e fd be fc 24 4b 3f 35 2e 2d 3e e2 8c f2 bf
       -0.49449882 0.7935331 0.16912158 -1.8949244
000130 56 c1 46 bf 6c e3 2a bf d3 3a 3f bd 03 a1 b6 3b
       -0.7763876 -0.6675327 -0.04668696 0.0055733933
000140 81 a7 a0 b9 fd 52 91 3c 39 b3 2b c0 49 a4 4e bf
       -0.00030642378 0.017739767 -2.682814 -0.8071943
000150 26 34 e0 bf c7 b8 a6 3f bf 70 93 bf ce 28 d6 bd
       -1.7515914 1.302514 -1.1518782 -0.104570016
000160 15 97 ce 3f b0 62 7c 3e 72 85 1f 40 ec dc 20 c0
       1.6139857 0.24647021 2.4925199 -2.513484
000170 f5 a1 85 bf db 4d ca bf 7b 2d 89 bf c2 7c 00 bf
       -1.044005 -1.580501 -1.0717005 -0.50190365
000180 b2 b5 ca 3f 10 2f ba 3e 49 46 12 bd b9 0c a4 bf
       1.5836699 0.3636403 -0.03571156 -1.2816383
000190 63 3a 5c 3f 77 a0 66 3f 09 f0 98 3e a5 ff 81 3d
       0.8602659 0.900886 0.29870632 0.063475884
0001a0 34 cc bd bb 9f c2 b7 bf 9b 8a 01 3f c1 84 b7 3d
       -0.005792165 -1.4356269 0.5060212 0.08960868
0001b0 a7 ed ab 3e 1a 1d 55 bf d3 43 4f 3c 4b 7f ca bf
       0.33579752 -0.8324753 0.012650448 -1.5820097
0001c0 bc c2 0c 40 bf eb 2f 3f 4e cd f6 bf bc ca ce bf
       2.1993856 0.68719095 -1.9281404 -1.615562
0001d0 e4 bd 1f bf bc 0d af be 6d b8 83 3f c0 8b 87 bb
       -0.62399125 -0.34190166 1.0290657 -0.0041365325
0001e0 d1 94 8f be 0d 56 72 3e 38 97 cb 38 ff 8c a7 bf
       -0.28043225 0.23665638 9.707961e-05 -1.3089904
0001f0 07 c4 10 bf b2 10 2f be ec 5d aa bf 03 ae 13 40
       -0.56549114 -0.17096213 -1.3309913 2.3074958
000200 c6 33 1a 3f 50 4d 8a 3f fb f5 12 bf 7e f1 8c 3c
       0.6023525 1.0804844 -0.57406586 0.017204996
000210 00 8c 4e be 71 53 1d 40 23 d8 e9 3e d6 09 04 c0
       -0.20170593 2.4582179 0.45672712 -2.0631003
000220 d7 0f b6 3f 84 b9 a5 be 9f 60 2d 3f 9c 3c fa 3d
       1.4223584 -0.323681 0.6772556 0.122185916
000230 11 ba 79 bc 83 24 9a 3e ba 78 9c bd c7 da a5 3c
       -0.015242116 0.3010598 -0.07640214 0.020245923
000240 87 c3 10 40 44 55 2d c0 aa 7f 80 3e d9 08 f6 bd
       2.261934 -2.7083292 0.250974 -0.12013406
000250 c0 ea 2a 3e ab d9 45 3c 54 80 f4 be d9 48 4f 40
       0.16691113 0.012075822 -0.47754157 3.2388213
000260 4a aa 2a 3f 49 4d bf 3f ac e7 be 3f 90 59 d0 be
       0.6666609 1.494546 1.4914451 -0.4069333
000270 ee 89 dd be 3e 1b 9a 3e c7 29 52 3c 55 24 9a 3d
       -0.43269295 0.3009891 0.012827343 0.07526461
000280 b5 01 2e 3e 4c 02 8c 3a ce 8f fb 3d ee b5 33 be
       0.16992839 0.0010681837 0.12283288 -0.1754987
000290 d7 a8 f5 bb cc c6 de be 5e 66 c5 3e 95 4a f7 3a
       -0.007496934 -0.43511045 0.38554662 0.0018866832
0002a0 4c 88 02 3e 68 9f fd 3d c3 b4 0d bc ba ac 69 40
       0.12747306 0.1238392 -0.008649054 3.6511674
0002b0 fb a8 aa bf 9a 28 01 bf 96 1e d8 be 6f 9e f2 bd
       -1.3332819 -0.5045258 -0.42210835 -0.11846625
0002c0 c5 78 be bc de e2 e0 3d 69 bd f8 3d f3 d5 52 3d
       -0.023250947 0.109807715 0.12145502 0.05147357
0002d0 a4 80 e1 bf 4e 2f c1 bf 78 38 0e bf 53 1b 85 3f
       -1.7617383 -1.5092561 -0.55554914 1.0398964
0002e0 38 d5 e3 be 79 6e dc bd e6 3c 67 3f 48 f7 5a be
       -0.4449861 -0.107632585 0.903273 -0.21383393
0002f0 2b 85 1a 3f 82 f9 fa 3d 87 f4 e9 bd d2 64 ec 36
       0.6035945 0.12254621 -0.11423593 7.045085e-06

layer1.bias f4 [64]
000000 e8 67 60 c0 66 34 8c 3f 32 ae 01 c0 e8 b3 db bf
       -3.506342 1.0953491 -2.026257 -1.7164278
000010 75 f1 8b be 22 c7 ef be cb f8 e1 3e 31 23 68 be
       -0.27332655 -0.46831614 0.44135126 -0.22669674
000020 65 7a c1 be a3 00 86 bf 7c 3c 23 bf df a6 01 c0
       -0.37788692 -1.0468944 -0.63764167 -2.02581
000030 75 4f dd bf 05 45 9f be 82 08 6a bf f1 7d 4c bf
       -1.7289873 -0.31107345 -0.9141923 -0.7987967
000040 54 38 8c 3f 27 28 2a bf 4f 73 13 bf 1a fe d7 bd
       1.095469 -0.6646752 -0.5759782 -0.10546513
000050 e5 a0 0e bf 11 6c a1 3d e6 a5 80 bf 36 90 3e be
       -0.55714256 0.0788194 -1.0050628 -0.186097
000060 ba 99 34 bf 68 b0 e8 3f 62 e3 61 bd 09 e7 56 bf
       -0.7054707 1.8178835 -0.05514849 -0.8394628
000070 f7 be d7 bf 37 22 64 bf 90 fd 17 be d5 02 97 3f
       -1.6855153 -0.8911471 -0.1484282 1.1797739
000080 9e ea ec bf 77 25 40 c0 d6 a2 c2 be 1a bd 43 3f
       -1.85091 -3.0022867 -0.3801486 0.7646042
000090 21 50 92 bf 77 37 47 3f 72 82 ab 3f 81 ca 98 bf
       -1.1430703 0.7781901 1.3399184 -1.1936799
0000a0 9c 22 c5 be c5 0f fb 3e 7e 0a bb 3e c5 c2 ad bf
       -0.38502967 0.4903547 0.36531442 -1.3575064
0000b0 60 75 32 bf 5e 8c 59 bf b4 7a 4a bf 24 b6 09 bf
       -0.6971035 -0.8497981 -0.7909348 -0.5379355
0000c0 1a aa 00 c0 68 cd cb be 2e 89 aa be 52 b5 55 bf
       -2.0103822 -0.3980515 -0.33307785 -0.834798
0000d0 23 2f 24 bf 61 0f 5b be e0 c6 9b be f1 de 26 bf
       -0.64134425 -0.21392585 -0.30425167 -0.6518393
0000e0 e6 43 72 be 45 26 87 3f dd 0e 45 bf 73 09 4c bf
       -0.23658714 1.0558554 -0.76975805 -0.7970192
0000f0 f5 f4 95 3f bc 0e da bf 44 7b 5d c0 ec 99 32 be
       1.171538 -1.7035747 -3.4606485 -0.17441529

layer2.weight f4 [64, 64]
000000 a3 6d 19 be c4 72 81 be b6 62 ff bd 10 6f cb bd
       -0.1498323 -0.25282872 -0.124699995 -0.09933293
000010 6d 4d 05 be 5c ab 93 be d4 90 d5 be 9f 3a 66 3d
       -0.13017817 -0.28841674 -0.41712058 0.05620825
000020 b7 d8 b7 be fd 56 51 be 93 3f 84 be e3 20 9c be
       -0.35907528 -0.2044334 -0.25829753 -0.3049384
000030 46 98 fa be e2 6c 3d bf 24 fc d4 be 4c 47 32 be
       -0.489443 -0.73994267 -0.41598618 -0.1741001
000040 36 d2 4e bc 4e e3 5f be ce 39 9d be 56 bb 9b bd
       -0.01262336 -0.21864054 -0.30708164 -0.07604091
000050 8c f0 d5 bd 12 26 f5 be f7 92 af bb dc 4d 6f be
       -0.10446271 -0.47880608 -0.0053580957 -0.23369545
000060 04 01 92 be bf d9 1c 3e e3 ef 8c bd 9d 5a 00 bf
       -0.285164 0.15317439 -0.06881692 -0.50138265
000070 2d 13 4a bf 07 4e b1 be ab a5 8e be f6 12 bb 3d
       -0.7893551 -0.34629843 -0.2786077 0.09134476
000080 d6 b5 7c be 9e e9 c2 be 8d 4d 9c 3c 50 d5 6c be
       -0.2467874 -0.3806886 0.019079948 -0.23128247
000090 6b 26 a7 bd 91 b7 c1 bc 56 41 14 3d c6 83 57 be
       -0.081616245 -0.023647102 0.03619512 -0.21046361
0000a0 16 e7 9b bd 3c bf d3 be d4 9e ec ba 36 ed e1 bd
       -0.076124355 -0.41356838 -0.0018052706 -0.110315725
0000b0 c8 11 4d be 25 bd cc bd a8 51 4c bd 89 26 1a bc
       -0.20026314 -0.09997014 -0.04988256 -0.009408602
0000c0 f0 6d 8c be 7c 2a b3 3c ed ba 78 be b6 01 f0 be
       -0.27427626 0.021870844 -0.24290057 -0.46876305
0000d0 3b 85 5a be cc 2d 07 be 83 08 85 bd 24 89 90 be
       -0.21339886 -0.13201064 -0.06495764 -0.2822963
0000e0 aa 13 25 be e0 98 a0 3d a5 36 7c bd 23 81 5c be
       -0.16120782 0.078416586 -0.06157555 -0.21533637
0000f0 3c ab 6b 3e 2f bb 2c be 45 27 cc be 9b b9 cb bd
       0.2301454 -0.1686828 -0.3987371 -0.09947511
000100 33 51 88 be 94 fd 6d be 71 af 79 be ee 73 8f 3e
       -0.2662445 -0.23241264 -0.24383332 0.28018135
000110 c8 60 99 bd e3 3c 5a 3c 39 85 be bf 04 47 ed 3c
       -0.07489163 0.013320181 -1.4884406 0.028964527
000120 d9 ae 0a bf 0a 3c 12 bf ab 44 9e be 89 b2 0d be
       -0.54173046 -0.5712286 -0.30911765 -0.13837637
000130 0a bc a2 bf 87 0c b3 bf 44 f1 27 bf 17 50 21 3e
       -1.2713635 -1.3988198 -0.6560252 0.15753208
000140 87 e2 5b 3d 99 3f d3 3e 2a ce c2 bd 9a 20 27 bc
       0.05368283 0.4125946 -0.09511979 -0.010200644
000150 7f 69 52 3c 89 9f aa bf be f0 30 3d d1 fc e4 be
       0.012842535 -1.3329936 0.04319834 -0.44724134
000160 9b 90 c0 be 88 2c 27 3e 33 73 45 bc 6f ed 90 3e
       -0.37610325 0.16325581 -0.012051391 0.28306147
000170 16 1c c1 bf b9 45 4d bf d4 c8 f8 be 1c 28 1f 3e
       -1.5086696 -0.80184513 -0.4859072 0.15542644
000180 72 c7 37 be 41 54 28 bf d6 2f 9b bd 4b fb 62 bf
       -0.17947176 -0.6575356 -0.07577483 -0.8866469
000190 02 9d 07 be 49 d8 af be 3a 0d 11 3e 98 af e8 3d
       -0.13243487 -0.343447 0.14165202 0.11361617
0001a0 25 89 cf bd 48 4d 5a bf e2 c7 dd be 10 2e 32 be
       -0.1013358 -0.8527417 -0.4331656 -0.17400384
0001b0 05 32 ac be 8d e8 b9 bf 70 48 b1 bc 89 70 08 3d
       -0.33631912 -1.4524094 -0.021640986 0.033310447
0001c0 99 36 53 3f c8 55 3b 3b 1f b4 4d bf f7 a1 a2 bf
       0.82505184 0.0028585065 -0.8035297 -1.2705678
0001d0 92 3d 5d be 2d 22 f2 3d d1 d6 8b 3d 0b 1d 4e be
       -0.21605518 0.11822925 0.06828082 -0.20128267
0001e0 62 89 22 bd 07 6e bb 3c 09 b1 0a 3e 5b 26 9b be
       -0.0396818 0.022879614 0.13544096 -0.303027
0001f0 bb 3b 30 3e a6 ef 58 be 65 f1 78 be 1f 27 f9 3d
       0.17210285 -0.21185169 -0.24310835 0.12165665
000200 78 2c d3 3d 90 86 20 bd 3c d4 4f bd 4c 01 44 3d
       0.10311216 -0.03919083 -0.05073951 0.0478528
000210 38 7e bb bc e3 b0 a8 bd 58 9f e9 3c ea eb ed bd
       -0.022887334 -0.082368635 0.028518364 -0.11617263
000220 a7 06 4a bd 17 40 35 bc 3b de fa bd 24 10 0c 3d
       -0.04932275 -0.0110626435 -0.12249418 0.03419508
000230 54 9d 19 be 4c ae d5 bd af 4e e4 bd b0 28 66 bd
       -0.15001422 -0.10433635 -0.1114782 -0.056191146
000240 fa d1 12 bd 3b f8 cc bd 6c ba c8 bb ba f9 c1 bd
       -0.03584478 -0.10008284 -0.006125739 -0.0947146
000250 80 e3 66 bd 52 d7 de bd 21 83 55 bd 9a ec 0a be
       -0.056369305 -0.10880913 -0.052127007 -0.13566819
000260 b3 4f b0 bd 35 07 ff bd fd 40 10 bd ee 7c bc 3b
       -0.086089514 -0.124525465 -0.035218228 0.0057521975
000270 28 17 be bc 20 01 ec 3b 3c ed 79 bd b3 3b 0b 3d
       -0.023204401 0.0072022825 -0.06101726 0.03399248
000280 16 98 0a 3d b4 db 84 3d d3 79 8b bd 7c c4 a2 3a
       0.033836447 0.064872175 -0.068103455 0.0012418176
000290 c8 3d be bd ac dd fd bd 1c 8e e7 3c e0 e1 71 bd
       -0.092891276 -0.12395796 0.028266005 -0.0590533
0002a0 60 e5 24 3c 01 8a 11 be 8c 61 d7 bd e0 5e 87 bd
       0.010064453 -0.142128 -0.105166525 -0.06609893
0002b0 5a ea a9 3d e4 a0 92 bd 0d a5 04 be cf 89 c2 3c
       0.08296652 -0.07159594 -0.12953587 0.023747353
0002c0 b0 68 c6 bc 44 88 b3 3d 30 64 02 bd ea 48 90 bd
       -0.02421984 0.08766225 -0.031833827 -0.07045157
0002d0 30 b7 24 3d e2 a6 c7 3d d6 fb b9 3d 22 a3 97 3d
       0.040213764 0.09748627 0.09081237 0.07404162
0002e0 fc 46 f1 bd 04 b0 47 bd 80 c7 e1 bd c0 02 9f 3b
       -0.11781117 -0.048751846 -0.1102438 0.0048526227
0002f0 6c c7 d0 bb bd 34 db 3c be 65 ee bd 70 60 3e bd
       -0.006371429 0.026758546 -0.116404995 -0.04647869
000300 34 14 b9 bd 13 18 d3 bd d4 89 ab bc 28 71 08 bc
       -0.090370566 -0.10307326 -0.020939745 -0.00832776
000310 f4 1f a3 bd ed 8e 31 be 1b 51 0d be 78 48 6e bd
       -0.07965079 -0.17339678 -0.1380047 -0.05817458
000320 06 5d df 3c d2 95 a3 bd c7 c7 46 bd b8 53 ce bd
       0.027266037 -0.0798756 -0.048530366 -0.10074562
000330 70 d0 1a 3c 60 60 c7 bd ad 96 62 3d be 04 77 bd
       0.009449109 -0.09735179 0.055319477 -0.060307257
000340 b5 89 ea bc 2f 0e e9 bd 43 20 f2 bd d4 f5 3d 3d
       -0.028630117 -0.113796584 -0.1182256 0.046377018
000350 7f 18 26 3d 95 09 50 3c 84 a4 4e bd 05 97 1c 3d
       0.040550705 0.012697597 -0.050449863 0.03822996
000360 41 77 c6 bd 74 6f fe bd 53 e5 13 bd 92 07 f4 bd
       -0.09690715 -0.12423602 -0.036107372 -0.119155064
000370 60 d8 ca 3d 32 db d5 bc 1a 2a 42 bd 13 81 88 bd
       0.099045515 -0.026105497 -0.047403432 -0.06665244
000380 68 bf c7 3c 16 2c 12 be 00 93 f1 bd 43 d1 e4 bd
       0.024383262 -0.1427463 -0.11795616 -0.11172726
000390 8f f5 5c 3d 6f 4e 01 bd 9c f8 7e 3d 2c 70 f4 bd
       0.05394512 -0.03156894 0.06224881 -0.119354576
0003a0 95 5d 03 bc 43 58 2c 3c 68 c4 cd bd d5 d9 9d bd
       -0.008017917 0.01051909 -0.10047227 -0.07707564
0003b0 a3 e6 05 3d 37 aa a1 bd 7c 85 7c bd 02 33 db bd
       0.032690655 -0.07893794 -0.061650738 -0.10703088
0003c0 0d 1f 42 3d e9 28 20 3d 5c e6 8e 3d 7c 39 b5 bd
       0.047392894 0.039101515 0.06977531 -0.08848855
0003d0 b4 8d e1 bc e6 31 30 be 2e b1 82 3d 04 0b 29 be
       -0.02753339 -0.17206535 0.063814506 -0.16508108
0003e0 c6 55 47 3d 00 5a 4d ba 22 79 09 be 3d 5a 02 bc
       0.048665784 -0.00078335404 -0.13425115 -0.007956085
0003f0 ad 59 1b be c8 fa 9b 3d 74 c3 0e 3d d0 48 c9 bd
       -0.15170927 0.07616192 0.034854367 -0.09828341

layer2.bias f4 [64]
000000 8a 51 aa 3e 7d 03 c2 3e 14 72 b1 3c f3 25 0b be
       0.33265334 0.37893286 0.021660842 -0.13588695
000010 70 a5 1a be 0f 9f 0b be 79 61 26 3f da da da be
       -0.15102172 -0.13634895 0.6499248 -0.42745095
000020 5e e9 1a 3c d5 41 19 bd 22 b4 de 3e 1e 66 db 3f
       0.009455053 -0.037416298 0.43496805 1.7140539
000030 68 e2 f5 3e 88 6c 3b 3f c3 99 9d be b8 f5 56 bb
       0.48024297 0.7321248 -0.30781373 -0.0032800268
000040 f9 48 ab 3f 62 b1 32 40 d8 85 2a 3e 7b 85 8c 3e
       1.3381644 2.7920766 0.1665262 0.27445588
000050 04 f9 18 3f f7 b4 29 bd 8b 0f 0a 40 53 b8 19 bf
       0.5975497 -0.041432347 2.1571987 -0.6004688
000060 dc d0 2c be b2 4c cf 3f 97 2e dc be 89 eb a0 bd
       -0.16876549 1.619528 -0.43004295 -0.07857425
000070 55 d5 e9 3f 32 db d6 bd d6 13 f9 3f 2d 31 e2 3f
       1.8268229 -0.10491027 1.9459178 1.7671257
000080 d3 a2 1b 3f 88 71 ea 3e aa 8e 14 be 37 15 26 3d
       0.60795325 0.45789742 -0.14507547 0.040547576
000090 77 ec 4b 3c 1c 2b d9 3f be 95 dd bd 00 43 af bb
       0.012446514 1.6966281 -0.10819577 -0.005348563
0000a0 e4 66 83 bb 49 8b d4 bd ec f8 71 be 8f d8 84 3f
       -0.0040100683 -0.10378129 -0.23630112 1.0378588
0000b0 f3 8d 29 be 38 eb 65 3e 0f 1b 53 bc b7 de 15 bf
       -0.16558056 0.2245301 -0.012884869 -0.5854296
0000c0 24 ba 97 3f 66 97 1d be b8 20 a0 be 29 78 f6 3c
       1.1853681 -0.15389785 -0.31274962 0.030086594
0000d0 fa 6d 9b 3c 17 2c 11 3f d4 0f cc 3f e9 2a 9c 3e
       0.01897334 0.567079 1.594233 0.30501488
0000e0 34 1a 05 3d ff 83 83 3c 2b 29 f8 3e ff 73 82 3f
       0.032495692 0.016054152 0.4846891 1.0191649
0000f0 c0 43 e2 3d 4d 65 db 3f a2 51 9f 3c a5 67 75 3d
       0.110480785 1.714029 0.019448105 0.059913296

layer3.weight f4 [1, 64]
000000 80 cb 2d ba 42 a6 1b be 4b 50 79 3d 1b 1c c1 bc
       -0.000662975 -0.15200141 0.06086759 -0.023572972
000010 62 d9 e3 bd 68 a7 8d 3c e4 1f ac bd 40 93 1a 3d
       -0.11125447 0.01729174 -0.0840452 0.037738085
000020 9f 8e ab 3c 8f 5c 23 3d 23 39 87 bc 5f fd d9 be
       0.02094203 0.039883193 -0.016506737 -0.4257612
000030 50 22 fc 3d 77 19 a3 bd cc 38 30 be b3 45 2b 3d
       0.12311232 -0.079638414 -0.17209166 0.041814517
000040 fe 17 62 be 82 26 09 c0 57 30 84 3c 80 ee 2d 3e
       -0.22079465 -2.1429753 0.016136331 0.16985512
000050 22 b6 bd bf 06 9f 45 3d 81 21 26 bf 21 88 ce 3c
       -1.4821208 0.04824736 -0.6489487 0.025211396
000060 fa c4 18 3e 83 fb a2 be 05 f1 72 3e c1 e1 aa bd
       0.1491889 -0.31832513 0.23724754 -0.083438404
000070 c9 a3 0e bf 6e 80 d2 3d 11 b8 0e 40 54 28 fb be
       -0.55718666 0.10278402 2.2299845 -0.49054205
000080 ea 0c b5 bd 48 de f9 3c 2f 9f 3d be 78 cf ed bb
       -0.08840354 0.0305015 -0.18517755 -0.007257398
000090 20 60 57 3d d8 32 b1 be 72 f7 94 3d 14 fc 62 be
       0.052581906 -0.34609103 0.07273759 -0.22166473
0000a0 ec 28 78 bc ab 98 2f 3c 70 5b 84 3d f4 b8 c3 bd
       -0.015146475 0.010717551 0.06462753 -0.095567614
0000b0 ba cb ff bb d4 db 5d bd 7b 67 95 3d ac ab 7e be
       -0.0078062685 -0.054164723 0.07295128 -0.24870175
0000c0 b4 cd cb bd 32 df 1b bc 83 b6 da 3d ac a6 2e 3d
       -0.09951344 -0.009513663 0.106793426 0.04263942
0000d0 5c 67 27 3d e2 88 5d ba a0 23 d3 3f dc 2a 2b 3d
       0.040870056 -0.0008450878 1.6495247 0.04178892
0000e0 ff 33 1d 3c 36 9a 3c 3d ad 22 52 3d cd d8 7a bf
       0.009594916 0.046045505 0.0513026 -0.9798706
0000f0 80 29 6c be f2 4b cf be 50 d3 0c 3d a7 6d 04 3d
       -0.23062706 -0.4048763 0.03438121 0.032331135
