PPO-for-Beginners/ppo_actor.pth (torch, 19543 bytes, 6 tensors)

layer1.weight f4 [64, 1]
-0.0021438708 -0.00482542 0.045353383 0.81113607 0.36063176 -0.55480576 0.5427041 -0.16088414
0.30666 -0.051598743 0.27296486 0.5436648 0.0004284558 0.20301862 0.6649303 0.36024576
-0.9160081 -1.3381525 0.47612652 0.75174993 0.30918762 -0.10049261 0.650144 0.9331067
-0.0068374677 0.16462916 0.062890306 -0.5621236 -1.1309203 0.3423175 0.63048154 0.031565823
-0.006094635 0.4293484 0.49664623 -0.9354386 0.20648229 -0.4668373 -0.005480144 0.8454128
-0.54882514 -0.0043640346 -0.49928904 -0.8049428 -0.0061524054 0.27163318 -0.79547983 -0.44371
-0.8841174 -0.0070034442 -0.006521801 -0.9325185 -0.5740461 0.71565634 0.12329586 0.45385256
0.43606564 -0.6121516 -0.55016327 0.8190238 0.017645417 0.9551869 0.46161112 -0.010884991
00000000: 2f80 0cbb 8f1e 9ebb 78c4 393d 9da6 4f3f
00000010: baa4 b83e c007 0ebf a8ee 0a3f d0be 24be
00000020: 8a02 9d3e 3459 53bd 0dc2 8b3e 9e2d 0b3f
00000030: 5da2 e039 1de4 4f3e df38 2a3f 2272 b83e
00000040: 827f 6abf 9548 abbf dbc6 f33e af72 403f
00000050: d74d 9e3e 12cf cdbd d66f 263f 15e0 6e3f
00000060: d60c e0bb 8c94 283e a2cc 803d 55e7 0fbf
00000070: ffc1 90bf 3d44 af3e 3d67 213f 2a4b 013d
00000080: 81b5 c7bb 8ed3 db3e 6a48 fe3e e778 6fbf
00000090: 1870 533e 4c05 efbe c892 b3bb f96c 583f
000000a0: ce7f 0cbf 2d00 8fbb d0a2 ffbe bb10 4ebf
000000b0: 1e9a c9bb 8113 8b3e 91a4 4bbf f52d e3be
000000c0: 8555 62bf 267d e5bb d5b4 d5bb 88b9 6ebf
000000d0: aff4 12bf 4135 373f 8a82 fc3d 5d5f e83e
000000e0: ff43 df3e f8b5 1cbf 80d7 0cbf 8bab 513f
000000f0: 1f8d 903c 2187 743f 4b58 ec3e f656 32bc

layer1.bias f4 [64]
-0.18042141 1.6440773 1.1338977 -0.4333423 0.8990776 0.9571021 1.434004 -0.9273697
-0.640627 -0.5936105 0.06585704 -1.3922108 -0.29349488 -0.812214 0.2133411 -0.17161962
-0.01129017 0.468263 0.8858459 1.1917932 -1.2153491 -0.8070693 -1.3516686 -0.3509562
1.2648777 -0.58395964 1.3199928 0.51651764 0.46989956 -1.3580308 -1.0531514 -0.47343582
1.2011397 -0.5784387 0.73951054 -0.052592974 1.1046464 0.6498749 0.8226882 0.37785903
0.93677443 -0.90112317 0.4033785 0.79218435 1.095351 -0.982109 -0.12022024 0.5135549
-0.04956651 1.1508999 1.2922221 0.44714186 0.6118973 -0.68905437 -0.08903276 -1.46204
-1.6310767 0.39084303 0.93064594 0.7073668 0.72454655 0.2386333 0.46256825 1.8142946
00000000: 64c0 38be 2071 d23f 8f23 913f 0bdf ddbe
00000010: f329 663f a504 753f 718d b73f 1a68 6dbf
00000020: 2200 24bf dcf6 17bf 0ee0 863d f733 b2bf
00000030: f644 96be 42ed 4fbf 1776 5a3e 0ebd 2fbe
00000040: 68fa 38bc 2bc0 ef3e ccc6 623f ae8c 983f
00000050: 8f90 9bbf 189c 4ebf 7a03 adbf 88b0 b3be
00000060: 83e7 a13f 617e 15bf 86f5 a83f 803a 043f
00000070: ad96 f03e f4d3 adbf aacd 86bf 2e66 f2be
00000080: f2be 993f 8f14 14bf 9050 3d3f bb6b 57bd
00000090: 0e65 8d3f 345e 263f b29b 523f bd76 c13e
000000a0: 73d0 6f3f 02b0 66bf a087 ce3e 98cc 4a3f
000000b0: 7634 8c3f 7f6b 7bbf 0736 f6bd 5578 033f
000000c0: 4106 4bbd b050 933f 8967 a53f c7ef e43e
000000d0: 4da5 1c3f de65 30bf cf56 b6bd 2024 bbbf
000000e0: 1fc7 d0bf 941c c83e d03e 6e3f fe15 353f
000000f0: e27b 393f 4a5c 743e bfd5 ec3e ce3a e83f

layer2.weight f4 [64, 64]
0.008136056 -0.17620997 0.10014357 0.06836189 0.09951977 -0.14698608 0.11157551 0.026402147
-0.03959645 0.09229348 -0.080377065 0.072548755 -0.11354821 -0.06624536 -0.1121407 0.031457163
-0.19686435 0.03544825 0.103568465 -0.055054743 -0.020305915 -0.08507655 0.05508881 -0.0060743736
-0.3865915 0.01677466 0.071368724 -0.20612764 0.060258478 -0.09840372 -0.0441558 -0.010624234
-0.23104708 -0.01164923 0.054406594 0.0039178147 -0.06501014 0.0031249807 0.027194528 0.11267388
-0.040511355 0.046750173 -0.06755238 -0.16102646 -0.112171374 -0.039408777 0.07737245 -0.12901562
-0.13179907 -0.027333431 -0.3023631 0.033100147 -0.121325046 -0.05484756 -0.06517141 -0.07478401
-0.092515334 -0.22230005 -0.05319546 -0.03132404 0.056069344 0.006715403 -0.08831811 -0.2712791
0.07290061 0.2960938 -0.21223114 0.19137867 -0.030321874 0.4421934 -0.08059577 -0.14347571
-0.18368301 -0.049532007 -0.014251536 -0.09320394 -0.0727661 -0.13853323 0.06277997 0.048990395
0.2466348 0.5399724 0.026741548 -0.14352581 -0.2628481 -0.11396498 -0.3334556 0.17517191
0.44409856 -0.12003348 -0.19593826 0.46494913 0.48899257 -0.14652812 -0.11427699 0.056022283
0.3185517 -0.075380966 -0.06848248 0.15014984 -0.2633276 0.4200121 0.12196323 -0.06192438
0.3676875 0.10299018 0.5959461 0.5386523 0.4665233 -0.185946 0.05887862 0.45001313
0.28725523 0.4245627 0.4111733 0.44571066 0.49742082 0.033104006 -0.14468706 -0.16806611
-0.30099046 0.49820307 0.45819768 -0.04601972 -0.2331424 -0.14113583 -0.14125158 0.30388808
-0.03429883 -1.5749072 0.039496716 -0.0037712904 -0.019242724 0.050582632 0.07840064 0.06967445
0.10092025 0.10764328 0.04709257 -0.012170161 -0.034360934 0.08454648 -0.00973601 -0.049898352
-0.07120209 -0.149807 -0.0068425518 0.092801 0.077960685 0.102218956 0.02308855 0.08315491
-0.69834113 0.0393617 -0.09219643 -0.17797333 0.037303966 0.012007368 0.03377481 -0.13833942
-0.90322214 -0.113470264 -0.10499986 0.10638389 0.046877764 -0.10590933 -0.06617093 0.01083671
-0.09173197 0.038869713 -0.0026901457 -0.18411729 -0.41424388 -0.115667135 -0.05454041 -0.18896416
-0.081606984 -0.59801114 -1.0306662 0.050264716 -0.12306585 -0.020508789 -0.00746819 -0.06793588
0.06471799 -0.20074281 0.10157932 0.12617177 0.09894716 0.002590752 0.032820504 -0.84802616
-0.050895795 -0.016055582 0.08226915 -0.12777318 -0.09654417 0.14294708 -0.017587531 -0.058338646
-0.04299473 -0.07698603 0.050935037 0.015187106 -0.031741817 -0.07441481 0.070789725 0.0066074096
0.17627552 0.070702806 0.032871168 0.117073685 0.05919706 -0.065441124 0.10695602 0.053144455
-0.07473559 0.07393291 -0.10640997 0.173545 -0.07696063 0.003000339 0.114616714 -0.05663411
0.21357507 0.013507217 0.011794962 -0.3228094 0.0705349 0.07781419 -0.016357565 0.09464381
0.03657401 0.12000145 -0.1057406 0.054483917 0.16070485 0.10702015 -0.23984012 0.1766027
-0.35074246 0.014793508 -0.023520492 -0.37893122 0.18157634 -0.09251699 -0.051800434 0.07365122
0.044955626 0.09670668 0.08172533 0.11775589 -0.027155435 -0.10518596 0.05184988 0.22453944
00000000: 184d 053c 6370 34be 1218 cd3d 5201 8c3d
00000010: 05d1 cb3d 8583 16be b381 e43d 5149 d83c
00000020: e32f 22bd 5d04 bd3d bb9c a4bd 7194 943d
00000030: f78b e8bd a6ab 87bd 06aa e5bd 3ad9 003d
00000040: cf96 49be 2f32 113d b41b d43d 1581 61bd
00000050: 9758 a6bc 9d3c aebd cea4 613d 8a0b c7bb
00000060: 52ef c5be 036b 893c c429 923d 2013 53be
00000070: 98d1 763d e487 c9bd b6dc 34bd 4411 2ebc
00000080: 9b97 6cbe 69dc 3ebc 73d9 5e3d 0361 803b
00000090: 0924 85bd 7acc 4c3b 0fc7 de3c 90c1 e63d
000000a0: 3cef 25bd 1c7d 3f3d e758 8abd 1fe4 24be
000000b0: 1bba e5bd 196b 21bd 7275 9e3d ac1c 04be
000000c0: 56f6 06be 5cea dfbc 56cf 9abe 0594 073d
000000d0: 4479 f8bd d6a7 60bd 9778 85bd 5c28 99bd
000000e0: ae78 bdbd a0a2 63be 7ce3 59bd a34d 00bd
000000f0: f8a8 653d e20c dc3b 20e0 b4bd 18e5 8abe
00000100: ea4c 953d 9b99 973e 1f53 59be c5f8 433e
00000110: 9465 f8bc 2c67 e23e 650f a5bd 4ceb 12be
00000120: 6617 3cbe 13e2 4abd 467f 69bc b5e1 bebd
00000130: 6506 95bd a8db 0dbe c992 803d 27aa 483d
00000140: d58d 7c3e a23b 0a3f 1711 db3c 6ef8 12be
00000150: 0794 86be 7966 e9bd b1ba aabe 4460 333e
00000160: e360 e33e 1dd4 f5bd 0aa4 48be d00d ee3e
00000170: 3c5d fa3e 780b 16be 0e0a eabd 9f77 653d
00000180: 3519 a33e 5661 9abd 8b40 8cbd e1c0 193e
00000190: e0d2 86be d30b d73e dcc7 f93d 6ba4 7dbd
000001a0: 8941 bc3e 84ec d23d ec8f 183f 1ee5 093f
000001b0: 24dc ee3e a168 3ebe b52a 713d 1f68 e63e
000001c0: 1e13 933e 4860 d93e 4f85 d23e 3034 e43e
000001d0: f1ad fe3e 1198 073d d828 14be 8619 2cbe
000001e0: 6c1b 9abe 7914 ff3e e398 ea3e 2d7f 3cbd
000001f0: e2bc 6ebe e985 10be 41a4 10be 3897 9b3e
00000200: ee7c 0cbd 8f96 c9bf 4fc7 213d c127 77bb
00000210: eba2 9dbc bc2f 4f3d 8490 a03d 7ab1 8e3d
00000220: 47af ce3d 1474 dc3d 24e4 403d 5b65 47bc
00000230: 0dbe 0cbd b426 ad3d c983 1fbc 3762 4cbd
00000240: 67d2 91bd 0267 19be 7c37 e0bb 730e be3d
00000250: daa9 9f3d 2c58 d13d 3324 bd3c 1f4d aa3d
00000260: 7cc6 32bf bc39 213d 7bd1 bcbd a43e 36be
00000270: 0bcc 183d 8dba 443c 7557 0a3d d9a8 0dbe
00000280: 9139 67bf 1963 e8bd 2b0a d7bd ccdf d93d
00000290: e602 403d fee6 d8bd a084 87bd 758c 313c
000002a0: f9dd bbbd d935 1f3d 284d 30bb 3e89 3cbe
000002b0: c617 d4be e4e2 ecbd c465 5fbd d27f 41be
000002c0: 9021 a7bd 4217 19bf dfec 83bf 60e2 4d3d
000002d0: f309 fcbd 0c02 a8bc b8b7 f4bb f721 8bbd
000002e0: de8a 843d 868f 4dbe d208 d03d 2c33 013e
000002f0: cfa4 ca3d 9bc9 293b cb6e 063d 3e18 59bf
00000300: 1c78 50bd ff86 83bc ba7c a83d f9d6 02be
00000310: f3b8 c5bd b860 123e ba13 90bc 81f4 6ebd
00000320: 3e1b 30bd daaa 9dbd 42a1 503d 57d3 783c
00000330: b503 02bd cb66 98bd 34fa 903d f882 d83b
00000340: 9281 343e a2cc 903d eba3 063d 54c4 ef3d
00000350: 9e78 723d ff05 86bd c20b db3d 00ae 593d
00000360: f90e 99bd 236a 973d 78ed d9bd c8b5 313e
00000370: 899d 9dbd 56a1 443b 2bbc ea3d 2bf9 67bd
00000380: 6cb3 5a3e 604d 5d3c a83f 413c 4647 a5be
00000390: 9a74 903d 0c5d 9f3d 4d00 86bc 9dd4 c13d
000003a0: a1ce 153d 52c3 f53d 878e d8bd 872a 5f3d
000003b0: d08f 243e 612d db3d a698 75be 57d7 343e
000003c0: 8494 b3be 7860 723c 0cae c0bc 4603 c2be
000003d0: 26ef 393e 8c79 bdbd b12c 54bd 73d6 963d
000003e0: 6423 383d 270e c63d 9c5f a73d 002a f13d
000003f0: 1375 debc bd6b d7bd 8a60 543d abed 653e

layer2.bias f4 [64]
0.07961678 0.19323614 0.051431578 0.23420818 -0.072815515 0.4094155 0.5717207 0.0066043474
0.19178393 -0.14750177 -0.018415041 0.18450332 0.018977463 -0.057881415 -0.0416086 0.14379093
0.011580199 -0.033776827 0.023447007 0.6920413 0.0930301 -0.09843904 -0.034272697 -0.022927418
-0.05822451 0.294642 0.20478486 0.08165595 1.1571459 0.07210357 0.06050072 -0.062025048
0.06391859 -0.03451923 0.082743354 -0.010309536 0.03199569 0.024750955 0.039030187 -0.03722294
0.04315482 0.39484638 -0.1434708 -0.0019980029 0.062588476 -0.12930755 0.19743691 0.02334479
-0.07429606 0.27088177 0.5052639 -0.06302151 0.2605231 -0.08484875 -0.08589943 0.9268167
-0.06809291 -0.068697736 0.4329759 0.15797144 0.08061921 0.00085907505 -0.06566942 -0.023035172
00000000: 1f0e a33d b2df 453e eba9 523d 45d4 6f3e
00000010: 4d20 95bd e99e d13e 4a5c 123f 4869 d83b
00000020: 0263 443e b40a 17be 24db 96bc 70ee 3c3e
00000030: a076 9b3c 1015 6dbd c86d 2abd ee3d 133e
00000040: e0ba 3d3c 9259 0abd f013 c03c 9e29 313f
00000050: 9186 be3d 689a c9bd 8761 0cbd 48d2 bbbc
00000060: d37c 6ebd 51db 963e 1fb3 513e 3c3b a73d
00000070: 5b1d 943f 09ab 933d 9acf 773d fa0d 7ebd
00000080: c0e7 823d 0964 0dbd 5975 a93d 54e9 28bc
00000090: ea0d 033d 84c2 ca3c 1ede 1f3d 1577 18bd
000000a0: 1cc3 303d 4e29 ca3e 02ea 12be edf0 02bb
000000b0: 632e 803d 3369 04be e72c 4a3e 933d bf3c
000000c0: 8828 98bd 04b1 8a3e fa58 013f 6c11 81bd
000000d0: 4963 853e 2ec5 adbd 0aec afbd dc43 6d3f
000000e0: 4c74 8bbd 66b1 8cbd 04af dd3e 44c3 213e
000000f0: af1b a53d 8d33 613a b07d 86bd 42b4 bcbc

layer3.weight f4 [2, 64]
0.00028629982 -0.44611505 -0.015188241 0.08054244 0.11197711 -0.21616663 0.39706028 -0.018603334
0.005979354 -0.21065344 0.033048104 0.071748994 0.008835241 -0.0781143 -0.047111858 -0.0012714516
-0.031415243 -0.07469803 0.02947165 0.21653675 0.26302624 -0.012888132 -0.026764965 0.09704283
2.1365851e-05 -0.2390663 0.088639036 -0.076850295 0.33042404 0.001702769 0.04526864 -0.010822379
0.05396217 -0.11264454 -0.083463594 -0.10483961 -0.021721628 0.018572204 -0.0009992707 0.045501024
0.0061049084 0.41608506 -0.061968844 0.10734207 -0.022015352 -0.043449678 -0.3288449 -0.044309217
-0.01397656 -0.26643392 0.09880182 -0.007239632 -0.11467695 0.012135461 -0.016654026 0.31005186
-0.0017341288 -0.031388134 -0.47789723 0.0069265044 -0.010821044 0.00715174 0.00090996706 -0.07468768
-0.000117277305 -0.33786172 -0.044425387 -0.034116186 0.014868401 0.4618253 -0.47930184 -0.0008577777
-0.06776307 -0.21891177 -0.0020415157 0.0042742207 0.007275015 -0.04884431 -0.04119661 -0.008675329
0.012114677 0.03496797 -0.042467937 0.29020962 -0.086241655 0.106427245 -0.008184844 -0.08532992
0.0017844358 -0.40945008 -0.11894407 -0.04088732 1.2080288 -0.00029396478 -0.07033068 -0.010063854
-0.00787605 0.00732851 0.28766078 0.0064657144 -0.055244513 -0.005735227 -2.3610457e-05 0.20430034
-0.00076671323 -0.39189172 0.0846605 0.03911375 -0.08085577 -0.0017141317 -0.31013638 0.105920844
0.015924288 -0.5416207 -0.7233052 0.008882211 -0.49160033 -0.0043691695 -0.012944403 0.72754
-0.011363019 -0.06269257 -0.4790618 -0.0028340784 -0.01213765 -0.012725714 0.00083390507 0.14571778
00000000: 831a 9639 3169 e4be 1ad8 78bc 6ff3 a43d
00000010: 4154 e53d c95a 5dbe 7c4b cb3e 0566 98bc
00000020: 75ee c33b 89b5 57be 735d 073d 23f1 923d
00000030: b0c1 103c 64fa 9fbd 5df8 40bd d6a6 a6ba
00000040: 45ad 00bd 48fb 98bd 886e f13c cfbb 5d3e
00000050: 60ab 863e be28 53bc 3342 dbbc 64be c63d
00000060: d13a b337 cccd 74be 6288 b53d b063 9dbd
00000070: 572d a93e 722f df3a 9c6b 393d 5950 31bc
00000080: 7007 5d3d 2eb2 e6bd f6ee aabd 26b6 d6bd
00000090: 8ef1 b1bc bc24 983c f6f9 82ba 485f 3a3d
000000a0: af0b c83b 1a09 d53e 0bd3 7dbd 29d6 db3d
000000b0: 8a59 b4bc 4af8 31bd 5c5e a8be 957d 35bd
000000c0: f1fd 64bc 076a 88be 9c58 ca3d 6f3a edbb
000000d0: c0db eabd d0d3 463c 066e 88bc 1ebf 9e3e
000000e0: b54b e3ba d890 00bd f2ae f4be bbf7 e23b
000000f0: c04a 31bc 2559 ea3b db8a 6e3a dbf5 98bd
00000100: c6f2 f5b8 36fc acbe 65f7 35bd 6abd 0bbd
00000110: 989a 733c 5e74 ec3e 0d67 f5be 7ddc 60ba
00000120: 5dc7 8abd 682a 60be f3ca 05bb c30e 8c3b
00000130: 4063 ee3b f910 48bd c7bd 28bd f822 0ebc
00000140: a37c 463c 933a 0f3d dcf2 2dbd 5b96 943e
00000150: 779f b0bd 87f6 d93d b919 06bc 74c1 aebd
00000160: bbe3 e93a 71a3 d1be f398 f3bd 7679 27bd
00000170: b0a0 9a3f 491f 9ab9 8809 90bd dde2 24bc
00000180: 8c0a 01bc ff23 f03b 4648 933e 58de d33b
00000190: 1248 62bd 92ee bbbb 120f c6b7 1c34 513e
000001a0: 41fd 48ba 08a6 c8be 7c62 ad3d bd35 203d
000001b0: b697 a5bd b7ac e0ba 32ca 9ebe 07ed d83d
000001c0: a773 823c a7a7 0abf 882a 39bf b186 113c
000001d0: 0ab3 fbbe 402b 8fbb c314 54bc 1040 3a3f
000001e0: f52b 3abc f664 80bd 9747 f5be f2bb 39bb
000001f0: fedc 46bc 837f 50bc 6c9a 5a3a 0b37 153e

layer3.bias f4 [2]
0.11870844 0.0015205762
00000000: 691d f33d 124e c73a
