PPO-for-Beginners/ppo_critic.pth (torch, 19287 bytes, 5 tensors)

layer1.weight f4 [64, 1]
00000000: d4f8 39c1 016c 9bbd c9a1 c03f c691 79bd
00000010: 572e 813f 3af3 b0bd a96a bcbf d308 68bd
00000020: 79f6 e73e 86d8 d2bf 8e49 83bd a4a1 a53e
00000030: 227f e73e 9ce8 653f 8c57 81bd f503 ca3f
00000040: fd21 3bc1 5479 673e 45ff 3ec1 8b7f ff3e
00000050: c8fd af3f d43c 39c1 9cca 42c1 1e95 283e
00000060: 7851 fe3e 4de6 ca3f ac14 2dc1 30ec 3ec1
00000070: 3186 acbf 997e 85bd f873 d3bf e662 9a3e
00000080: 13fe 3fc1 f541 ab3f 6c2b 3fc1 5106 3ac1
00000090: c0a1 b43f 9404 a43f 624f 363e 8b10 3fc1
000000a0: 3984 de3e 8d39 0b3e 661a 40c1 427d 3ac1
000000b0: a457 d3bf cb98 233f 0acd 3bc1 daca e73e
000000c0: 2ed0 a7bf e89e 3ac1 2e0b 153d aacc 37c1
000000d0: 1e66 2b3f 9fb2 74c1 2054 8d3f 00f2 56bb
000000e0: db8c 7b3f c243 4f3f fa05 4f3f 0cb4 d03f
000000f0: 6ab9 3ec1 c5dd 41c1 e2c5 773f 533e 3dc1
-11.623249 -0.075889595 1.5049373 -0.060930036 1.0092267 -0.08640142 -1.472005 -0.05664904
0.4530523 -1.6472328 -0.06410514 0.32349885 0.45214182 0.8980806 -0.06315526 1.5782458
-11.695798 0.22604877 -11.937322 0.49901995 1.3749323 -11.577351 -12.174465 0.16463134
0.4967153 1.5851532 -10.817547 -11.932663 -1.3478452 -0.06518287 -1.6519766 0.3015358
-11.99953 1.3379503 -11.948101 -11.626542 1.4111862 1.2813897 0.1780372 -11.941539
0.43460253 0.13596173 -12.006445 -11.6555805 -1.6511121 0.6390502 -11.737558 0.4527195
-1.3110406 -11.663795 0.036387615 -11.487467 0.66952693 -15.293609 1.1041298 -0.0032798052
0.98261803 0.80962765 0.80868495 1.6304946 -11.920267 -12.116643 0.9678632 -11.827716

layer1.bias f4 [64]
00000000: 07f6 78bd 1b01 8341 1f88 69c0 3824 5241
00000010: 9536 04c0 1e4f 9641 8098 b340 86d6 4441
00000020: b382 3d40 1374 cc40 0855 5d41 def8 8040
00000030: 5941 6740 e785 66c0 2cfe 5941 01a4 95c0
00000040: 48c0 76bd 8ef4 9a40 8c42 7bbd cfd4 5b40
00000050: 14a5 59c0 aeda 76bd 8842 79bd 07ab b940
00000060: 73da 7140 5426 82c0 4a56 77bd b251 7abd
00000070: 215e a040 8618 6141 ad7d c840 ea94 8440
00000080: 6357 77bd 57e1 c5bf 6f96 76bd 9a5b 7abd
00000090: 9c69 a6c0 b60c 49c0 c074 af40 c042 7bbd
000000a0: 2b5a 7840 ed9a be40 d1b9 78bd f014 76bd
000000b0: 5d1f c840 8b62 fdc0 8e20 77bd 3236 0b40
000000c0: 508e a040 5e0b 74bd c59d 4b41 b3d1 77bd
000000d0: 8fdf 0040 cecd 5a3f 9288 3dbf 3a3f 5dbf
000000e0: b2a7 ccbe 0f57 6bbe ce62 bcc0 64c7 f0bf
000000f0: c267 79bd 75bd 76bd 5261 033f ef0d 7bbd
-0.060781505 16.37554 -3.6489332 13.133842 -2.0658314 18.788631 5.6123657 12.302374
2.9611022 6.389169 13.83326 4.0303793 3.6133635 -3.6019228 13.624554 -4.67627
-0.060241967 4.842353 -0.06134276 3.4348638 -3.4007006 -0.060267143 -0.060854465 5.8021274
3.778958 -4.0671787 -0.060385026 -0.061113067 5.0114903 14.068487 6.2653413 4.143178
-0.060386073 -1.5459393 -0.06020206 -0.061122514 -5.200392 -3.1414008 5.4830017 -0.061342955
3.8805034 5.956412 -0.060724083 -0.06007856 6.2538285 -7.918279 -0.06033378 2.1751828
5.017372 -0.059581153 12.726018 -0.06050272 2.013645 0.85470283 -0.74036515 -0.864246
-0.3997169 -0.22982429 -5.887061 -1.8810849 -0.060889967 -0.060239274 0.51320374 -0.061292585

layer2.weight f4 [64, 64]
00000000: 99ff a83e 5404 1b3f ceea ed3c 60a2 723f
00000010: 5394 4ec0 d77d 403f af3b 2f3f 08df 763f
00000020: e9c5 99bf 2598 ee3e 4720 503f fc5f 82bf
00000030: 1afe 86bf ec98 44c0 f337 2a3f 560e b0bd
00000040: 3f01 023f 2457 1bbf bbef 903e a161 a3bf
00000050: 76e9 6e3d 9311 c23e 1654 fe3e 98a9 4fbf
00000060: 179a a1bf eda9 d1bc cac7 033f 198c b93e
00000070: ff49 173f 3d05 6d3f 1979 ff3e f128 31bf
00000080: 40fc f13e c6de 6ac0 72a4 a33e fe53 8c3e
00000090: c9e3 a0be b708 64bd 3b05 c0be 87d5 fe3e
000000a0: a692 8dbf c3f3 5bbe 18c2 f13e 4e2c db3e
000000b0: 3425 f03e f616 23c0 e975 d63e d36f 93bf
000000c0: cd19 1a3f e9c7 8c3e c91a 7b3f 9c30 c73e
000000d0: a08e e1bf f4e4 753f c26f 02bf fe9b d93d
000000e0: 1cf1 27c0 48fd 05c0 a99a 25c0 3f0b 86bf
000000f0: 6dbc eb3e 49ee 913e 24ee 18c0 4ca0 e53e
00000100: d654 36bf 04a3 073f fa52 08c1 9ea4 3d3f
00000110: 7304 d7bf d760 e43e 05f1 593f 2352 503f
00000120: 08c6 35be 3e7b 613f b7de 153f 0153 ddbd
00000130: d323 2a3e 911c 59bf 2fe7 0c3f e350 e1c0
00000140: dc14 1cbf 6fd7 2c3e 3a63 22bf 8588 36be
00000150: 1f40 10c1 3cff 53bf 1a6a 16bf 814a 14bd
00000160: bf46 1ebb a52d 02c1 52b4 46bf ec3a 32bf
00000170: a047 2f3f 4065 313f 207d 483f 27b5 1c3e
00000180: 4aa9 42bf c3f2 4dbf e492 30bf 27d5 21bf
00000190: 243e d6c0 c006 f3c0 d740 e13e 78b8 2cbf
000001a0: 858a 613d 6176 f63e e52e 2fbf 5c84 14bf
000001b0: 6552 4a3f 10f6 d0be b54a 08bf 8ddf bfbe
000001c0: 1a6b 593f fdc7 0bbf b5b4 0f3f 7d69 0abf
000001d0: f7a4 f1be 06f5 1ec1 b8d4 cdc0 5ebb 943d
000001e0: 3633 d1bf 2559 a1bf 07b8 51c0 1ea1 bac0
000001f0: 8507 18bf 67bf 2fbf cd70 9fbf d492 40bf
00000200: 9fcd a9be cfde c03e 06a1 09c1 2e61 103f
00000210: eea7 dfbf 0cb1 fa3d b00f 353f d3e1 143f
00000220: d6fc 89be 1617 093f faa2 c63e 178a 7cbe
00000230: 44dc 0cbe 05d6 48bf 2acf 423e c7b7 dfc0
00000240: 566d cbbe 4194 d6bc 0224 02bf fd6d bdbd
00000250: d352 11c1 2143 0fbf 0ef3 d9be e0f7 36be
00000260: 0be6 5dbe 49c5 00c1 12ac 01bf 8b82 e0be
00000270: 39d2 1b3f 5c2b e83e dec7 1c3f 080d e83c
00000280: 7399 99be bfcb 45bf 1122 99be fc38 c0be
00000290: f4c2 d3c0 2e6f f5c0 3dcd 3b3e 343c babe
000002a0: fa0a 2abe a0ad 093e c0aa b1be 08fe ddbe
000002b0: 19e5 1a3f 33a3 ffbe a4fb 9abe f54a acbe
000002c0: e6d4 553f 8159 f0be 89ea 4f3e cb51 a3be
000002d0: df92 09bf 0cba 1ec1 d99c c9c0 68bb c33c
000002e0: b1ca b9bf 59cc a3bf b0e5 44c0 3ed0 b9c0
000002f0: 9263 f8be 0107 a8be f63a abbf 32c8 9bbe
00000300: 6938 3abe a127 173d b715 08c1 b8a4 643e
00000310: 6b6f f3bf d079 283d e5fc 173f 6615 3e3e
00000320: ed33 95be 4f87 253f 024e fe3d 64f4 9dbe
00000330: c9b2 c1be 61b0 36bf 91a1 213d 4cc4 d7c0
00000340: 1014 86be 7d5f 57be 7989 84bd 589a 44be
00000350: 911f 0bc1 6244 4abe 81dc 8fbd 0786 b6bd
00000360: 1af2 afbe 3052 00c1 36ef 44be 2df3 08be
00000370: 1670 073f eaa9 493e 3356 343f 3f7e 07be
00000380: e9ea 44bd ec40 b5bf 8be2 0bbe 8820 34bd
00000390: 8d09 cec0 38c8 e9c0 0939 02be 3fd3 abbd
000003a0: d386 59be dd9e ffbc aa6c 9abd 6cb3 7dbe
000003b0: 5a04 193f db9a 7abe cfd0 68be b5c2 bcbe
000003c0: 771b 253f 222f 42be 87bf 17be 2d17 40be
000003d0: d149 26bf 7c2e 1fc1 e49f ddc0 f833 f0bd
000003e0: b67f d5bf e5cf b1bf d6be 40c0 736e c7c0
000003f0: 7b43 ddbd 21ce fdbd 3cf8 9ebf a915 dabc
0.33007506 0.6055348 0.029042628 0.94779015 -3.227803 0.75192016 0.68450445 0.9643407
-1.2013522 0.46600452 0.8129925 -1.0185542 -1.0546296 -3.0718336 0.6649162 -0.08596484
0.5078315 -0.6067984 0.283079 -1.2764169 0.058328114 0.37904033 0.49673527 -0.81118155
-1.262515 -0.025593722 0.5147673 0.362397 0.59097284 0.9258612 0.49897078 -0.69203097
0.47262764 -3.669847 0.319614 0.2740783 -0.31423786 -0.055672374 -0.3750399 0.49772283
-1.1060379 -0.21479706 0.47218394 0.4280724 0.46903384 -2.5482764 0.41886833 -1.1518501
0.6019562 0.2749627 0.98087746 0.38904274 -1.7621651 0.9605248 -0.5095178 0.10625456
-2.6240911 -2.093584 -2.5875647 -1.0472182 0.46042195 0.2850211 -2.389535 0.4484886
-0.712232 0.5298312 -8.520258 0.7407931 -1.6798233 0.44605133 0.8513339 0.8137533
-0.17751324 0.8807868 0.5854296 -0.10806847 0.16615228 -0.84809214 0.5504026 -7.041124
-0.6096933 0.16879056 -0.6343266 -0.17825516 -9.015655 -0.8281133 -0.5875565 -0.036203865
-0.0024151055 -8.136144 -0.77618897 -0.6962116 0.68468666 0.6929512 0.78315926 0.15303479
-0.76039565 -0.8044855 -0.6897414 -0.6321587 -6.6950855 -7.594574 0.4399478 -0.67468977
0.055063743 0.4813719 -0.6843093 -0.58014464 0.79031974 -0.4081273 -0.53238994 -0.37475243
0.8492905 -0.5460203 0.5613511 -0.5406721 -0.4719617 -9.93482 -6.4322166 0.072623
-1.6343753 -1.260533 -3.2768571 -5.8321676 -0.59386474 -0.6865143 -1.2456299 -0.7522404
-0.3316469 0.3766999 -8.601812 0.56398284 -1.7473123 0.122408 0.7072706 0.5815708
-0.2695071 0.5355085 0.38796216 -0.24662052 -0.137559 -0.7845157 0.1902434 -6.9911838
-0.39731854 -0.02619374 -0.50836194 -0.09249494 -9.082721 -0.55961806 -0.4256825 -0.17867994
-0.21669786 -8.048165 -0.50653183 -0.43849596 0.6086765 0.4534558 0.61242473 0.028326526
-0.29999885 -0.77264017 -0.29908803 -0.37543476 -6.617548 -7.6698217 0.18340011 -0.36374056
-0.1660575 0.13445139 -0.34700584 -0.43357873 0.60505825 -0.499292 -0.30270112 -0.33650938
0.8352798 -0.46943286 0.20304312 -0.3189834 -0.5373973 -9.920422 -6.3003964 0.023893073
-1.4514982 -1.2796737 -3.076519 -5.80667 -0.48513466 -0.32817844 -1.3377368 -0.30426174
-0.18185581 0.036903027 -8.505301 0.2232846 -1.9018377 0.041131794 0.5937026 0.1856285
-0.2914118 0.6465959 0.124172226 -0.30850518 -0.37831715 -0.7136288 0.039460722 -6.742712
-0.2618718 -0.2103252 -0.06471533 -0.19199502 -8.695207 -0.19752648 -0.0702448 -0.089122824
-0.34364396 -8.020065 -0.19231877 -0.13374014 0.52905405 0.19693723 0.7044403 -0.13231753
-0.04807559 -1.4160438 -0.13660638 -0.043976337 -6.438666 -7.305691 -0.1271707 -0.08389901
-0.21242838 -0.031203682 -0.07540257 -0.24775475 0.59772265 -0.24473135 -0.22735904 -0.368673
0.64495033 -0.18963292 -0.14819156 -0.18758841 -0.64956385 -9.948849 -6.925768 -0.11728662
-1.6679599 -1.3891569 -3.0116477 -6.2322326 -0.108038865 -0.123928316 -1.2419505 -0.026621656

layer2.bias f4 [64]
00000000: cb76 863f e2f8 003f c2e8 c73e 119f 04be
00000010: ac2d 5ec0 1e34 ad3b da12 54c0 ce64 4f3d
00000020: 4717 9640 d8c3 823f b56f 773f c27d 633f
00000030: dc26 913f 5e03 00be a5c3 56c0 f5d8 efbd
00000040: 9d9e a4bd b6f6 5b3f 3d03 86be 1a3b 7b40
00000050: de94 5ec0 8e63 17be e817 833f 40d2 443f
00000060: c8a6 63c0 fc5a 4fbd 83ef 25bd 8a1b 803f
00000070: c279 73c0 63da 9bbc eb8a 863f c921 e440
00000080: 1c87 46c0 6539 72c0 a2cd 983e 1b77 73c0
00000090: 9dbf 973f 81b5 cc3d 3e00 45c0 2251 57c1
000000a0: a70b 143d 984b ac3d 7168 b1bd d5b9 b1c0
000000b0: 9749 763f c1c8 273c 620f 5140 67c6 4c3d
000000c0: faf7 e23b 5dd1 98bd 9091 c8bd d6f7 46c0
000000d0: 4623 8ebc 21bc 983e 1345 5940 4f0c 6cc0
000000e0: 4eff 0abe e465 4f3f fdb7 853f bf95 62c0
000000f0: 3097 923c b4a1 44c0 d9e8 953f 73ea 67c0
1.0505003 0.50379765 0.39044768 -0.12951304 -3.4715376 0.005285754 -3.3136506 0.050633244
4.6903415 1.0216017 0.96654826 0.88863766 1.1339984 -0.12501284 -3.3556912 -0.11711303
-0.080380656 0.85923326 -0.26174346 3.9254823 -3.4778361 -0.14784071 1.0241671 0.76883316
-3.5570545 -0.05062388 -0.04051162 1.0008404 -3.8043065 -0.019025033 1.0511144 7.129124
-3.1019964 -3.784753 0.29844385 -3.8041446 1.1855351 0.099955566 -3.0781398 -13.457308
0.036143925 0.08412856 -0.08662499 -5.5539346 0.9620604 0.010240735 3.266564 0.0499939
0.0069265338 -0.07461808 -0.09793389 -3.1088767 -0.017350804 0.2983103 3.394841 -3.6882513
-0.13573954 0.8101485 1.0446774 -3.5403898 0.017894357 -3.0723696 1.1711684 -3.6236846

layer3.weight f4 [1, 64]
00000000: c49c debf 74ba 56c1 7495 71c1 9057 8bc1
00000010: 342b 3840 7e49 e83c a7f3 5540 80ac 34bd
00000020: 705c a040 f4e2 22c1 4a3c 2441 c004 3bc1
00000030: a58d 15c1 491d 3ebd 4749 4d40 3eb0 5f3c
00000040: 532d 88c1 58f9 dcbf 5a2c 89c1 6c0f 9040
00000050: f028 4740 e678 89c1 ea3a 27c1 4909 dfc0
00000060: 1708 3140 4ef0 e5bd c2c2 613d 751b 0dc0
00000070: 1c6c 2c40 d430 aaba cc2e ecbf adc6 b8c0
00000080: 439a dd3f 9304 7140 11bc 58c1 028d 2b40
00000090: ab1c 08c0 d2cd a13b 30a9 c93f 390d 94c1
000000a0: f8bc a6bd b6aa ff3c 663c cbbb eb03 fd3f
000000b0: fb38 04c0 14cf 6dc1 df9b 9140 2f26 f9c0
000000c0: 80b0 823d 1ad8 8ac1 5bf8 6ec1 03c7 b33f
000000d0: 096c 0e3d d062 5e40 69cc 0541 b1cd 4140
000000e0: 18bc 87c1 61ab eebf e260 3dc1 485d 3240
000000f0: c976 87c1 3cf6 ae3f 95f2 fabf 0377 3c40
-1.7391591 -13.420521 -15.098988 -17.417755 2.877637 0.028355356 3.3429964 -0.04410982
5.011284 -10.1804085 10.264719 -11.68866 -9.347081 -0.046414647 3.2075975 0.013652859
-17.022131 -1.7263594 -17.146656 4.5018826 3.1118736 -17.184032 -10.451883 -6.9698834
2.7661188 -0.11227475 0.055117376 -2.2048008 2.6940985 -0.0012984523 -1.8451781 -5.7742524
1.7312702 3.7659042 -13.545915 2.6804814 -2.1267498 0.004937866 1.5754757 -18.506456
-0.08141512 0.031209331 -0.0062022684 1.9766821 -2.0659778 -14.863056 4.550277 -7.785911
0.06381321 -17.355518 -14.935634 1.4045109 0.034771 3.474781 8.362405 3.0281794
-16.966843 -1.8646051 -11.836153 2.7869434 -16.933 1.3668895 -1.960528 2.944764
